models/Mnist-alpha0.1-ratio0.5/server.pt (torch, 114031 bytes, 16 tensors)

weight f4 [6, 1, 3, 3]
0	0x3d70b5d2	0.058767147
1	0xbd8ffb88	-0.07030398
2	0x3db16618	0.08662051
3	0xbc617b46	-0.013762301
4	0x3e1f36bf	0.15548228
5	0x3ddef93e	0.10887383
6	0xbd321df0	-0.043485582
7	0xbe886e2c	-0.26646554
8	0x3d957183	0.07297041
9	0xbe8a58d1	-0.27020887
10	0x3d8efcf2	0.06981839
11	0x3d65f10d	0.056138087
12	0xbda600f2	-0.08105649
13	0x3e98022d	0.2968916
14	0x3c5beaea	0.013422707
15	0x3dc7942d	0.09745059
16	0x3de4b09f	0.111665
17	0xbe647b5c	-0.22312683
18	0xbe1ff9b0	-0.15622592
19	0x3e94cab6	0.29060906
20	0xbeb2a91c	-0.34894645
21	0xbccbb6b8	-0.0248674
22	0x3d13af3d	0.036055792
23	0x3e6447ce	0.22293016
24	0xbd33db78	-0.043910474
25	0x3db58d9f	0.08864903
26	0xbd3c4458	-0.045963615
27	0xbe3e8749	-0.18606295
28	0xbe444a75	-0.19169028
29	0xbe173019	-0.14764442
30	0xbe949cff	-0.2902603
31	0xbe56da2d	-0.20981665
32	0x3dc9d1b9	0.098544545
33	0x3e8033d9	0.25039557
34	0x3d0cf958	0.03441748
35	0xbe0a27a8	-0.1349169
36	0x3e187a02	0.14890292
37	0xbe074506	-0.13209924
38	0xbd6315bc	-0.05544065
39	0xbe374cd1	-0.17900397
40	0xbe05505d	-0.13018937
41	0xbea6b404	-0.32559216
42	0x3df13861	0.117783315
43	0x3de4ae56	0.111660644
44	0x3cc4e6d7	0.024035854
45	0x3e4a78fa	0.19772711
46	0x3e1a235c	0.15052551
47	0xbc414d5e	-0.011798231
48	0x3d82385d	0.06358407
49	0x3d14a300	0.03628826
50	0x3e14b341	0.14521505
51	0x3e5e7ccc	0.21727294
52	0x3e770720	0.24123812
53	0x3e35e9e3	0.17765002

bias f4 [6]
0	0xbda670eb	-0.08127006
1	0xbc732005	-0.014839177
2	0xbd8abbb5	-0.067740835
3	0x3e469082	0.19391063
4	0x3d17a1a0	0.037019372
5	0x3e9df555	0.30851236

weight f4 [6]
0	0x3f8106a2	1.0080149
1	0x3f84ddc6	1.038018
2	0x3f7a7efc	0.9785001
3	0x3f7f8a53	0.9982044
4	0x3f7eb9c5	0.9950221
5	0x3f7af7e8	0.98034525

bias f4 [6]
0	0x3bf19b1c	0.007373227
1	0x3c7de74e	0.015497042
2	0xbd111719	-0.03542242
3	0x3bdc8e9a	0.0067308666
4	0xbb3b2f28	-0.0028562043
5	0x3c23da05	0.01000071

running_mean f4 [6]
0	0x00000000	0.0
1	0x00000000	0.0
2	0x00000000	0.0
3	0x00000000	0.0
4	0x00000000	0.0
5	0x00000000	0.0

running_var f4 [6]
0	0x3f800000	1.0
1	0x3f800000	1.0
2	0x3f800000	1.0
3	0x3f800000	1.0
4	0x3f800000	1.0
5	0x3f800000	1.0

weight f4 [16, 6, 3, 3]
0	0x3d96e75b	0.07368346
1	0xbe03da32	-0.12876204
2	0x3d82321f	0.06357216
3	0x3e1d4333	0.15357666
4	0x3e093449	0.13398851
5	0x3d55dbc6	0.052211545
6	0x3d495a66	0.049158476
7	0xbe03b3cb	-0.12861554
8	0xbd45302d	-0.048141647
9	0x3daa2a00	0.08308792
10	0xbdb9ff69	-0.09081919
11	0x3e056b4b	0.1302921
12	0xbdad1f5d	-0.08453248
13	0x3d554458	0.05206713
14	0xbbca17b3	-0.006167376
15	0x3d1a29fc	0.037637696
16	0x3b19853a	0.0023425356
17	0xbe0240d9	-0.1272005
18	0xbc8bb6fe	-0.01705503
19	0xbd7b3523	-0.061329972
20	0x3de87413	0.113502644
21	0x3b5b0790	0.0033421256
22	0xbdf616f7	-0.12016099
23	0x3d1979dd	0.037469734
24	0x3d7a1e01	0.06106377
25	0xbd35b23f	-0.04435944
26	0xbc73d4a5	-0.014882241
27	0x3d831841	0.064011104
28	0xbd97748c	-0.073952764
29	0xbd9f14b5	-0.077676214
30	0xbbd31a8b	-0.006442373
31	0xbdb0d326	-0.08634023
32	0x3da4fd8c	0.08056173
33	0x3c9d3ef3	0.019195056
34	0x3db53e88	0.088498175
35	0x3d99968f	0.0749942
36	0xbdcc9964	-0.099901944
37	0xbdad234f	-0.08454
38	0xbdbcf601	-0.09226609
39	0xbd1a5ba7	-0.037685063
40	0xbd72e3cb	-0.05929927
41	0xbca17858	-0.019710705
42	0xbe031fd3	-0.12805109
43	0x3d517dd1	0.05114538
44	0x3d9b80a7	0.07592898
45	0x3d5ed684	0.054403797
46	0x3db84869	0.08998186
47	0x3dc4910f	0.0959798
48	0xbe04a161	-0.12952186
49	0x3c61e485	0.013787393
50	0x3dd890e2	0.10574509
51	0xbdc5dbf9	-0.09661097
52	0xbd8caadf	-0.068685286
53	0xbc1cf262	-0.009579273
54	0xbda34bca	-0.0797344
55	0xbb33d4e8	-0.0027440134
56	0xbc2ee921	-0.010675699
57	0x3e22ac17	0.1588596
58	0x3c6592f1	0.014012084
59	0x3d7e37da	0.062064983
60	0x3e0585de	0.13039348
61	0x3da46af7	0.080282144
62	0xbdc759e5	-0.09733943
63	0x3db24f4a	0.087065294
64	0x3dd1e9d8	0.1024968
65	0xbd882a23	-0.06648662
66	0xbd4cbd11	-0.049984995
67	0x3da1425a	0.07873984
68	0xbde72d66	-0.11287956
69	0xbe0bf53b	-0.13667767
70	0xbdb01e13	-0.08599486
71	0x3cf0a11d	0.0293737
72	0xbd0b7b6a	-0.034053244
73	0xbdf779c7	-0.12083774
74	0x3dd5ffeb	0.10449203
75	0x3db27eda	0.08715601
76	0x3d2d8951	0.042367283
77	0xbdad24ff	-0.08454322
78	0x3e0b29e1	0.13590194
79	0xbbdf9c69	-0.0068240655
80	0xbde274fc	-0.11057469
81	0xbc8ab39e	-0.016931351
82	0x3daf3b18	0.08556193
83	0x3d83adc5	0.06429628
84	0xba308572	-0.0006733752
85	0x3dc32aca	0.09529646
86	0xbe0082bd	-0.12549873
87	0x3db2d263	0.08731534
88	0x3e01fab8	0.12693298
89	0xbdbe2f5e	-0.09286378
90	0x3d100332	0.035159297
91	0xbcc94f60	-0.024573982
92	0xbdec1629	-0.11527664
93	0xba244cd9	-0.00062675547
94	0xbd381cbc	-0.04494928
95	0xbddeb976	-0.108752176
96	0xbde44522	-0.111459985
97	0xba3b92a4	-0.0007155335
98	0x3dd4431b	0.10364362
99	0x3d5403d8	0.05176148
100	0xbdb7da94	-0.08977237
101	0x3e03d193	0.12872915
102	0x3cd718fe	0.026257034
103	0xbe04aa37	-0.12955557
104	0x3d07cba9	0.03315321
105	0x3d98c111	0.074586995
106	0xbd98f814	-0.07469192
107	0x3b3dc7b2	0.002895814
108	0xbd825bcf	-0.06365167
109	0xbdc4e005	-0.09613041
110	0xbd4fb33f	-0.05070805
111	0xbbf88997	-0.0075847614
112	0x3daf0f3d	0.08547828
113	0xb9a580b8	-0.00031567155
114	0xbdccf343	-0.10007336
115	0xbc60cddc	-0.013720956
116	0xbdf6227c	-0.12018296
117	0x3c8987cb	0.016788384
118	0x3db5dbaf	0.08879792
119	0x3d72ccd9	0.05927739
120	0xbd94570e	-0.07243167
121	0xbcf5b71d	-0.029994542
122	0x3d49b4f8	0.04924485
123	0x3cc6d439	0.024271118
124	0xbe137ac4	-0.144023
125	0xbd938598	-0.07203215
126	0xbd595282	-0.0530572
127	0x3d2074a1	0.039173726
128	0x3e0465ad	0.12929411
129	0x3d9043d5	0.07044188
130	0x3d0b0873	0.033943605
131	0xbddfb8d9	-0.10923929
132	0x3de0d2c0	0.10977697
133	0x3d121752	0.03566677
134	0xbd383026	-0.044967793
135	0xbd7bdb8c	-0.061488673
136	0x3d20c9fa	0.03925512
137	0xbd925d93	-0.07146754
138	0x3d4a2bae	0.049358062
139	0x3de09736	0.10966341
140	0xbdb99e5e	-0.09063409
141	0xbdbc3237	-0.09189265
142	0xbd5f4830	-0.054512203
143	0xbdde3770	-0.108504176
144	0xbbdafba5	-0.0066828304
145	0x3db3afde	0.087737784
146	0x3d554885	0.052071113
147	0xbd29c83a	-0.041450717
148	0xbc0ef3dc	-0.008725133
149	0xbd7cb602	-0.061697014
150	0xbde591bd	-0.11209438
151	0xbcb90a03	-0.022587782
152	0x3b4d2cf1	0.0031307305
153	0xbd92dce5	-0.071710385
154	0xbdf3fd81	-0.119135864
155	0x3d198ca2	0.037487634
156	0x3cf9b16e	0.030480113
157	0xbd9e6d1f	-0.07735657
158	0x3cb40c52	0.021978531
159	0x3e0ecddd	0.13945718
160	0xbb0d99ac	-0.0021606488
161	0xbdbfac05	-0.09358982
162	0x3e152f5c	0.14568847
163	0x3dd60711	0.104505666
164	0xb74ef34b	-1.2335203e-05
165	0xbd5c7698	-0.053824037
166	0xbd03f0ad	-0.03221195
167	0x3e1d489a	0.15359727
168	0x3d9fad42	0.07796718
169	0xbd9ba04d	-0.07598934
170	0xba7045f1	-0.00091656955
171	0x3d854dcc	0.06508979
172	0x3d29247f	0.04129457
173	0x3c84c778	0.016208395
174	0xbd9b2268	-0.07574922
175	0x3b0d24e9	0.0021536893
176	0x3add5af4	0.0016888068
177	0xbc7f9b64	-0.015601013
178	0xbd403bf5	-0.04693218
179	0xbd213932	-0.039361186
180	0xbd64589c	-0.055748567
181	0x3d906267	0.07050019
182	0xbd92515f	-0.071444266
183	0xbdfbc79d	-0.122939326
184	0x3e02a8c3	0.1275969
185	0x3db9ded2	0.09075703
186	0x3d9b932e	0.07596432
187	0x3d933cbc	0.071893185
188	0xbd5a3a0a	-0.053278007
189	0xbdb089ba	-0.08620019
190	0xbdb862b1	-0.09003199
191	0xbc6e9d6b	-0.014563899
192	0x3d2c7a9e	0.042109124
193	0xbdf8bc2e	-0.121452674
194	0xbddff303	-0.10935023
195	0x3da0cad5	0.07851187
196	0x3c9837b7	0.018581254
197	0x3db36f52	0.08761467
198	0x3de1d2c4	0.110265285
199	0x3d9ab09a	0.07553215
200	0xbcf822ef	-0.030290095
201	0xbd4ca845	-0.04996516
202	0x3d36f97d	0.044671524
203	0x3dc92439	0.09821362
204	0xbe06a68a	-0.13149467
205	0x3cd67a4d	0.026181364
206	0xbdd86cbf	-0.10567617
207	0xbdda6fc7	-0.10665851
208	0x3d75add7	0.05998024
209	0x3dbf3498	0.09336203
210	0x3d0a1a80	0.03371668
211	0x3d2440b4	0.04010077
212	0xbd213d50	-0.039365113
213	0x3cb59762	0.022166912
214	0xbdb5bc12	-0.08873762
215	0xbd91371d	-0.0709059
216	0x3d691c78	0.056911916
217	0x3c9da93f	0.019245742
218	0xbbc14873	-0.005898529
219	0x3dc2ac78	0.09505552
220	0x3d9046e7	0.070447735
221	0xbc9a930e	-0.01886895
222	0xbd1e2279	-0.038607094
223	0xbdc3af14	-0.09554878
224	0x3dbe818d	0.093020536
225	0xbdb29409	-0.08719642
226	0x3d89b345	0.06723646
227	0x3b567c34	0.003272784
228	0x3db1530e	0.086584195
229	0xbd9f89c5	-0.07789949
230	0xbd9a1614	-0.07523742
231	0x3c68b32a	0.014202872
232	0x3c8e067b	0.017337075
233	0xbd8c7658	-0.0685851
234	0x3df9c0e3	0.12194993
235	0xbd9c2daa	-0.07625897
236	0x3dc822be	0.097722515
237	0x3d73070e	0.0593329
238	0xbc6420b2	-0.013923811
239	0x3d87c441	0.06629229
240	0xbd04b8fd	-0.03240298
241	0xbdb023b2	-0.08600558
242	0x3da59add	0.080861785
243	0xbd26aac0	-0.040690184
244	0xbccb3bc1	-0.024808766
245	0x3df4f011	0.119598515
246	0x3e08d1da	0.13361302
247	0xbdcb32bf	-0.099217884
248	0xbd22655e	-0.039647453
249	0x3dae9fc9	0.0852657
250	0x3dac4fb4	0.0841364
251	0xbdd63640	-0.10459566
252	0xbdc8ac71	-0.097985156
253	0x3d3130d9	0.043259475
254	0xbdbf22e5	-0.093328275
255	0x3dc7151a	0.09720822

bias f4 [16]
0	0xbd437f18	-0.047728628
1	0x3d994654	0.07484117
2	0xbde05fa0	-0.10955739
3	0x3c000209	0.007812985
4	0x3dc53f4c	0.096312135
5	0x3d18f35d	0.037341464
6	0x3d890044	0.06689504
7	0xbd7df4a9	-0.062000904
8	0x3c0b21dd	0.00849196
9	0xbdb9c22c	-0.090702385
10	0x3d3642c8	0.04449728
11	0xbac50e03	-0.0015034083
12	0x3db371a4	0.087619096
13	0xbd0fca37	-0.035104956
14	0xbd998a69	-0.07497103
15	0x3de63460	0.112404585

weight f4 [16]
0	0x3f877997	1.0583981
1	0x3f8801a7	1.0625504
2	0x3f838dd7	1.0277661
3	0x3f8b069f	1.0861396
4	0x3f85e900	1.0461731
5	0x3f8428f6	1.0325
6	0x3f850968	1.0393496
7	0x3f8756cd	1.0573364
8	0x3f843428	1.0328417
9	0x3f89827d	1.0742947
10	0x3f85a39c	1.0440555
11	0x3f89aace	1.075525
12	0x3f83fe2f	1.0311946
13	0x3f88c23b	1.0684274
14	0x3f856366	1.0420959
15	0x3f897a73	1.0740494

bias f4 [16]
0	0x3cdf5bdd	0.027265484
1	0x3d17a41f	0.037021752
2	0x3caf0095	0.021362582
3	0x3d0ac2a6	0.033877037
4	0x3cda46fd	0.026645178
5	0x3cc98962	0.024601642
6	0x3c8b105d	0.016975576
7	0x3d0c7382	0.034289844
8	0x3d0c7474	0.034290746
9	0x3d14e7da	0.036353923
10	0x3cc85dff	0.024458883
11	0x3cbdd38d	0.023172164
12	0x3cd599b3	0.026074266
13	0x3cdee72f	0.027209846
14	0x3ce2415c	0.027619056
15	0x3cd880fd	0.026428694

running_mean f4 [16]
0	0x00000000	0.0
1	0x00000000	0.0
2	0x00000000	0.0
3	0x00000000	0.0
4	0x00000000	0.0
5	0x00000000	0.0
6	0x00000000	0.0
7	0x00000000	0.0
8	0x00000000	0.0
9	0x00000000	0.0
10	0x00000000	0.0
11	0x00000000	0.0
12	0x00000000	0.0
13	0x00000000	0.0
14	0x00000000	0.0
15	0x00000000	0.0

running_var f4 [16]
0	0x3f800000	1.0
1	0x3f800000	1.0
2	0x3f800000	1.0
3	0x3f800000	1.0
4	0x3f800000	1.0
5	0x3f800000	1.0
6	0x3f800000	1.0
7	0x3f800000	1.0
8	0x3f800000	1.0
9	0x3f800000	1.0
10	0x3f800000	1.0
11	0x3f800000	1.0
12	0x3f800000	1.0
13	0x3f800000	1.0
14	0x3f800000	1.0
15	0x3f800000	1.0

weight f4 [32, 784]
0	0x3d030191	0.031983916
1	0x3cc777cb	0.024349114
2	0xbc87890f	-0.016544847
3	0xbc659acb	-0.014013956
4	0xbaacc0a5	-0.0013179971
5	0xbcbed455	-0.023294607
6	0x3c8a26d1	0.016864212
7	0x3cc86638	0.024462804
8	0x3cf24362	0.029573146
9	0xbc43c4b6	-0.011948755
10	0xbcd2a6f2	-0.025714371
11	0xbcfb71ff	-0.030694006
12	0xb9a6ee41	-0.000318395
13	0x3d03d29b	0.03218327
14	0xbbd4a94a	-0.0064899074
15	0x3cf35a9b	0.02970629
16	0xbb721eb0	-0.003694456
17	0xbca267a4	-0.01982481
18	0x3c2e7c18	0.010649703
19	0xbc4c96ba	-0.012487108
20	0xbc6e98b8	-0.014562778
21	0x3d122ff6	0.03569027
22	0xbcb03168	-0.021507934
23	0xbceeff30	-0.029174417
24	0x3d10c2d4	0.035342053
25	0xba0a1ecd	-0.0005268872
26	0xbbd5e9d5	-0.006528119
27	0xbc8e4978	-0.017369017
28	0xbc8062bd	-0.015672082
29	0xbca7a1fa	-0.020462979
30	0x3c6b46dc	0.014360156
31	0xbc2a941d	-0.0104112895
32	0x3d2f4102	0.042786606
33	0xbb789ac6	-0.003793405
34	0x3c0a48a6	0.008440172
35	0xbcad65e9	-0.021166759
36	0x3b26ed5d	0.002547107
37	0xbbd3bd03	-0.006461741
38	0x3c0ec713	0.008714455
39	0xbc80057f	-0.01562762
40	0xbc080050	-0.008300856
41	0xb9830d3e	-0.00024996133
42	0x3cb03644	0.02151025
43	0xbbf6c20b	-0.007530456
44	0x3cca7751	0.024715098
45	0x3d13e3da	0.036105968
46	0xbcd60c7e	-0.026129004
47	0xb9ff0da4	-0.00048647553
48	0xbc411700	-0.011785269
49	0x3cec28a5	0.028827975
50	0xbc527aa2	-0.012846621
51	0x3c4ad5ac	0.012380045
52	0xbcc7b782	-0.024379496
53	0xbcdeb3e8	-0.027185395
54	0x3d0b78d4	0.034050778
55	0xbcee6ecc	-0.029105566
56	0x3bff5e68	0.0077932365
57	0x3c4f165b	0.012639607
58	0x3b3367a4	0.0027375007
59	0xbcaa71f1	-0.020806285
60	0xbc810380	-0.01574874
61	0xbce23524	-0.02761323
62	0xbcab1af0	-0.020886868
63	0xbc0c7ce4	-0.008574698
64	0x3cce939f	0.025216876
65	0xbc5ddf62	-0.013542028
66	0x3c144784	0.009050254
67	0xbbbd4d96	-0.005777071
68	0x3c5f91ad	0.013645572
69	0x3d11ab45	0.035563726
70	0x3aa2e060	0.0012426488
71	0xbcb82034	-0.022476293
72	0xbcc7c147	-0.024384154
73	0xbc4fa0ae	-0.012672586
74	0x3d024e2b	0.031812828
75	0xbc48e52d	-0.012261671
76	0xbd0752ef	-0.033038076
77	0xbbc57ae4	-0.0060266126
78	0x3ba95304	0.005167367
79	0x3d15c81c	0.036567792
80	0x3c8e7562	0.017389957
81	0x3b7127eb	0.0036797475
82	0xbcbdb77d	-0.023158783
83	0xbc0f6cee	-0.008753998
84	0xbb9315ed	-0.0044886977
85	0x3b02a369	0.0019933826
86	0x3c9f82a7	0.01947148
87	0x3cc5c330	0.024140924
88	0x3c40c703	0.011766198
89	0x3c4dc43c	0.012558993
90	0x3c1ffe06	0.009765154
91	0x3d042aab	0.032267254
92	0xbb0bc524	-0.0021327222
93	0x3d019f5c	0.031646118
94	0xbd0a9da9	-0.033841763
95	0x3c8975c3	0.016779786
96	0xbc28debd	-0.010307011
97	0xbcddc54e	-0.027071621
98	0x3c309812	0.010778444
99	0x3c97f7e8	0.018550828
100	0xbc7a9dad	-0.015296382
101	0xbc557022	-0.013027223
102	0x3c8ccc52	0.017187271
103	0x3c97930e	0.018502738
104	0xbcc67132	-0.024223898
105	0x3b6f9879	0.0036559387
106	0xbafde21d	-0.0019369755
107	0x3ce93250	0.028466374
108	0x3cc7f6d2	0.024409685
109	0xbc2e7248	-0.010647364
110	0xbc072926	-0.008249557
111	0xbb319f51	-0.0027103017
112	0xbd043ff6	-0.03228756
113	0x3b3858b1	0.0028129036
114	0x3d0117bc	0.031516775
115	0x3d35ebc6	0.044414304
116	0x3c0147cb	0.007890652
117	0x3ca99f57	0.020705862
118	0x3b95b575	0.0045687505
119	0x3c6d121a	0.014469648
120	0x3c025173	0.007953989
121	0x3cc06879	0.023487316
122	0x3ce7350a	0.028223533
123	0x3c72e8ad	0.014825982
124	0xbcc31da2	-0.023817841
125	0xbcf47c31	-0.029844375
126	0x3c30de17	0.010795138
127	0xbca41619	-0.020030068
128	0xbc394c60	-0.011309713
129	0xbc4c46bb	-0.012468035
130	0xbb37da40	-0.002805367
131	0x3cfffe89	0.031249302
132	0xbc13e19e	-0.009025959
133	0x3bd6c574	0.0065543
134	0xbc9c8992	-0.019108567
135	0xbcf50154	-0.02990786
136	0xbca30dac	-0.01990398
137	0xbcddd167	-0.02707739
138	0xbcb52c96	-0.022115987
139	0xbb6cd9a2	-0.0036140461
140	0x3ca3fc27	0.020017697
141	0x3c0fdeaf	0.008781119
142	0x3cfe5ed4	0.031051077
143	0x3d050c3b	0.032482367
144	0x3cb75c34	0.022382833
145	0x3c4c5fd0	0.012474015
146	0xbc8490c0	-0.016182303
147	0x3cfb499e	0.030674752
148	0x3c954452	0.018221054
149	0xbcfa1197	-0.030525966
150	0x3cebed1b	0.028799584
151	0xbcd96f6e	-0.026542392
152	0x3caf3674	0.02138827
153	0x3d070fad	0.032973934
154	0x3c95e498	0.018297479
155	0xbd00fa35	-0.031488616
156	0x3c13ddac	0.009025019
157	0x3bd4a298	0.0064891092
158	0x3c127fcd	0.008941603
159	0xbad24f7a	-0.0016045414
160	0xbd0008ff	-0.03125858
161	0xbc57fc3c	-0.013182696
162	0xbbca368b	-0.006171053
163	0x3bdd26a3	0.0067489906
164	0x3d0f0f63	0.034926783
165	0xbbfc63a8	-0.0077023096
166	0xbc3c781c	-0.011503246
167	0x3c0d32e7	0.008618093
168	0xbce5a915	-0.028034726
169	0x3cae9e29	0.021315651
170	0xbc418443	-0.011811319
171	0xbcb9a6b0	-0.02266249
172	0xbcee46f7	-0.029086573
173	0x3cf6c183	0.03012157
174	0x3d0bd08b	0.03413443
175	0x3c9f7eac	0.019469582
176	0xbbd8868e	-0.006607837
177	0x3d23a307	0.039950397
178	0xbb63e9f9	-0.003477691
179	0xbb8035d6	-0.0039126677
180	0xbbbc75a6	-0.0057513295
181	0x3d0670f7	0.032822575
182	0xbcc8ee9b	-0.024527838
183	0xbd0d8b15	-0.034556467
184	0x3cc9ef1f	0.024650155
185	0x3d09c162	0.03363169
186	0xbc97e01d	-0.018539483
187	0xbcaebd7f	-0.021330593
188	0xbb7ac4ed	-0.003826435
189	0x3c73e23c	0.014885481
190	0x3cc469e4	0.023976274
191	0xbcc9287f	-0.024555443
192	0xbc4da0bb	-0.012550528
193	0x3c84396d	0.016140664
194	0x3ce51547	0.027964247
195	0xbac97432	-0.0015369712
196	0xbbca6800	-0.0061769485
197	0xbbad8b77	-0.0052961665
198	0x3d18e969	0.037331972
199	0xbca4db6f	-0.020124165
200	0xbcc4eeb3	-0.024039602
201	0x3d11412f	0.035462555
202	0x3bf5a31b	0.0074962503
203	0xbc9749f0	-0.018467873
204	0xbd08a7e6	-0.033363245
205	0xbb7c3ffd	-0.0038490288
206	0x3b9a9619	0.0047176
207	0x3a99e9dd	0.001174267
208	0x3bc4af1b	0.0060023195
209	0x3cca6aa1	0.024709048
210	0x3d11bc5d	0.035580028
211	0x3c1700d4	0.009216506
212	0xbc1d9fb0	-0.009620592
213	0xbbae69a3	-0.0053226515
214	0xbcc63c34	-0.024198629
215	0xbb2b7b2e	-0.002616595
216	0x3cd13c82	0.025541548
217	0x3ca27bc9	0.019834416
218	0xbcb41f4b	-0.021987578
219	0x3ce16cd1	0.027517708
220	0x3a9afa31	0.001182383
221	0xbbadb67c	-0.005301295
222	0x3cd654a0	0.0261634
223	0x3c5a7ee8	0.013335921
224	0xbc8f10df	-0.0174641
225	0xbd00b5af	-0.031423267
226	0xbc8fa489	-0.017534511
227	0x3d1c4420	0.038150907
228	0xbc687743	-0.01418859
229	0x3c986851	0.01860443
230	0xbc428d2a	-0.011874476
231	0x3cdf0ace	0.027226832
232	0x3cc811c2	0.02442253
233	0x3cc0dd2a	0.02354296
234	0xba347f18	-0.00068853935
235	0x3c9c2a20	0.019063056
236	0x3cbd7853	0.023128664
237	0xbc72f172	-0.014828073
238	0xbc25ae52	-0.010112362
239	0x3cbb1779	0.022838341
240	0x3d080b4b	0.033213895
241	0xbc9294dd	-0.01789325
242	0x3c4b219e	0.012398152
243	0x3cbccc6f	0.0230467
244	0x3cea1c81	0.028578045
245	0x3c3f4646	0.011674469
246	0x3d0d942a	0.03456513
247	0xbce45f32	-0.027877424
248	0xbcf98ada	-0.030461717
249	0x3c085dd6	0.0083231535
250	0xba0626b5	-0.0005117462
251	0x3cac82f2	0.021058533
252	0x3bfffe50	0.007812299
253	0x3b7b15b6	0.0038312501
254	0xbc9960af	-0.01872286
255	0x3b6bf595	0.0036004533

bias f4 [32]
0	0x3d172100	0.036896706
1	0x3ca567e4	0.02019114
2	0x3b5cde28	0.0033701751
3	0xbb8a5afd	-0.0042222724
4	0xbc373bcc	-0.01118369
5	0xbcc9d307	-0.024636758
6	0xbc9a1379	-0.018808113
7	0xbcd53295	-0.026025096
8	0xbc2a0705	-0.01037765
9	0xbd08dad5	-0.03341182
10	0x3c5e4a75	0.013567557
11	0x3d00bb64	0.03142871
12	0x3cc8ad52	0.024496708
13	0xbca3b55d	-0.019983942
14	0xbc8fd4e3	-0.017557567
15	0x3c828eb6	0.01593719
16	0xbcc99c2e	-0.024610605
17	0x3bd2983a	0.006426838
18	0xbc3702d6	-0.01117011
19	0xbca74dd1	-0.020422848
20	0x3ca1a6e5	0.019732902
21	0x3bd06753	0.0063599735
22	0x3c03c7bd	0.008043227
23	0xbc1c2861	-0.009531111
24	0x3a987775	0.0011632281
25	0x3a71b991	0.0009221072
26	0xbc82a182	-0.015946154
27	0xbcecf2c7	-0.028924359
28	0xbbb3a833	-0.0054826974
29	0x3ce4960e	0.027903583
30	0xbc8408ff	-0.01611757
31	0x3c143642	0.009046139

weight f4 [10, 32]
0	0x3dd74db1	0.10512865
1	0xbe20d479	-0.15706052
2	0xbdd993dc	-0.10623905
3	0x3def6375	0.11688892
4	0x3e2f5adb	0.17124502
5	0x3dc9e7bd	0.09858654
6	0xbc51b07a	-0.012798423
7	0xbda9bfbe	-0.08288525
8	0xbe06f881	-0.13180734
9	0x3da9d5c8	0.08292729
10	0x3d1a33aa	0.037646927
11	0xbd06de3b	-0.03292678
12	0xbdbfce4d	-0.093655206
13	0xbda93a65	-0.08263091
14	0xbe133562	-0.14375833
15	0xbe141cbf	-0.14464091
16	0x3e102941	0.14078237
17	0x3e0a794b	0.13522832
18	0x3d291045	0.04127528
19	0x3e252e64	0.16130978
20	0xbe482af8	-0.19547641
21	0x3e12a4be	0.14320657
22	0x3d77b2f0	0.060473382
23	0xbe1aa92b	-0.15103595
24	0xbdfcc9cc	-0.12343177
25	0x3e19f0de	0.1503329
26	0x3dbfd1d6	0.09366195
27	0x3db070dc	0.08615276
28	0xbe11fae4	-0.14255863
29	0x3d12ddd9	0.0358561
30	0x3e138118	0.14404714
31	0xbd8dc403	-0.06922152
32	0xbdebfa3a	-0.11522336
33	0xbe095498	-0.13411176
34	0xbe0a9b5a	-0.13535824
35	0xbe21e9d7	-0.15811859
36	0x3cfbc172	0.03073189
37	0x3de53ced	0.11193261
38	0xbdeb9205	-0.115024604
39	0x3d64ec31	0.055889312
40	0x3dd6194d	0.104540445
41	0x3de41fb8	0.11138862
42	0xbe409e06	-0.18810281
43	0xbda39abb	-0.07988497
44	0x3d073158	0.033006042
45	0x3e09cfcb	0.13458173
46	0xbae15c75	-0.0017193692
47	0xbe0d107b	-0.13775818
48	0x3ce2d6a7	0.027690245
49	0xbc45ca13	-0.012072104
50	0x3df8302a	0.121185616
51	0xbdbd4c5c	-0.0924308
52	0xbd5b0415	-0.05347069
53	0x3df75192	0.12076105
54	0x3d33bc81	0.043880943
55	0x3c6608e2	0.014040204
56	0xbcc2a676	-0.023761015
57	0x3d0f654e	0.03500872
58	0x3cad66f1	0.02116725
59	0x3dad565f	0.084637396
60	0x3e3a542c	0.18196172
61	0xbd984162	-0.07434346
62	0xbd70b5dc	-0.058767185
63	0x3c973490	0.018457681
64	0x3d38929b	0.04506169
65	0xbe7aad7a	-0.24480239
66	0x3d8dcb20	0.06923509
67	0xbe367329	-0.17817368
68	0x3e51ea47	0.20499526
69	0x3e3b242f	0.18275522
70	0xbe46cb12	-0.19413403
71	0xbc9ad295	-0.018899241
72	0xbd52b189	-0.051438842
73	0xbe7898b4	-0.24277002
74	0x3dbec02c	0.093139976
75	0x3e40e64f	0.18837856
76	0xbd17d24d	-0.037065793
77	0xbe5fb8f7	-0.21847902
78	0x3d36cbe2	0.04462803
79	0xbe546432	-0.20741346
80	0xbdf23a05	-0.118274726
81	0xbe0bbf4e	-0.13647196
82	0x3e795907	0.24350367
83	0xbdb3de67	-0.08782654
84	0xbd28e1be	-0.04123091
85	0x3e18b3bd	0.14912315
86	0xbe38ae1a	-0.18035164
87	0xbc319dc9	-0.010840842
88	0x3d852099	0.06500358
89	0xbcbba5f4	-0.022906281
90	0xbdc33607	-0.09531789
91	0x3e6c539c	0.2307877
92	0xbde83ef8	-0.11340135
93	0xbd97c320	-0.07410264
94	0xbd168b14	-0.03675373
95	0x3c7e2af5	0.015513171
96	0xbdd48fc0	-0.10378981
97	0xbd34d640	-0.044149637
98	0xbb18ce3b	-0.0023316282
99	0xbd193f2e	-0.03741377
100	0x3d40fb4a	0.047114648
101	0x3d8f1abd	0.06987522
102	0xbe063a98	-0.13108289
103	0xbd71bf6a	-0.059020437
104	0x3d8a77fe	0.06761168
105	0xbe2fd3f0	-0.17170691
106	0x3cbe2a61	0.023213567
107	0x3d350d9e	0.04420244
108	0xbe249bd1	-0.16075064
109	0xbdd32576	-0.103098795
110	0xbe1407d6	-0.14456114
111	0xbdf56f44	-0.11984113
112	0x3da3c7d0	0.079970956
113	0x3e049185	0.12946136
114	0xbc0c54c2	-0.00856513
115	0x3dbe9178	0.0930509
116	0x3bbefd73	0.0058285533
117	0xbde52601	-0.11188889
118	0x3d8c1921	0.068407305
119	0x3c8137e4	0.015773721
120	0x3d828b90	0.06374276
121	0xbe0133f6	-0.12617478
122	0x3de53f64	0.111937314
123	0x3dc98c1b	0.09841176
124	0x3e27824f	0.16358303
125	0xbe207e1f	-0.15673111
126	0x3e0509e9	0.12992062
127	0x3dddbbe9	0.10826857
128	0x3e16feed	0.14745684
129	0xbdb727f0	-0.08943164
130	0x3de197eb	0.11015304
131	0x3d75c506	0.06000235
132	0xbe03d1b4	-0.12872964
133	0x3e19f645	0.1503535
134	0x3e3becea	0.18352094
135	0xbdae73cb	-0.085181795
136	0xbcd2ed7c	-0.025748007
137	0x3d63a4df	0.055577155
138	0x3dd4af7e	0.10385035
139	0xbdf9a4a7	-0.12189608
140	0xbe048def	-0.12944768
141	0xbbb8bdf5	-0.005637879
142	0xbe44c6d2	-0.19216469
143	0xbc80ab93	-0.015706813
144	0x3d6a2e55	0.057173092
145	0x3d34974e	0.044089608
146	0xbd253ba3	-0.040340077
147	0x3de1bed6	0.11022727
148	0x3c812fed	0.015769923
149	0x3cce26c1	0.025164964
150	0x3df13d86	0.11779313
151	0x3e0de43a	0.13856593
152	0x3e27c55c	0.1638388
153	0xbd04a653	-0.03238518
154	0x3e3e6197	0.18591915
155	0xbd4876a1	-0.04894126
156	0x3df363dc	0.11884281
157	0xbd86a97b	-0.065752946
158	0x3dc0cb74	0.094138056
159	0xbd911466	-0.07083969
160	0xbe23b8f0	-0.15988517
161	0xbdda3f56	-0.106566116
162	0x3cdd82f4	0.027039982
163	0xbe098a12	-0.13431576
164	0x3e22351f	0.15840577
165	0xbb90f2ec	-0.00442349
166	0xbcd58b1f	-0.026067315
167	0x3db78ce2	0.08962418
168	0xbdcf513c	-0.10122916
169	0xbe119fdc	-0.14221138
170	0xbdc9dce5	-0.098565854
171	0xbdd3982e	-0.1033176
172	0xbe1e993a	-0.15488139
173	0xbd3b9a14	-0.045801237
174	0x3cd646d7	0.026156826
175	0x3bc7248d	0.0060773552
176	0x3e2b586d	0.1673295
177	0xbe00c989	-0.1257688
178	0xbe07b890	-0.13253999
179	0xbdf11e0d	-0.1177331
180	0xbd720cb4	-0.059094146
181	0xbe38e5a2	-0.18056348
182	0xbe005a0d	-0.12534352
183	0xbd6d6635	-0.0579588
184	0xbe215c92	-0.15757969
185	0x3d08f3a9	0.033435497
186	0x3c539a3c	0.01291519
187	0x3b9b3661	0.004736707
188	0xbd8d2622	-0.06892039
189	0xbdacf47d	-0.0844507
190	0x3cdfa9bf	0.027302621
191	0x3d24d185	0.040238876
192	0x3e1ae67e	0.15126988
193	0x3d722ce4	0.059124842
194	0x3c92921f	0.017891942
195	0xbd8f3136	-0.06991808
196	0x3dee9cc4	0.116509944
197	0x3d72d26d	0.05928271
198	0xbe2eeb48	-0.1708194
199	0x3d4fa07b	0.050690155
200	0xbd88e1ac	-0.066836685
201	0xbe2ae461	-0.16688682
202	0xbe4454f8	-0.19173038
203	0x3e00aac7	0.12565146
204	0x3e2294c7	0.15877067
205	0x3d94c883	0.07264807
206	0x3da92675	0.08259288
207	0x3def4c2f	0.11684453
208	0xbd2ad72b	-0.041709106
209	0xbda59951	-0.080858834
210	0xbe081bf7	-0.13291918
211	0x3d59de4b	0.05319051
212	0xbdf0b8c1	-0.11753989
213	0x3d4e0be2	0.0503043
214	0x3e314e06	0.1731492
215	0xbdb32283	-0.08746817
216	0xbe129344	-0.1431399
217	0xbe23cac2	-0.15995315
218	0x3e6244d5	0.2209657
219	0xbe2c4731	-0.16824032
220	0xbd8b54b6	-0.06803267
221	0x3da8ed27	0.08248358
222	0xbd1a8270	-0.03772205
223	0x3e25e826	0.16201839
224	0xbd906360	-0.07050204
225	0x3e04f363	0.1298347
226	0xbd8b63bb	-0.068061315
227	0x3d2ac93c	0.04169582
228	0x3d579c9c	0.05263959
229	0x3e28eae2	0.1649585
230	0xbbf40a12	-0.0074474895
231	0x3d7f3c97	0.062313642
232	0xbdcc7b6a	-0.09984477
233	0xbcc2fde0	-0.023802698
234	0x3d534ad1	0.051585022
235	0x3e24975b	0.16073363
236	0xbd17b218	-0.037035078
237	0xbdbd3d92	-0.09240259
238	0xbd74b99e	-0.05974733
239	0xbdf88d59	-0.12136335
240	0x3e017cf2	0.12645319
241	0xbd8acfc3	-0.06777909
242	0x3bc5a34c	0.0060314294
243	0x3df299ab	0.11845716
244	0xbcabf55a	-0.020991016
245	0xbe1b7fe7	-0.1518551
246	0x3dc5c2d0	0.09656298
247	0x3ce666f0	0.028125256
248	0x3e2344c1	0.15944196
249	0x3d677d0d	0.056515742
250	0x3ddb1ea7	0.10699206
251	0x3dd1baff	0.10240745
252	0xbd7b4f19	-0.06135473
253	0xbd969aff	-0.07353782
254	0x3e42c479	0.19020261
255	0xbb150bc2	-0.0022742604

bias f4 [10]
0	0xbe02b911	-0.1276591
1	0xbe4b0224	-0.19825035
2	0x3e142797	0.14468227
3	0x3dcb8ee7	0.09939366
4	0x3d277237	0.04088041
5	0xbdbcfc51	-0.09227813
6	0xbd58be75	-0.05291601
7	0x3e0c85db	0.13722937
8	0xbdb09da4	-0.086238176
9	0x3e15d4e3	0.14631991
