models/EMnist-alpha1-ratio0.5/server.pt (torch, 116143 bytes, 16 tensors)

weight f4 [6, 1, 3, 3]
0.19468291 0.4121057 0.48685133 -0.38472393 0.25005868 0.554338 -0.7454091 -0.52452844
0.29106575 -0.80991954 -0.08102885 0.3503215 -0.33714387 0.240159 0.29682073 0.36732632
0.30125818 0.0685846 -0.29956782 0.17117636 -0.369684 -0.019604316 -0.066765115 0.14390256
-0.17989047 -0.07003152 -0.16741064 -0.36084798 -0.20308934 -0.3021249 -0.10172632 -0.121053316
-0.051091906 0.50394773 0.095527746 -0.37692717 0.017028082 -0.102204934 -0.21555258 -0.35553733
-0.06979328 -0.31883043 -0.23395059 0.114240445 0.056825384 -0.1932513 -0.20718311 -0.14810432
0.076552235 0.048749175 0.2847579 0.34551707 0.37164888 0.41448385
00000000: f55a 473e 85ff d23e 9444 f93e 89fa c4be
00000010: b107 803e 18e9 0d3f 21d3 3ebf 7f47 06bf
00000020: 9206 953e e356 4fbf 74f2 a5bd 575d b33e
00000030: 1f9e acbe 3eec 753e e3f8 973e 3212 bc3e
00000040: 833e 9a3e 1576 8c3d f460 99be db48 2f3e
00000050: 3947 bdbe 3b99 a0bc 26bc 88bd 315b 133e
00000060: 3535 38be b06c 8fbd b26d 2bbe 11c1 b8be
00000070: a7f6 4fbe 1db0 9abe e455 d0bd cdea f7bd
00000080: bf45 51bd b802 013f 0da4 c33d 99fc c0be
00000090: 7a7e 8b3c d250 d1bd d1b9 5cbe fd08 b6be
000000a0: c7ef 8ebd be3d a3be be90 6fbe e5f6 e93d
000000b0: bcc1 683d abe3 45be cf27 54be a9a8 17be
000000c0: 6bc7 9c3d 37ad 473d cacb 913e 9de7 b03e
000000d0: c348 be3e 3a37 d43e

bias f4 [6]
-0.08126769 -0.0148391025 -0.06773997 0.19391054 0.03701966 0.3085133
00000000: ad6f a6bd b51f 73bc 41bb 8abd 7c90 463e
00000010: eda1 173d 75f5 9d3e

weight f4 [6]
1.0097988 0.86870235 1.0420401 1.2461067 1.2084092 0.77200663
00000000: 1641 813f 4763 5e3f 9261 853f 6d80 9f3f
00000010: 27ad 9a3f 3aa2 453f

bias f4 [6]
0.107556894 0.113487676 -0.20244434 -0.12824838 0.038387462 -0.06203992
00000000: ca46 dc3d 3a6c e83d 924d 4fbe 8b53 03be
00000010: 2c3c 1d3d 921d 7ebd

running_mean f4 [6]
0.0 0.0 0.0 0.0 0.0 0.0
00000000: 0000 0000 0000 0000 0000 0000 0000 0000
00000010: 0000 0000 0000 0000

running_var f4 [6]
1.0 1.0 1.0 1.0 1.0 1.0
00000000: 0000 803f 0000 803f 0000 803f 0000 803f
00000010: 0000 803f 0000 803f

weight f4 [16, 6, 3, 3]
-0.2005544 -0.35306 -0.06673087 0.11952396 0.21808697 0.045492467 0.07241595 -0.03379171
0.034386255 -0.084463306 0.08509011 0.1235355 0.031818148 0.11410985 0.17916851 -0.14539006
-0.2281004 -0.13548014 -0.058838736 -0.04778148 0.104292855 -0.1269103 -0.18616371 -0.043182533
0.013910148 -0.069941714 0.020904865 0.17275876 0.09620906 0.028902596 -0.028974414 -0.005740944
0.07376105 -0.04051776 0.12861784 0.07619255 -0.028962506 0.11211337 0.069836244 -0.1140581
-0.08635865 0.013347011 -0.14106636 0.11099029 0.18990077 0.11734948 0.25335732 0.12352518
0.10373651 0.218311 0.34108555 -0.2502358 -0.28106767 -0.15634452 0.16717513 0.0860482
0.13122405 0.19462655 0.2580253 0.24619247 -0.038182463 -0.10808962 -0.17344959 0.01520154
0.033899587 0.0032432736 -0.109939925 -0.018596983 -0.1378982 -0.1746615 -0.18136361 -0.06480602
-0.089838475 -0.18526162 0.05849963 0.10390787 0.03100293 -0.12719405 0.22535983 0.035114508
-0.06255769 -0.015948053 0.15224917 0.21576023 0.011293135 0.11495503 -0.1390818 0.12419459
0.14726147 -0.084227204 0.059922058 -0.0170353 -0.08748708 0.03212299 -0.040506992 -0.10443045
-0.029983101 0.05223409 0.19252849 0.06020265 0.094630584 0.41631514 -0.06637929 -0.13369101
0.09660584 0.011769593 -0.19049689 -0.17829959 -0.006692844 -0.034262095 -0.07061777 0.07436956
0.18137376 -0.007926332 -0.0947434 0.046076577 -0.14994566 0.0036912723 0.11413247 0.06400212
-0.1265539 -0.0976388 0.0011017983 -0.02331999 -0.24320805 -0.1599944 0.0888372 0.1496579
0.1744502 0.18248901 0.11041493 -0.089673005 0.120065235 0.05942061 -0.024995292 0.049938347
0.14275779 -0.032629333 0.116923094 0.1570496 -0.050281134 0.023434708 -0.0014405817 -0.08923657
0.12657502 0.12764783 0.07069862 0.025298879 -0.04132104 -0.10034331 -0.06296958 -0.04854074
0.011711273 -0.080701604 -0.117387295 -0.0038541113 -0.027973777 -0.09925992 -0.020528648 0.037995063
-0.05965393 -0.15574197 0.118829116 0.2351077 0.23426458 -0.14812973 -0.047024164 0.028523356
-0.015464299 -0.17624031 -0.17948686 -0.036248457 0.037290897 -0.056307945 -0.1488596 -0.109735206
-0.14786823 -0.05767337 -0.08816738 -0.12494622 -0.010113047 -0.025426455 -0.26547146 -0.04461179
0.07112492 0.0059821024 0.16010328 0.09456681 -0.038715065 -0.073308215 -0.13672277 -0.08598852
0.07953856 -0.12826884 -0.12869966 0.12993643 0.066272706 0.13035974 0.24679957 0.05402892
-0.08421434 0.05627657 0.06258474 0.1579599 -0.036806054 0.092496045 -0.026628979 -0.14692771
0.0695038 0.13040665 -0.0812178 -0.028549585 -0.06015251 -0.038117982 -0.14460027 -0.14189477
-0.0985662 -0.10189031 -0.1900637 -0.028074587 -0.07833762 -0.1592027 -0.07774445 -0.11368054
-0.040698178 -0.15850137 -0.066537805 -0.10420471 -0.015848326 -0.16796929 -0.1633414 0.04568931
-0.07538929 -0.17053582 0.20741627 -0.14143953 0.0740939 0.111551955 -0.114073314 0.015829336
0.109874085 -0.05984616 0.13566144 -0.06699083 0.016600978 0.15987428 0.049521692 -0.088585235
0.00626907 0.108265415 0.08589391 -0.11147855 -0.050170746 0.01703522 -0.07614747 0.2081109
00000000: 225e 4dbe 48c4 b4be 32aa 88bd fac8 f43d
00000010: 3152 5f3e 4f56 3a3d d04e 943d 2d69 0abd
00000020: 9ad8 0c3d 19fb acbd b943 ae3d 2e00 fd3d
00000030: bf53 023d 6db2 e93d f377 373e 22e1 14be
00000040: 2793 69be 4ebb 0abe e300 71bd 83b6 43bd
00000050: 7e97 d53d c6f4 01be b3a1 3ebe 2be0 30bd
00000060: 64e7 633c 9a3d 8fbd ae40 ab3c ace7 303e
00000070: 4109 c53d 23c5 ec3c c05b edbc 871e bcbb
00000080: 0910 973d f3f5 25bd 65b4 033e d70a 9c3d
00000090: c742 edbc b29b e53d 4e06 8f3d 4b97 e9bd
000000a0: cedc b0bd 6cad 5a3c b373 10be e14e e33d
000000b0: 5975 423e ed54 f03d 0db8 813e c5fa fc3d
000000c0: cf73 d43d eb8c 5f3e c4a2 ae3e e81e 80be
000000d0: 1ae8 8fbe c718 20be f52f 2b3e 0a3a b03d
000000e0: 995f 063e 2f4c 473e e41b 843e e119 7c3e
000000f0: 3765 1cbd 175e ddbd c59c 31be e10f 793c
00000100: 4bda 0a3d 1a8d 543b 2f28 e1bd b358 98bc
00000110: 3035 0dbe 77da 32be 62b7 39be 05b9 84bd
00000120: 3cfd b7bd 39b5 3dbe 4f9d 6f3d a6cd d43d
00000130: dbf9 fd3c 283f 02be bac4 663e 3bd4 0f3d
00000140: 3f1e 80bd 7ea5 82bc 35e7 1b3e 40f0 5c3e
00000150: d706 393c 8b6d eb3d 766b 0ebe bc59 fe3d
00000160: b6cb 163e 507f acbd d570 753d 9d8d 8bbc
00000170: 6d2c b3bd 6593 033d a9ea 25bd a2df d5bd
00000180: 1f9f f5bc 6af3 553d 3026 453e 0e97 763d
00000190: aecd c13d 4227 d53e ddf1 87bd 4ce6 08be
000001a0: 48d9 c53d 40d5 403c 9e11 43be 2b94 36be
000001b0: a54f dbbb 6956 0cbd 0da0 90bd 114f 983d
000001c0: 0bba 393e 72dd 01bc d408 c2bd cbba 3c3d
000001d0: 5b8b 19be 46e9 713b 49be e93d 8b13 833d
000001e0: 5897 01be daf6 c7bd 376a 903a 9009 bfbc
000001f0: 880b 79be 92d5 23be 47f0 b53d ec3f 193e
00000200: 13a3 323e 66de 3a3e 3921 e23d 7ba6 b7bd
00000210: c3e4 f53d 0763 733d edc2 ccbc 278c 4c3d
00000220: 192f 123e 56a6 05bd 6075 ef3d 9cd1 203e
00000230: 97f3 4dbd 25fa bf3c e7d1 bcba aac1 b6bd
00000240: e29c 013e 1db6 023e 70ca 903d 983f cf3c
00000250: 4040 29bd cb80 cdbd 32f6 80bd a8d2 46bd
00000260: a4e0 3f3c e246 a5bd c068 f0bd 4295 7cbb
00000270: 4329 e5bc c948 cbbd b22b a8bc b6a0 1b3d
00000280: ae57 74bd d37a 1fbe ae5c f33d 13c0 703e
00000290: 0ee3 6f3e 52af 17be 699c 40bd d0a9 e93c
000002a0: f95d 7dbc 5778 34be 67cb 37be 4379 14bd
000002b0: 57be 183d 29a3 66bd a76e 18be dabc e0bd
000002c0: c56a 17be e93a 6cbd 1991 b4bd cee3 ffbd
000002d0: 32b1 25bc 244b d0bc e0eb 87be daba 36bd
000002e0: f1a9 913d 8305 c43b 1df2 233e 3eac c13d
000002f0: b093 1ebd 9e22 96bd 0e01 0cbe c01a b0bd
00000300: 1de5 a23d e858 03be d8c9 03be 0e0e 053e
00000310: fcb9 873d 067d 053e 07b9 7c3e 6e4d 5d3d
00000320: 9178 acbd 4382 663d 6e2c 803d 3dc0 213e
00000330: f2c1 16bd 916e bd3d 0425 dabc 3874 16be
00000340: 0258 8e3d 5289 053e 8555 a6bd d2e0 e9bc
00000350: 7a62 76bd 9a21 1cbd 1812 14be dd4c 11be
00000360: 13dd c9bd deab d0bd 0fa0 42be adfc e5bc
00000370: 796f a0bd 0806 23be 7b38 9fbd 58d1 e8bd
00000380: 22b3 26bd 2f4e 22be f944 88bd 4769 d5bd
00000390: 59d4 81bc 2400 2cbe f842 27be b724 3b3d
000003a0: b365 9abd f1a0 2ebe ee64 543e 86d5 10be
000003b0: 8bbe 973d 5a75 e43d 459f e9bd 86ac 813c
000003c0: aa05 e13d 3f21 75bd d5ea 0a3e 7d32 89bd
000003d0: c6fe 873c 15b6 233e 42d7 4a3d 2d6c b5bd
000003e0: c56c cd3b 42ba dd3d 25e9 af3d de4e e4bd
000003f0: d77f 4dbd 728d 8b3c 34f3 9bbd 061b 553e

bias f4 [16]
-0.047728576 0.07484106 -0.1095574 0.0078129815 0.09631216 0.037341394 0.06689509 -0.062000982
0.00849188 -0.09070244 0.044497225 -0.001503412 0.087619044 -0.035104997 -0.074970976 0.11240457
00000000: 0a7f 43bd 4546 993d a15f e0bd 0502 003c
00000010: 4f3f c53d 4af3 183d 4b00 893d bef4 7dbd
00000020: 8721 0b3c 33c2 b9bd b942 363d 230e c5ba
00000030: 9d71 b33d 42ca 0fbd 628a 99bd 5e34 e63d

weight f4 [16]
1.1227363 1.0041682 0.967119 1.0596049 1.0858836 0.97687656 0.92585814 1.0639431
1.0462668 0.6739425 1.1540775 1.1090637 1.2253084 0.8328245 1.216074 1.1464316
00000000: d3b5 8f3f 9588 803f 1c95 773f 22a1 873f
00000010: 3cfe 8a3f 9514 7a3f 0a05 6d3f 4a2f 883f
00000020: 12ec 853f 7f87 2c3f d0b8 933f cdf5 8d3f
00000030: e8d6 9c3f fd33 553f 50a8 9b3f 45be 923f

bias f4 [16]
-0.4994996 -0.49456042 -0.64263976 -0.4393174 -0.5715106 -0.3828811 -0.24286824 -0.3907314
-0.51795816 -0.56071544 -0.39781326 -0.53784204 -0.41574115 -0.3238119 -0.35061276 -0.4736918
00000000: 69be ffbe 0637 fdbe 0a84 24bf 36ee e0be
00000010: 854e 12bf fe08 c4be 74b2 78be f20d c8be
00000020: e898 04bf 0c8b 0fbf 2eae cbbe 04b0 09bf
00000030: 06dc d4be acca a5be 8483 b3be bb87 f2be

running_mean f4 [16]
0.0 0.0 0.0 0.0 0.0 0.0 0.0 0.0
0.0 0.0 0.0 0.0 0.0 0.0 0.0 0.0
00000000: 0000 0000 0000 0000 0000 0000 0000 0000
00000010: 0000 0000 0000 0000 0000 0000 0000 0000
00000020: 0000 0000 0000 0000 0000 0000 0000 0000
00000030: 0000 0000 0000 0000 0000 0000 0000 0000

running_var f4 [16]
1.0 1.0 1.0 1.0 1.0 1.0 1.0 1.0
1.0 1.0 1.0 1.0 1.0 1.0 1.0 1.0
00000000: 0000 803f 0000 803f 0000 803f 0000 803f
00000010: 0000 803f 0000 803f 0000 803f 0000 803f
00000020: 0000 803f 0000 803f 0000 803f 0000 803f
00000030: 0000 803f 0000 803f 0000 803f 0000 803f

weight f4 [32, 784]
0.029120142 -0.0021482124 -0.040285256 -0.04182356 -0.030725028 -0.050857868 -0.009867176 0.029047536
0.0139794815 0.021627031 0.0486356 -0.021294272 -0.042330656 0.023437683 -0.0022973842 -0.0049295234
0.0034611337 -0.07725253 -0.08294424 -0.1283634 -0.06574865 0.03213078 -0.10882406 -0.10793216
0.009009612 -0.08556743 -0.090172306 -0.07143513 -0.013953335 -0.07616572 -0.017292557 -0.008772035
-0.035465155 -0.06370769 -0.06083929 -0.01991296 -0.01407906 0.054584283 0.0709006 0.0032325848
0.032845385 -0.0065128733 0.023354372 -0.03843386 0.025491614 -0.004440347 -0.035659637 0.031308
-0.016189061 0.027984064 -0.004900651 0.010125033 -0.028600281 -0.03384171 0.027479474 -0.019722812
0.004728134 -0.010991905 -0.0027166505 0.011421636 0.014710205 -0.042452954 -0.05510513 -0.014229521
-0.07159294 -0.086055085 -0.017933661 -0.07591378 -0.10019529 -0.010749555 0.009941971 -0.04269014
-0.06992193 -0.103077814 -0.089049526 -0.12425361 -0.068398766 0.008872051 0.0015200926 0.08712598
0.08965714 -0.044821136 -0.085762784 -0.057291366 -0.0045462693 -0.034051295 0.018544972 -0.0108430665
-0.04967902 -0.019303665 -0.023283478 0.03083813 0.06208767 0.090166524 -0.01906579 0.06292443
0.013520899 -0.046579722 0.007233732 0.016450636 -0.015376637 -0.016116025 0.016101524 0.01385558
-0.02531865 0.025932709 0.062306352 0.02412834 0.034082998 0.014428333 0.06641833 0.13603404
-0.015213894 0.030492129 0.0092547955 0.05456597 0.048298273 0.042990915 0.11253641 0.017412137
0.011623629 0.02185462 0.03816633 0.008821475 -0.07939381 -0.0048277485 0.01823491 -0.008408599
-0.0028682584 -0.043790516 -0.030919168 0.005477868 -0.0027154079 0.015657522 0.015284034 0.0017894472
-0.01125582 -0.003465053 -7.899852e-05 0.027948951 0.037588805 0.05486782 0.06696077 0.07289913
0.072543874 0.0703263 0.05985215 0.023527298 0.05433623 -0.002923761 0.05610685 0.004088356
0.059446875 0.0780807 0.006279461 -0.049240243 -0.0041583567 0.013493018 0.04712031 -0.0016786653
-0.029532323 -0.030140348 -0.08743911 -0.016450997 0.04504577 -0.05182438 -0.09897504 -0.051705044
-0.033890042 0.007426267 -0.045837175 -0.10109409 -0.12341301 -0.1090313 -0.04377438 0.009838511
-0.0015630187 0.091344014 0.062122274 -0.026177684 -0.08240875 -0.027316593 -0.027824217 -0.042165328
0.04781903 0.009687007 -0.10909277 -0.06600073 -0.055796307 0.0030927716 0.090376794 -0.008953446
-0.030615337 0.058894984 0.065200806 -0.010766943 -0.0036080063 0.024120629 0.062065747 -0.0064938827
-0.010285764 0.07238402 0.039142564 0.01607895 0.029208243 0.008645506 -0.027509902 -0.0037212167
0.013348739 0.11629411 0.07930716 0.051075462 -0.05406165 0.008036818 0.004244479 -0.017855622
0.042495336 0.061290465 -0.032979183 0.0044890842 0.006571433 0.0097868815 -0.015864007 -0.023931818
0.0068108076 -0.041428447 -0.032931324 0.01682471 -0.043767273 -0.008388671 -0.019376276 0.04714003
0.03741868 0.051678207 0.021870445 0.051001437 0.05066852 0.018427853 0.01865386 0.040150397
0.071408205 0.010988031 0.034955416 0.071027316 0.09702747 -0.007017743 0.050244328 -0.009460688
-0.01132523 0.016264064 0.018104456 0.03915243 0.010862636 0.025683373 -0.015299831 0.004784264
00000000: 5d8d ee3c 06c9 0cbb 2702 25bd 2e4f 2bbd
00000010: 0eb3 fbbc 5750 50bd f0a9 21bc 19f5 ed3c
00000020: 320a 653c 2c2b b13c 1f36 473d 5371 aebc
00000030: e962 2dbd 6200 c03c b68f 16bb d787 a1bb
00000040: 30d4 623b 9336 9ebd abde a9bd b271 03be
00000050: 3aa7 86bd 919b 033d 26df debd 890b ddbd
00000060: 0d9d 133c fa3d afbd 42ac b8bd 954c 92bd
00000070: 879c 64bc c6fc 9bbd 1fa9 8dbc 95b8 0fbc
00000080: e943 11bd 2d79 82bd 9f32 79bd 8120 a3bc
00000090: dcab 66bc c593 5f3d 5534 913d c6d9 533b
000000a0: e288 063d f169 d5bb ab51 bf3c d36c 1dbd
000000b0: cad3 d03c 5580 91bb d70f 12bd d13c 003d
000000c0: ec9e 84bc d63e e53c a495 a0bb 77e3 253c
000000d0: 234b eabc 9b9d 0abd a21c e13c bc91 a1bc
000000e0: 76ee 9a3b 6417 34bc d509 32bb d021 3b3c
000000f0: 1203 713c 26e3 2dbd ebb5 61bd f022 69bc
00000100: 529f 92bd a63d b0bd 9de9 92bc af78 9bbd
00000110: 3033 cdbd e71e 30bc a6e3 223c dbdb 2ebd
00000120: 3b33 8fbd 761a d3bd 995f b6bd ad78 febd
00000130: a714 8cbd 145c 113c d83d c73a 1b6f b23d
00000140: 2a9e b73d 5e96 37bd 66a4 afbd 5aaa 6abd
00000150: dff8 94bb 5f79 0bbd a0eb 973c 1ea7 31bc
00000160: 3a7c 4bbd b822 9ebc febc bebc 3fa0 fc3c
00000170: a44f 7e3d 3aa9 b83d dc2f 9cbc 86de 803d
00000180: c386 5d3c 61ca 3ebd f108 ed3b 7cc3 863c
00000190: 4aee 7bbc c105 84bc 58e7 833c 8402 633c
000001a0: 0f69 cfbc d570 d43c f234 7f3d cca8 c53c
000001b0: 9d9a 0b3d d164 6c3c 5506 883d 824c 0b3e
000001c0: b243 79bc a1ca f93c 6da1 173c 9180 5f3d
000001d0: 69d4 453d 3e17 303d 7d79 e63d e6a3 8e3c
000001e0: 0971 3e3c 7608 b33c 4c54 1c3d f387 103c
000001f0: 3999 a2bd 1732 9ebb 6161 953c 38c4 09bc
00000200: 64f9 3bbb af5d 33bd 324a fdbc b07f b33b
00000210: fcf4 31bb 3444 803c e369 7a3c e28b ea3a
00000220: 556a 38bc f115 63bb 02ac a5b8 33f5 e43c
00000230: b8f6 193d 14bd 603d ba22 893d 244c 953d
00000240: e291 943d 3c07 903d 8727 753d 52bc c03c
00000250: ab8f 5e3d 929c 3fbb 4cd0 653d 9ef7 853b
00000260: 917e 733d c6e8 9f3d f0c3 cd3b 23b0 49bd
00000270: d342 88bb d211 5d3c 3a01 413d a906 dcba
00000280: c5ed f1bc e4e8 f6bc 4713 b3bd 3ec4 86bc
00000290: ea81 383d cd45 54bd 6db3 cabd abc8 53bd
000002a0: 49d0 0abd 0b58 f33b c3bf 3bbd 6b0a cfbd
000002b0: f6bf fcbd cd4b dfbd c44c 33bd b531 213c
000002c0: 34de ccba 9212 bb3d ed73 7e3d 9572 d6bc
000002d0: ebc5 a8bd 0cc7 dfbc 9def e3bc 8db5 2cbd
000002e0: e3dd 433d 41b6 1e3c 086c dfbd 642b 87bd
000002f0: ab8a 64bd 19b0 4a3b 7817 b93d 79b1 12bc
00000300: 04cd fabc de3b 713d 0088 853d d567 30bc
00000310: 4d74 6cbb a098 c53c a738 7e3d a3ca d4bb
00000320: 9f85 28bc 133e 943d f453 203d 01b8 833c
00000330: 2046 ef3c e1a5 0d3c 725c e1bc a8df 73bb
00000340: abb4 5a3c 9b2b ee3d cb6b a23d 8134 513d
00000350: c06f 5dbd dcac 033c 4515 8b3b f445 92bc
00000360: 970f 2e3d b60b 7b3d 2e15 07bd 2b19 933b
00000370: 2d55 d73b 2859 203c 3cf5 81bc a90c c4bc
00000380: 322d df3b e0b0 29bd ffe2 06bd f9d3 893c
00000390: 5045 33bd a370 09bc ffba 9ebc e715 413d
000003a0: 5444 193d 87ac 533d a629 b33c e2e6 503d
000003b0: cb89 4f3d 02f6 963c fbcf 983c be74 243d
000003c0: 773e 923d 2407 343c 692d 0f3d c576 913d
000003d0: 57b6 c63d 18f5 e5bb ffcc 4d3d 0001 1bbc
000003e0: 758d 39bc 373c 853c cc4f 943c 4c5e 203d
000003f0: 33f9 313c f065 d23c 24ac 7abc 51c5 9c3b

bias f4 [32]
-0.021163447 0.076004855 0.13801292 0.10589351 -0.02613821 -0.07677917 -0.052824974 0.13537903
0.054338846 -0.04121109 -0.041903365 -0.062110405 0.005886055 0.03788598 0.038382597 0.044352785
0.14503694 0.038666 -0.051214397 -0.11306821 0.010724623 -0.029560396 -0.07408142 0.026467897
-0.012193088 0.053328004 -0.11240593 0.082142256 0.09591212 -0.0017534667 -0.08175316 0.009079331
00000000: f75e adbc 6fa8 9b3d 4253 0d3e b2de d83d
00000010: cd1f d6bc 663e 9dbd 005f 58bd cda0 0a3e
00000020: 6992 5e3d f6cc 28bd dda2 2bbd 7b67 7ebd
00000030: cfdf c03b 542e 1b3d 1237 1d3d 44ab 353d
00000040: 9084 143e 3d60 1e3d 30c6 51bd 4e90 e7bd
00000050: 54b6 2f3c a528 f2bc 00b8 97bd 34d3 d83c
00000060: 85c5 47bc 776e 5a3d 1535 e6bd 333a a83d
00000070: 936d c43d 94d4 e5ba 336e a7bd 79c1 143c

weight f4 [26, 32]
0.06594128 -0.030960867 -0.15153795 -0.00020501652 0.25476304 0.24074662 0.25881892 -0.08998453
-0.31610474 0.00053385424 0.13299635 0.12072512 -0.22709133 -0.21714887 -0.2860796 -0.34286624
-0.03808014 0.08585216 0.066087544 0.29238418 -0.24052441 -0.1731185 0.18507658 0.15609936
0.095642 0.3336727 0.24507868 0.24223271 -0.37210664 0.02292447 0.3669915 -0.13568164
0.010161539 -0.2921855 -0.56674725 -0.18698986 0.27922416 0.07487362 -0.5915066 0.042773362
0.27346262 0.20648634 -0.20094019 -0.24914339 0.125437 0.3525068 -0.029019611 0.09792688
-0.13897185 -0.13355166 0.20415933 -0.20486912 -0.084243506 0.42368895 -0.28825614 -0.03158527
0.19117785 0.048306342 0.06730745 0.25715458 0.3039875 -0.08636097 0.18333922 -0.36178052
0.31968847 -0.19069114 0.15250134 -0.5297534 0.06199511 0.20293829 -0.37826973 -0.19531912
-0.3441349 -0.6808962 -0.06756995 -0.039619423 0.32619438 -0.2053154 -0.21522151 -0.13839899
-0.031175409 0.13924675 0.13472831 -0.03716096 0.007038205 0.3431569 -0.014113802 -0.044517804
0.33753338 -0.28639877 -0.21633622 -0.04104147 -0.054462127 0.110301316 -0.10115101 0.30173787
0.06688326 0.059142724 -0.35579133 0.15460749 0.38039976 -0.057021357 -0.3552791 -0.16550736
0.12957078 -0.11889419 0.101568766 -0.046588503 -0.14021124 -0.30094263 -0.33081883 -0.41130587
0.17146449 0.3860662 0.19103524 0.29173923 0.15194805 -0.33028707 -0.021441853 0.24078633
-0.08025129 -0.17799407 0.19569445 0.3793141 0.0006950971 -0.2632639 0.33625165 -0.09706222
0.5055675 -0.43960407 -0.14130966 -0.6112958 0.035387974 0.31842977 0.28088704 -0.35562044
-0.19700776 -0.17526825 0.029651627 0.0025237342 -0.03768732 -0.31939656 -0.26285455 0.11342278
-0.37200043 -0.08358355 -0.13112335 -0.004343071 0.081362665 -0.028427642 -0.028850526 -0.14335127
0.71195525 -0.04882819 -0.23348653 0.10527564 0.14034325 0.13784872 0.119635835 0.15621755
-0.32116207 0.25304145 0.16616346 -0.20751368 -0.16356719 0.46012852 -0.08986933 0.24459404
0.075893186 -0.21391979 -0.09879633 0.029471628 -0.09692934 0.13539062 0.49283767 0.48717758
0.11154293 -0.154652 -0.18825975 -0.48703158 -0.3778198 -0.13939302 -0.036371127 0.1547443
-0.15344426 0.6498662 -0.31566966 0.30401164 -0.019478658 0.06045628 0.21384408 0.22417286
0.42873028 0.10042664 0.11970456 0.2190405 0.0476921 0.47906727 -0.03648424 0.0075596496
0.15253466 -0.046116326 -0.022685189 0.32416287 0.46494484 0.049907487 0.1904682 0.32650414
-0.20352294 -0.020810075 -0.059979405 -0.019377884 -0.15194209 0.46967283 0.31242654 0.1513383
0.19758368 0.07949169 0.2002265 0.29317963 -0.06552638 0.4319484 0.34222078 0.2802447
-0.37658957 0.09384725 -0.37114215 0.33531138 -0.15004982 0.1372787 0.034372013 0.2606458
0.22334643 0.3356927 0.052333705 0.035636436 -0.34382302 0.09497139 -0.3525486 -0.4211749
0.39999983 -0.17081124 0.36170313 0.025792727 -0.058657087 0.08196846 0.103539884 0.07925487
0.4634585 -0.09044117 -0.21718009 0.07929391 0.3811022 -0.2824194 0.06587133 -0.33936697
00000000: 390c 873d a5a1 fdbc c42c 1bbe b4f9 56b9
00000010: 4d70 823e 4886 763e ea83 843e cf49 b8bd
00000020: 7bd8 a1be 5af2 0b3a 3230 083e bb3e f73d
00000030: a18a 68be 465c 5ebe 0679 92be 2a8c afbe
00000040: ecf9 1bbd 42d3 af3d e858 873d 61b3 953e
00000050: 084c 76be fa45 31be b784 3d3e 83d8 1f3e
00000060: f4df c33d 26d7 aa3e e8f5 7a3e da0b 783e
00000070: c384 bebe 19cc bb3c 4fe6 bb3e 21f0 0abe
00000080: 957c 263c 5699 95be 5916 11bf 457a 3fbe
00000090: 78f6 8e3e 5757 993d fa6c 17bf 1f33 2f3d
000000a0: 4b03 8c3e 2871 533e 44c3 4dbe 721f 7fbe
000000b0: 8f72 003e c57b b43e 89ba edbc e38d c83d
000000c0: a34e 0ebe c4c1 08be 250f 513e 36c9 51be
000000d0: dc87 acbd c2ed d83e 4f96 93be 8e5f 01bd
000000e0: 20c4 433e dfdc 453d 7dd8 893d c4a9 833e
000000f0: 40a4 9b3e 05de b0bd 47bd 3b3e 4c3b b9be
00000100: 35ae a33e 8a44 43be 5029 1c3e eb9d 07bf
00000110: 96ee 7d3d 0ecf 4f3e 92ac c1be bc01 48be
00000120: 7332 b0be 374f 2ebf 1d62 8abd fa47 22bd
00000130: f302 a73e 333e 52be 0763 5cbe 77b8 0dbe
00000140: 9263 ffbc b396 0e3e 38f6 093e 1736 18bd
00000150: bea0 e63b 43b2 af3e 943d 67bc 4d58 36bd
00000160: 2dd1 ac3e dca2 92be 3e87 5dbe 1a1b 28bd
00000170: ae13 5fbd a8e5 e13d 4328 cfbd 637d 9a3e
00000180: 17fa 883d a43f 723d 482a b6be 6d51 1e3e
00000190: c2c3 c23e 3a8f 69bd 24e7 b5be c37a 29be
000001a0: 34ae 043e cc7e f3bd 4903 d03d 96d3 3ebd
000001b0: 8993 0fbe 2715 9abe 1661 a9be af96 d2be
000001c0: 6394 2f3e 78aa c53e be9e 433e d85e 953e
000001d0: 4598 1b3e 631b a9be d3a6 afbc b190 763e
000001e0: ca5a a4bd 1444 36be 2064 483e 7535 c23e
000001f0: 2d37 363a 87ca 86be 2d29 ac3e 8fc8 c6bd
00000200: df6c 013f c913 e1be 7bb3 10be e27d 1cbf
00000210: fbf2 103d 3a09 a33e 6dd0 8f3e e213 b6be
00000220: 67bc 49be 8579 33be f8e7 f23c 3c65 253b
00000230: 055e 1abd f287 a3be df94 86be 344a e83d
00000240: d776 bebe da2d abbd 3345 06be 5250 8ebb
00000250: 78a1 a63d 16e1 e8bc f057 ecbc adca 12be
00000260: b342 363f 1100 48bd 1817 6fbe c19a d73d
00000270: 24b6 0f3e 3728 0d3e a203 f53d 7ef7 1f3e
00000280: 5b6f a4be a68e 813e c126 2a3e 777e 54be
00000290: 287e 27be f795 eb3e 690d b8bd dc76 7a3e
000002a0: e36d 9b3d ca0d 5bbe bb55 cabd 7c6e f13c
000002b0: e482 c6bd d7a3 0a3e 3855 fc3e 576f f93e
000002c0: 9f70 e43d 185d 1ebe 2ac7 40be 345c f9be
000002d0: 9971 c1be 0bbd 0ebe e4f9 14bd 4a75 1e3e
000002e0: 7e20 1dbe a25d 263f 749f a1be 6aa7 9b3e
000002f0: b591 9fbc 01a1 773d f1f9 5a3e 928d 653e
00000300: 8982 db3e 7bac cd3d aa27 f53d 274c 603e
00000310: cb58 433d 4e48 f53e 8070 15bd f0b6 f73b
00000320: 0c32 1c3e 79e4 3cbd 4ad6 b9bc adf8 a53e
00000330: 400d ee3e cb6b 4c3d 190a 433e 8d2b a73e
00000340: 5168 50be e479 aabc f7ac 75bd 5ebe 9ebc
00000350: b596 1bbe f578 f03e 5ff6 9f3e 6df8 1a3e
00000360: 6053 4a3e 8acc a23d 2d08 4d3e a41b 963e
00000370: b232 86bd 5728 dd3e 9037 af3e 3c7c 8f3e
00000380: 59d0 c0be fd32 c03d 5806 bebe efad ab3e
00000390: a9a6 19be ca92 0c3e abc9 0c3d 5e73 853e
000003a0: edb4 643e eadf ab3e de5b 563d 83f7 113d
000003b0: 9209 b0be 5c80 c23d 4081 b4be 3da4 d7be
000003c0: c7cc cc3e 24e9 2ebe 2731 b93e 454b d33c
000003d0: 6a42 70bd 14df a73d b80c d43d 6150 a23d
000003e0: 6f4a ed3e 3839 b9bd 7564 5ebe d864 a23d
000003f0: d41f c33e 4799 90be 8ce7 863d 82c1 adbe

bias f4 [26]
-0.0019174947 0.12507151 -0.1766436 -0.1614061 -0.3117289 0.22377281 0.25378585 -0.07248595
-0.090682715 0.25596443 0.06159119 0.20938505 -0.233801 -0.060861435 -0.14017715 -0.16004762
0.4780512 -0.21544892 -0.13309646 0.6860488 -0.29869214 -0.1056928 0.047606684 -0.19466682
-0.0866652 -0.10467512
00000000: 7254 fbba bf12 003e 0fe2 34be a447 25be
00000010: ee9a 9fbe b324 653e 38f0 813e 8473 94bd
00000020: dcb7 b9bd c50d 833e 0b47 7c3d 0969 563e
00000030: 8869 6fbe d749 79bd 998a 0fbe 86e3 23be
00000040: 20c3 f43e a49e 5cbe 704a 08be e5a0 2f3f
00000050: 2dee 98be 7775 d8bd 3aff 423d bd56 47be
00000060: 867d b1bd e95f d6bd
