models/Celeba-user20-agg12/server.pt (torch, 115994 bytes, 22 tensors)

weight f4 [16, 3, 3, 3]
0	0x3d5dba71	0.054132883
1	0xbcd5f683	-0.026118523
2	0x3d8c7e93	0.068600796
3	0x3b5fc64d	0.0034145296
4	0x3da31c92	0.07964434
5	0x3d0769b2	0.033059783
6	0xbd000451	-0.031254116
7	0xbe28554e	-0.16438791
8	0x3d0ed1ab	0.034867924
9	0xbe16958f	-0.1470549
10	0x3d5cbb49	0.053889547
11	0x3ce90388	0.028444067
12	0xbc69ffe1	-0.014282198
13	0x3e30bae0	0.17258787
14	0x3c3bdc11	0.011466042
15	0x3d92b19f	0.07162785
16	0x3dae6002	0.08514406
17	0xbdea3696	-0.11436193
18	0xbd55a375	-0.052157838
19	0x3e4e8c09	0.20170607
20	0xbe3a004b	-0.18164174
21	0x3c53f11d	0.012935904
22	0xbc748462	-0.014924141
23	0x3dfe4ab9	0.12416596
24	0xbcc52360	-0.02406472
25	0x3d381797	0.044944372
26	0xbc80ed2d	-0.015738094
27	0xbdcdffd9	-0.10058565
28	0xbddcc3bd	-0.107795216
29	0xbdf0073c	-0.1172013
30	0xbe3aecdc	-0.18254417
31	0xbe001d31	-0.12511136
32	0x3d11fbd9	0.03564057
33	0x3dd6e47d	0.104927994
34	0xbb56ccac	-0.0032775803
35	0xbdbbc034	-0.09167519
36	0x3dd21b91	0.10259164
37	0xbd803399	-0.062598415
38	0xbd5d90e5	-0.05409326
39	0xbdcd1130	-0.10013044
40	0xbd5254b4	-0.05135031
41	0xbe344f82	-0.17608455
42	0x3d94359d	0.072367884
43	0x3d95f8b6	0.073228285
44	0x3d433f34	0.047667697
45	0x3de058d1	0.109544404
46	0x3dc585bd	0.09644649
47	0x3bdec39b	0.0067982203
48	0x3c7811ea	0.01514099
49	0x3cba4211	0.022736581
50	0x3de03511	0.109476216
51	0x3de63096	0.11239736
52	0x3e04be79	0.12963285
53	0x3ded522a	0.11587937
54	0xbd1a613a	-0.03769038
55	0xbc2bbe6e	-0.010482414
56	0xbcd14748	-0.025546685
57	0x3de3c925	0.1112235
58	0x3d07a44b	0.033115666
59	0x3e4c16a4	0.19930512
60	0x3db53b2a	0.08849175
61	0xbe216ecb	-0.1576492
62	0x3d654867	0.05597725
63	0x3e4f3f35	0.20238955
64	0x3e34518d	0.17609234
65	0x3c0b3ba7	0.008498109
66	0x3d3243f6	0.043521844
67	0xbe4378fb	-0.19089119
68	0xbd8415df	-0.06449484
69	0x3d67d57d	0.056600083
70	0xbe4a81dc	-0.197761
71	0x3e0eb528	0.13936293
72	0xbddad277	-0.10684674
73	0x3d923671	0.0713929
74	0x3c85c3bf	0.01632869
75	0x3cf396ec	0.029735051
76	0x3d024dfc	0.031812653
77	0xbe1f9086	-0.15582475
78	0xbd792786	-0.060828708
79	0xbde960bc	-0.11395404
80	0x3e2d8cd6	0.16948256
81	0xbd149da9	-0.03628317
82	0xbe45f8e2	-0.19333223
83	0x3d4e0895	0.050301153
84	0x3dc5c1d3	0.0965611
85	0xbda3f7aa	-0.080062225
86	0xbaf16eac	-0.0018419824
87	0x3dafaf8a	0.08578403
88	0xbdf52302	-0.11969568
89	0xbdb2ef3b	-0.08737036
90	0xbcd38a48	-0.025822774
91	0xbe10592d	-0.14096518
92	0x3ddfe15d	0.109316565
93	0x3cde2a8c	0.027119897
94	0x3de42298	0.11139411
95	0x3dcaf338	0.099096715
96	0xbe1c3b9c	-0.15257114
97	0xbe07ead2	-0.1327317
98	0xbe0d3e40	-0.13793278
99	0xbd84aebb	-0.0647864
100	0xbd9fb278	-0.07797712
101	0xbd35fc68	-0.044430166
102	0xbe2d3e27	-0.1691824
103	0x3d9d20aa	0.07672246
104	0x3dd1af3c	0.102385014
105	0x3d8f36f0	0.069929
106	0x3dedbdd0	0.116084695
107	0x3e14dad2	0.14536598
108	0xbe377dfe	-0.17919156
109	0x3d65b89f	0.05608427
110	0x3e43cac4	0.19120318
111	0xbde88795	-0.11353985
112	0xbd78d14d	-0.06074648
113	0x3b042f0d	0.0020169646
114	0xbdc5665d	-0.09638665
115	0xbc67ca4d	-0.014147353
116	0xbc880b9a	-0.016607095
117	0x3e2df9c2	0.16989806
118	0xbbb2a7db	-0.005452139
119	0x3db297b5	0.08720342
120	0x3e205992	0.15659168
121	0x3dba89e0	0.09108329
122	0xbe3d833d	-0.18507095
123	0x3e24c0c7	0.16089164
124	0x3e0bdc9f	0.13658379
125	0xbe11dda2	-0.14244702
126	0xbd8b67c9	-0.06806905
127	0x3e0b7747	0.1361972
128	0xbe530499	-0.20607223
129	0xbe1c0115	-0.15234788
130	0xbe038990	-0.12845445
131	0x3d208c9b	0.03919659
132	0xbd821afa	-0.063528016
133	0xbe2b0e2b	-0.16704623
134	0x3d8662ea	0.06561835
135	0x3daadcc7	0.08342891
136	0x3cb551e8	0.022133783
137	0xbe314feb	-0.17315643
138	0x3e344d90	0.17607713
139	0xbbb35498	-0.005472731
140	0xbde8bf3a	-0.113645986
141	0xbd817710	-0.063215375
142	0x3e203728	0.1564604
143	0x3e10dd22	0.14146855
144	0xb9362679	-0.00017371205
145	0x3d8ff49c	0.070290774
146	0xbe5fbe6c	-0.21849984
147	0x3e124348	0.14283478
148	0x3e38abcc	0.18034285
149	0xbdbcd44f	-0.09220182
150	0x3d1d44cf	0.0383957
151	0x3bc77246	0.0060866205
152	0xbe0ba87a	-0.13638487
153	0xbc4b1553	-0.012395221
154	0xbe04010b	-0.12891023
155	0xbe4ec82e	-0.2019355
156	0xbe1593cc	-0.14607161
157	0xbc27c011	-0.010238663
158	0x3e4ee913	0.20206098
159	0x3d5aa796	0.05338248
160	0xbdd33926	-0.103136346
161	0x3e1b8168	0.15186083
162	0x3c24b12d	0.010052008
163	0xbe535731	-0.2063873
164	0x3aa49944	0.0012557884
165	0x3e073d8f	0.13207076
166	0xbdec811f	-0.115480654
167	0xbc9d3fb3	-0.019195413
168	0xbd9fbb41	-0.07799388
169	0xbe0684f6	-0.13136658
170	0xbdd24f20	-0.10268998
171	0x3cb0c990	0.021580487
172	0x3ded323b	0.11581846
173	0xbd08686b	-0.033302706
174	0xbe250eed	-0.16118975
175	0x3a25c3c8	0.0006323424
176	0xbe2e2df6	-0.1700972
177	0x3ca9f492	0.020746503
178	0x3e1e838f	0.15479873
179	0x3dac8271	0.08423317
180	0xbde3ff56	-0.11132686
181	0xbd515834	-0.051109508
182	0x3da465fd	0.08027265
183	0x3d8935a0	0.06699681
184	0xbe350649	-0.17678179
185	0xbde7e7ec	-0.113235325
186	0xbd64fc75	-0.055904824
187	0x3da8eb4c	0.08248004
188	0x3e2e631e	0.17029998
189	0x3dd78df8	0.10525125
190	0x3d9a4bb0	0.075339675
191	0xbe223cca	-0.15843502
192	0x3df57a69	0.119862385
193	0x3d79c4f4	0.060978845
194	0xbd96c72e	-0.07362209
195	0xbdb7b228	-0.089695275
196	0x3d7a7b21	0.06115258
197	0xbdc37680	-0.095440865
198	0x3da18ee3	0.078885816
199	0x3e0dd287	0.13849841
200	0xbe032275	-0.12806113
201	0xbdf5fe7c	-0.1201143
202	0xbd968780	-0.07350063
203	0xbe1e220e	-0.15442678
204	0xbbc010a0	-0.005861357
205	0x3e1983ed	0.14991732
206	0x3dde488e	0.108536825
207	0xbd5038fc	-0.050835595
208	0xbcd05c05	-0.025434503
209	0xbda9291e	-0.082597956
210	0xbe190808	-0.1494447
211	0xbd2f6528	-0.04282108
212	0x3cad7dce	0.021178152
213	0xbda5135b	-0.080603324
214	0xbdebb6a7	-0.115094475
215	0x3db4d0be	0.08828877
216	0x3b833f16	0.004005323
217	0xbd93e942	-0.07222225
218	0x3d0ab054	0.033859566
219	0x3e233fb3	0.15942268
220	0xbc2fb6ca	-0.010724733
221	0xbe2f2160	-0.17102575
222	0x3e36e671	0.17861344
223	0x3e21128d	0.15729733
224	0x3c76425b	0.015030469
225	0xbdc3a8c4	-0.09553674
226	0xbd9d3b99	-0.07677383
227	0x3e2db57c	0.16963762
228	0x3dbf607f	0.09344577
229	0xbe0207d7	-0.12698303
230	0xbd3e3c5d	-0.046444286
231	0x3d08ff12	0.03344638
232	0x3d22248a	0.039585628
233	0xbcf221c1	-0.02955711
234	0xbdc8c3bd	-0.09802959
235	0x3ca78eb0	0.02045378
236	0xbc808bb4	-0.015691616
237	0xbd8379b6	-0.06419699
238	0xbdd0f3f7	-0.102027826
239	0xbdd3b737	-0.1033768
240	0xbdbb29b6	-0.09138815
241	0x3dbf14fd	0.09330175
242	0xbdfc6ffc	-0.12326047
243	0xbe18d863	-0.14926295
244	0x3e382ab7	0.17985044
245	0x3db084c6	0.086190745
246	0x3ddd4868	0.10804826
247	0x3da3949d	0.0798733
248	0xbdc05fdd	-0.093932845
249	0xbde37a24	-0.11107281
250	0xbe041d1a	-0.12901726
251	0xbcc36010	-0.023849517
252	0x3d79d6c7	0.060995843
253	0xbe300d60	-0.17192602
254	0xbe0f01cc	-0.13965529
255	0x3dbbe2d8	0.091741264

bias f4 [16]
0	0x3e04a432	0.1295326
1	0xbcf2850f	-0.029604463
2	0xbd754785	-0.05988266
3	0x3e1db79f	0.15402077
4	0x3d9da304	0.076971084
5	0xbe2f03eb	-0.17091338
6	0xbe1843fc	-0.14869684
7	0xbe40d34f	-0.18830608
8	0xbda61b5b	-0.081106864
9	0xbd036a34	-0.032083705
10	0x3d9065c4	0.0705066
11	0x3de71cf4	0.11284819
12	0xbe2fbbd1	-0.1716149
13	0x3dc918b7	0.09819167
14	0x3d892e48	0.066982806
15	0x3d81559f	0.06315159

weight f4 [16]
0	0x3f811522	1.0084574
1	0x3f7d6068	0.9897523
2	0x3f8143e1	1.009884
3	0x3f7ed3b4	0.99541783
4	0x3f80505e	1.0024526
5	0x3f7de750	0.9918108
6	0x3f802aaa	1.001302
7	0x3f800050	1.0000095
8	0x3f7e75f0	0.9939871
9	0x3f7fb4c6	0.99885213
10	0x3f81ea24	1.0149579
11	0x3f7c0264	0.9844115
12	0x3f7f3611	0.99691874
13	0x3f81b3c8	1.013299
14	0x3f80cfff	1.0063475
15	0x3f7d77b2	0.99010766

bias f4 [16]
0	0x3b7d07aa	0.0038609304
1	0xbbaec22e	-0.0053332066
2	0xbc0d57db	-0.008626903
3	0x3c684445	0.014176433
4	0xbc763724	-0.015027795
5	0xbcad7c12	-0.021177325
6	0x3c218309	0.009857901
7	0xbc008aca	-0.00784559
8	0xbb2fce13	-0.002682571
9	0x3c309feb	0.010780315
10	0x3ccac1d8	0.024750635
11	0xbae57a4b	-0.001750776
12	0x3ccaf07d	0.024772877
13	0xbae80d49	-0.0017704155
14	0xbbc6328c	-0.006048506
15	0x3c05156b	0.008122782

running_mean f4 [16]
0	0x00000000	0.0
1	0x00000000	0.0
2	0x00000000	0.0
3	0x00000000	0.0
4	0x00000000	0.0
5	0x00000000	0.0
6	0x00000000	0.0
7	0x00000000	0.0
8	0x00000000	0.0
9	0x00000000	0.0
10	0x00000000	0.0
11	0x00000000	0.0
12	0x00000000	0.0
13	0x00000000	0.0
14	0x00000000	0.0
15	0x00000000	0.0

running_var f4 [16]
0	0x3f800000	1.0
1	0x3f800000	1.0
2	0x3f800000	1.0
3	0x3f800000	1.0
4	0x3f800000	1.0
5	0x3f800000	1.0
6	0x3f800000	1.0
7	0x3f800000	1.0
8	0x3f800000	1.0
9	0x3f800000	1.0
10	0x3f800000	1.0
11	0x3f800000	1.0
12	0x3f800000	1.0
13	0x3f800000	1.0
14	0x3f800000	1.0
15	0x3f800000	1.0

weight f4 [32, 16, 3, 3]
0	0xbd9be4f8	-0.07612032
1	0xbd83ced9	-0.064359374
2	0xb7c9d97c	-2.4062341e-05
3	0x3c859c16	0.01630978
4	0xbd06ba2d	-0.032892395
5	0xbcc2fd16	-0.023802321
6	0xbbcd63e0	-0.0062680095
7	0xbc2286da	-0.009919846
8	0xbc94e4c8	-0.018175498
9	0x3c0efb38	0.008726887
10	0xbd4837c6	-0.048881315
11	0x3daa0c3f	0.08303117
12	0x3d09e464	0.033665076
13	0x3d7d9e60	0.061918616
14	0xbd6d8dd5	-0.05799659
15	0x3bd807f0	0.006592743
16	0x3d62c216	0.055360876
17	0xbd8dd794	-0.06925884
18	0xbaf67af3	-0.0018804952
19	0xbd861fb8	-0.065490186
20	0xbcc99bac	-0.024610363
21	0x3c7d18b4	0.015447784
22	0xbd900b69	-0.07033426
23	0x3d49cc69	0.049267206
24	0x3d5f9e2a	0.054594196
25	0xbd8966c8	-0.06709057
26	0x3c3b7cef	0.011443361
27	0xbbd6f8d7	-0.0065604257
28	0xbdac0716	-0.08399789
29	0xbca3496d	-0.019932473
30	0x3d85747d	0.06516359
31	0x3bb095b9	0.005388942
32	0x3c14a248	0.009071894
33	0x3d78c5ca	0.0607355
34	0x3bc79a1f	0.0060913707
35	0x3d792740	0.060828447
36	0xbd5cee9a	-0.053938486
37	0x3cd95260	0.026528537
38	0x3d58ac3a	0.052898623
39	0x3cef8228	0.029236868
40	0xbd088ae2	-0.033335574
41	0x3d798c83	0.060925018
42	0xbd8fdb0a	-0.070242
43	0x3c2c1d0d	0.010504973
44	0xbddd8fed	-0.10818467
45	0xbd98b661	-0.07456661
46	0xbd8b4762	-0.068007246
47	0xbd5edc76	-0.054409467
48	0xbcb56a38	-0.022145376
49	0xbdaffd98	-0.08593291
50	0xbd840f93	-0.06448283
51	0xbc6c8db2	-0.01443808
52	0x3cfd42d1	0.03091565
53	0x3da79fc2	0.08184768
54	0x3d81f459	0.06345434
55	0xbd450e66	-0.048109435
56	0xbd339994	-0.043847635
57	0x3cd7a238	0.02632247
58	0xbd7b3c32	-0.061336704
59	0xbd682b67	-0.056682017
60	0xbd5b15ba	-0.053487517
61	0x3d6d96e0	0.058005214
62	0x3d559a70	0.052149236
63	0xbd70731c	-0.058703527
64	0x3da10386	0.07862
65	0xbd63b2c2	-0.0555904
66	0xbd33350d	-0.043751765
67	0xbda53e0f	-0.08068477
68	0x3d9e482a	0.07728608
69	0x3d4b2c8f	0.04960304
70	0x3d6e8ca8	0.05823961
71	0x3a32c7c6	0.00068199297
72	0xbc8e7f3d	-0.017394656
73	0x3d3f36f9	0.046683285
74	0xbc66e1e2	-0.014091941
75	0xbd9006ff	-0.070325844
76	0xbd5a076b	-0.05322973
77	0x3d550b80	0.05201292
78	0xbd7450a4	-0.059647217
79	0xbdad9c5c	-0.08477089
80	0x3d81f011	0.06344617
81	0xbd45c37a	-0.048282124
82	0x3b054751	0.0020336697
83	0x3da16419	0.0788042
84	0x3cf5ed2f	0.030020325
85	0xbcd459b2	-0.025921676
86	0x3c842d79	0.016134964
87	0x3d97628f	0.073918454
88	0xbda2c294	-0.07947269
89	0x3d35eb44	0.04441382
90	0xbc0593a8	-0.00815288
91	0xbd52d0d6	-0.051468693
92	0xbbff5b34	-0.0077928547
93	0x3d5a1902	0.053246506
94	0xbd4a05f6	-0.04932209
95	0x3b6e0937	0.003632141
96	0xbca77f4f	-0.020446448
97	0x3d0c9852	0.03432495
98	0xbb6d2fe9	-0.0036191887
99	0x3d3113f0	0.043231905
100	0x3d9bc5d2	0.076060906
101	0x3d23da20	0.040002942
102	0xbce43f90	-0.02786234
103	0xbbacdb88	-0.0052751936
104	0x3d923b8e	0.071402654
105	0x3d929a50	0.07158339
106	0xbdaa3409	-0.08310706
107	0x3ce9908d	0.02851131
108	0x3d6708e8	0.056404978
109	0x3d05dde0	0.0326823
110	0x3c01f3b8	0.007931642
111	0xbd243080	-0.040085316
112	0x3cfdabf4	0.030965783
113	0xbd862dde	-0.06551717
114	0x3d00f778	0.031486005
115	0xbdadcf77	-0.084868364
116	0xbd8acfac	-0.067778915
117	0xbc807d53	-0.01568476
118	0x3c5303ac	0.012879293
119	0x3cbcacc1	0.023031594
120	0xbd22993b	-0.039696913
121	0x3d300c85	0.04298069
122	0xbda80e03	-0.082057975
123	0x3d20041f	0.03906643
124	0x3d049ba4	0.032374993
125	0xbd485c29	-0.048916016
126	0x3c042480	0.008065343
127	0x3d0da59f	0.034581777
128	0xbc903e6f	-0.017607896
129	0x3c146d51	0.009059266
130	0xbd0a7d81	-0.033811096
131	0x3cf4bd7a	0.029875506
132	0xbc0f53c9	-0.008748003
133	0xbb9e772a	-0.004835983
134	0xbd5baf90	-0.053634226
135	0x3c3eeb74	0.011652816
136	0x3d15527d	0.03645562
137	0xbd4d1b89	-0.050075088
138	0x3d2502bd	0.040285815
139	0xbce05909	-0.027386205
140	0xbcbcd7fe	-0.023052212
141	0xbd3a0fac	-0.045425102
142	0x3c8a96ff	0.016917704
143	0x3d0dff24	0.03466715
144	0xbd5eb18c	-0.05436854
145	0x3d92b655	0.07163683
146	0x3ccbe548	0.024889603
147	0x3c1becf5	0.009516944
148	0x3d81ba0e	0.06334315
149	0x3c36c72f	0.0111558875
150	0x3ca3c0cb	0.019989392
151	0x3d28d9f0	0.041223466
152	0xbc22f24f	-0.009945466
153	0x3d8e2a36	0.06941645
154	0x3b70d0b8	0.00367455
155	0x3d8e013a	0.06933828
156	0xbb181e23	-0.0023211322
157	0xbd029ea5	-0.031889576
158	0xbba576d5	-0.0050495663
159	0xbd8c3bd3	-0.06847348
160	0xbd38471f	-0.0449897
161	0x3d20b297	0.039232817
162	0xbd9d3e8a	-0.07677944
163	0xbd9ad650	-0.07560408
164	0x3c8b832f	0.017030327
165	0x3c327625	0.010892426
166	0xbd3c63f3	-0.045993757
167	0x3d96145b	0.07328101
168	0xbd000333	-0.03125305
169	0xbd4d3b4e	-0.050105385
170	0xba5fdc3c	-0.00085395924
171	0x3c9ede23	0.019393032
172	0xbd7cc6d1	-0.061713044
173	0xbc05c01b	-0.008163477
174	0x3cdc03f7	0.02685736
175	0x3d356ae3	0.04429139
176	0x3b780e4c	0.0037850318
177	0xbda84488	-0.08216196
178	0xbd9ed4b9	-0.077554174
179	0x3d9de635	0.07709924
180	0x3d5cdea2	0.053923257
181	0x3da68292	0.08130373
182	0x3c83c8e1	0.016086997
183	0x3c879ed7	0.016555233
184	0xbcb3b3cf	-0.021936325
185	0x3c901d79	0.017592179
186	0x3cb0cbe0	0.02158159
187	0xbd57f9e7	-0.05272856
188	0x3c0b1b8b	0.0084904535
189	0xbd7bf049	-0.06150845
190	0x3d4bf6d6	0.049795948
191	0xbc7fd8ba	-0.0156156365
192	0xbd9414d1	-0.07230533
193	0x3d7c36ca	0.06157569
194	0xbd2a72f9	-0.041613553
195	0xbd6cc228	-0.05780235
196	0x3b7a8919	0.003822869
197	0xbd3d1c60	-0.04616964
198	0x3bf7afb3	0.007558787
199	0x3cbae623	0.022814816
200	0xbc85d3a0	-0.016336262
201	0x3bc5fc3a	0.0060420306
202	0xbcace008	-0.02110292
203	0x3d35a9d0	0.0443514
204	0x3d835ce2	0.064142
205	0xbbff1604	-0.007784607
206	0xbd7e70e0	-0.062119365
207	0x3d543922	0.0518123
208	0x3d448772	0.047980733
209	0x3d063f90	0.03277546
210	0xbcd897fd	-0.026439661
211	0x3cc54076	0.024078589
212	0x3d599586	0.053121112
213	0x3d322ca2	0.043499596
214	0xbd87fc7e	-0.06639956
215	0x3c29c17f	0.0103610745
216	0xbd345338	-0.044024676
217	0xbd439494	-0.047749117
218	0xbd3be0a8	-0.045868546
219	0x3d32df21	0.043669824
220	0x3d4f752b	0.05064885
221	0xbd7ec275	-0.062197167
222	0xbbecdf80	-0.0072287917
223	0x3cf00893	0.029300964
224	0x3cdab9a7	0.026699854
225	0x3d2bd4f0	0.04195112
226	0x3d778eec	0.060439035
227	0x3d356a13	0.044290613
228	0xbd5cb828	-0.053886563
229	0x3ccb4aa8	0.024815872
230	0xba346cc1	-0.00068826607
231	0xbdaa26de	-0.083081946
232	0x3d25ce18	0.04047975
233	0x3d3b4359	0.045718525
234	0xbd292305	-0.041293163
235	0xbbb1555a	-0.005411786
236	0x3d064404	0.03277971
237	0x3cb98c5e	0.02264994
238	0x3d6e727f	0.05821466
239	0xbd8b20b5	-0.06793348
240	0xbcee6636	-0.029101472
241	0xbda6b02a	-0.081390694
242	0x3dbdadf7	0.09261697
243	0xbcdad201	-0.026711466
244	0x3d3cd94f	0.04610568
245	0x3d1498f8	0.036278695
246	0xbc8650c8	-0.016395941
247	0xbd66ceb7	-0.056349482
248	0x3d8b691d	0.06807158
249	0x3d97897d	0.07399271
250	0xbca00c45	-0.0195371
251	0xbd14c136	-0.036317073
252	0x3da9d401	0.0829239
253	0xbbe6c833	-0.0070429086
254	0xbdb171c4	-0.08664277
255	0x3d0259e3	0.031824004

bias f4 [32]
0	0x3d89600b	0.06707772
1	0x3d014e85	0.031569023
2	0xbda5b1d7	-0.08090561
3	0xbbd4a37d	-0.006489216
4	0xbda42f5e	-0.08016847
5	0x3d6fce05	0.058546085
6	0x3ccfac52	0.025350723
7	0x3d7b2d49	0.061322484
8	0xbc5ef200	-0.013607502
9	0x3cae3876	0.021267157
10	0xbd7384dd	-0.05945288
11	0xbd891786	-0.0669394
12	0x3da01f4a	0.07818468
13	0x3ccccfa9	0.025001364
14	0xbd3194d4	-0.043354824
15	0xbca0c0ff	-0.019623278
16	0xb9ae953d	-0.00033299057
17	0x38ecac25	0.00011285421
18	0xbd369837	-0.044578757
19	0xbca9d13d	-0.020729655
20	0xbd11255e	-0.035436027
21	0xbd33d0db	-0.043900352
22	0xbd977197	-0.073947124
23	0x3d713f8d	0.058898497
24	0xbc7e8a51	-0.015535907
25	0x3d2eb58e	0.042653613
26	0x3c8a1f26	0.016860556
27	0x3d532afc	0.051554665
28	0x3da7663d	0.08173797
29	0xbb8cbef5	-0.004295225
30	0xbd0c7853	-0.034294438
31	0x3cbdd76a	0.023174006

weight f4 [32]
0	0x3f816dc4	1.0111623
1	0x3f7f5e94	0.9975369
2	0x3f8080ad	1.0039269
3	0x3f8374b0	1.0269985
4	0x3f7e8caf	0.99433416
5	0x3f7f03a9	0.9961496
6	0x3f7ba4fd	0.9829863
7	0x3f8011c8	1.0005426
8	0x3f7fd5cd	0.9993561
9	0x3f7f3f9e	0.9970645
10	0x3f823f2c	1.0175529
11	0x3f7ef317	0.99589676
12	0x3f7e0f90	0.99242496
13	0x3f80ec12	1.0072043
14	0x3f803c07	1.0018319
15	0x3f80cb5b	1.0062059
16	0x3f82e0a8	1.022481
17	0x3f7e7595	0.99398166
18	0x3f7fee65	0.99973136
19	0x3f7fd922	0.99940693
20	0x3f8075e7	1.0035981
21	0x3f807584	1.0035863
22	0x3f8052cc	1.0025268
23	0x3f7bb899	0.9832855
24	0x3f80d1a0	1.0063972
25	0x3f7d66cb	0.98984975
26	0x3f7e8efe	0.9943694
27	0x3f7c699c	0.9859865
28	0x3f7e1673	0.99253005
29	0x3f7ce084	0.98780084
30	0x3f806ff4	1.0034165
31	0x3f7f82e3	0.9980909

bias f4 [32]
0	0xba10c97d	-0.0005523188
1	0xbb376703	-0.0027984984
2	0xbc3c0161	-0.011474938
3	0xbbd5450d	-0.0065084756
4	0xbb028d5f	-0.001992069
5	0xbb670bfe	-0.003525495
6	0xbc227667	-0.009915925
7	0xbc22111e	-0.009891776
8	0xbbb3f56a	-0.005491902
9	0xbb8e2a23	-0.004338519
10	0xbb2ecd2e	-0.002667259
11	0xbb7d3e11	-0.003864173
12	0x3a6d4fc6	0.00090527197
13	0xbc130bca	-0.008974979
14	0xbb7dd94a	-0.003873425
15	0xbb8d70f5	-0.004316444
16	0xbc5bbafa	-0.013411278
17	0xbc210f74	-0.0098303445
18	0xbbab1048	-0.0052204467
19	0xbbf18d20	-0.0073715597
20	0xbc70ab78	-0.014689319
21	0xbb5984c4	-0.0033190707
22	0xbc24b682	-0.010053279
23	0xbb9781d6	-0.004623632
24	0xbbb68d2b	-0.0055710278
25	0xbbfaf34b	-0.0076583973
26	0xbbfd88a4	-0.007737236
27	0xbc24dc7a	-0.010062331
28	0xbc45bbe2	-0.012068721
29	0xbb35ffe7	-0.0027770938
30	0xbae35b51	-0.001734594
31	0xb9c383b3	-0.00037291422

running_mean f4 [32]
0	0x00000000	0.0
1	0x00000000	0.0
2	0x00000000	0.0
3	0x00000000	0.0
4	0x00000000	0.0
5	0x00000000	0.0
6	0x00000000	0.0
7	0x00000000	0.0
8	0x00000000	0.0
9	0x00000000	0.0
10	0x00000000	0.0
11	0x00000000	0.0
12	0x00000000	0.0
13	0x00000000	0.0
14	0x00000000	0.0
15	0x00000000	0.0
16	0x00000000	0.0
17	0x00000000	0.0
18	0x00000000	0.0
19	0x00000000	0.0
20	0x00000000	0.0
21	0x00000000	0.0
22	0x00000000	0.0
23	0x00000000	0.0
24	0x00000000	0.0
25	0x00000000	0.0
26	0x00000000	0.0
27	0x00000000	0.0
28	0x00000000	0.0
29	0x00000000	0.0
30	0x00000000	0.0
31	0x00000000	0.0

running_var f4 [32]
0	0x3f800000	1.0
1	0x3f800000	1.0
2	0x3f800000	1.0
3	0x3f800000	1.0
4	0x3f800000	1.0
5	0x3f800000	1.0
6	0x3f800000	1.0
7	0x3f800000	1.0
8	0x3f800000	1.0
9	0x3f800000	1.0
10	0x3f800000	1.0
11	0x3f800000	1.0
12	0x3f800000	1.0
13	0x3f800000	1.0
14	0x3f800000	1.0
15	0x3f800000	1.0
16	0x3f800000	1.0
17	0x3f800000	1.0
18	0x3f800000	1.0
19	0x3f800000	1.0
20	0x3f800000	1.0
21	0x3f800000	1.0
22	0x3f800000	1.0
23	0x3f800000	1.0
24	0x3f800000	1.0
25	0x3f800000	1.0
26	0x3f800000	1.0
27	0x3f800000	1.0
28	0x3f800000	1.0
29	0x3f800000	1.0
30	0x3f800000	1.0
31	0x3f800000	1.0

weight f4 [64, 32, 3, 3]
0	0xbd04b09b	-0.032394987
1	0xbc818fe2	-0.015815679
2	0x3a5208bc	0.0008012166
3	0xbd7dba9d	-0.061945546
4	0xbd0bffa0	-0.03417933
5	0x3cb49df6	0.022047978
6	0xbb5a140d	-0.0033276111
7	0xbbc69637	-0.0060603875
8	0xbd26b1cf	-0.040696915
9	0x3ca694b2	0.020334575
10	0xbd0449ef	-0.03229707
11	0x3c476bda	0.01217171
12	0x3c4e800f	0.012603774
13	0x3d687b7b	0.056758385
14	0x3d2eb4f0	0.042653024
15	0x3d5a27dd	0.053260673
16	0x3c55b970	0.0130447
17	0x3c4331a4	0.011913691
18	0xbd3febbd	-0.046855677
19	0x3c093cb7	0.008376292
20	0xbd7e4f07	-0.062087085
21	0x3ca0fff0	0.01965329
22	0x3bbc640d	0.0057492317
23	0xbd005805	-0.031333942
24	0x3c8959f7	0.016766531
25	0xbd1d8c79	-0.038464043
26	0x3d457192	0.048204012
27	0xbd06c607	-0.032903697
28	0xbcec88c3	-0.028873807
29	0xb8c27e50	-9.2741684e-05
30	0xbd0d9d05	-0.034573574
31	0x3cbcbf82	0.023040537
32	0x3c2b7c0f	0.01046659
33	0x3d13077d	0.035895813
34	0x3cbaeb56	0.022817295
35	0xbd64b0bc	-0.05583261
36	0xbd30fd6b	-0.04321043
37	0xbd508157	-0.050904598
38	0x3d42ea8a	0.047586955
39	0xbc29c0ad	-0.010360879
40	0x3bcaa135	0.006183768
41	0xbd25438c	-0.04034762
42	0xbca2420f	-0.01980689
43	0x3cc1cc3f	0.023656962
44	0xbc1e83b0	-0.009674951
45	0x3d184e8d	0.037184287
46	0x3d3070c8	0.043076307
47	0x3c55af34	0.01304226
48	0xbcabe548	-0.020983353
49	0x3d47237a	0.048617817
50	0xbb877fc9	-0.004135106
51	0x3d397b15	0.045283396
52	0xbc84a2e0	-0.016190946
53	0xbc658b13	-0.014010209
54	0x3c8fe4f2	0.017565224
55	0xbce4afd0	-0.027915865
56	0x3cd9f882	0.026607756
57	0xbcc3bce2	-0.023893777
58	0xbcc4c4de	-0.024019655
59	0xbbcda992	-0.006276318
60	0x3c0afa44	0.00848252
61	0x3d1a64c0	0.03769374
62	0xbd2d9967	-0.042382624
63	0x3cdf4d77	0.027258618
64	0xbb44988d	-0.0029998154
65	0x3cce3e6d	0.025176251
66	0x3a421138	0.00074030785
67	0x3d4b6cd0	0.04966432
68	0xbd0da0b2	-0.03457708
69	0xbc426624	-0.011865173
70	0x3c74d729	0.014943876
71	0x3d0263f0	0.03183359
72	0xbd546c2b	-0.05186097
73	0x3c20ae85	0.009807234
74	0x3cd3cb63	0.025853818
75	0xbc6ae2c0	-0.014336288
76	0xbb94b676	-0.0045383526
77	0x3ce8e533	0.028429603
78	0x3c03c130	0.008041665
79	0xbc9ff621	-0.019526543
80	0x3c319453	0.010838586
81	0xbd6316eb	-0.05544178
82	0x3d233f28	0.039855152
83	0xbd3d895b	-0.04627357
84	0x3c956e19	0.018240975
85	0xbb83b42f	-0.0040192823
86	0xbc5448c0	-0.012956798
87	0x3d6ecb8a	0.05829958
88	0x3c8cb5dd	0.017176563
89	0xbb50a8cd	-0.0031838894
90	0x382f380f	4.177546e-05
91	0xbd238050	-0.03991729
92	0x3cb19ed0	0.021682173
93	0xbca999cb	-0.020703217
94	0xbd0ec59f	-0.034856435
95	0x3bb8120f	0.005617387
96	0x3ce51074	0.027961947
97	0xbd43f365	-0.04783954
98	0xbd16c074	-0.03680463
99	0x3d062bbb	0.03275655
100	0xbd037336	-0.032092296
101	0xbcf1ffc4	-0.029540904
102	0x3cab6520	0.020922244
103	0x3cace08f	0.021103172
104	0xbcdc6186	-0.026901972
105	0xbd061986	-0.032739185
106	0xbceecc00	-0.02915001
107	0x3cc836f1	0.02444026
108	0x3d4758aa	0.04866854
109	0xbd277336	-0.040881358
110	0xbca93178	-0.020653471
111	0xbd3a8fdc	-0.04554735
112	0x3d0db1c0	0.034593344
113	0xbc403d8c	-0.011733424
114	0x3d772088	0.06033376
115	0xba9edd27	-0.0012120352
116	0xbcc48b8f	-0.023992328
117	0xbd5d79e3	-0.05407132
118	0xbcbc5cdd	-0.0229935
119	0xbd4df884	-0.05028583
120	0xbd2acdd3	-0.041700196
121	0xbcf9a780	-0.030475378
122	0x3c83e8e7	0.016102267
123	0x3c9f72da	0.019463945
124	0x3a896661	0.0010482782
125	0x3c60f47b	0.013730164
126	0x3d11fc03	0.035640728
127	0x3caeb759	0.021327661
128	0x3d286602	0.041112907
129	0xbcb2309d	-0.021751696
130	0x3d94ed80	0.07271862
131	0x3ba8fde2	0.0051572183
132	0xbabac89b	-0.0014250459
133	0xbd5cb5f5	-0.053884465
134	0xbcca7fb0	-0.02471909
135	0xbb208c1a	-0.002449757
136	0x3cf763a7	0.030198885
137	0xba982973	-0.0011609033
138	0xbd7cca3d	-0.061716307
139	0x3cdb05bc	0.026736133
140	0xbd4273a3	-0.04747356
141	0xbd2722a4	-0.04080452
142	0x3d2f296f	0.042764124
143	0x3d02ac15	0.03190239
144	0x3d060004	0.03271486
145	0x3d3f93db	0.046771865
146	0xbd539d9b	-0.051663976
147	0xbcb03dff	-0.021513937
148	0x3d186968	0.0372099
149	0x3d1372d4	0.03599818
150	0xbd664996	-0.05622252
151	0x3d329c52	0.04360611
152	0x3d034e1e	0.03205692
153	0x3cfbf806	0.030757915
154	0xbc7b85b2	-0.0153517
155	0xbcbd1f32	-0.023086164
156	0x3aa6eb5c	0.0012734937
157	0xbd3a9e6c	-0.04556124
158	0xbd25f540	-0.04051709
159	0xbc1c5a14	-0.009542961
160	0x3bbecb0b	0.0058225445
161	0xbd840217	-0.06445711
162	0x3cf14726	0.029452872
163	0xbbb83dec	-0.005622616
164	0xbd3a645e	-0.045505874
165	0x3d0d36c0	0.03447604
166	0x3d3eb62e	0.04656046
167	0xbd03b1fa	-0.032152154
168	0xbd278c2b	-0.04090516
169	0xbd0c25b0	-0.03421563
170	0x3d5bde1a	0.05367861
171	0xbc6ba974	-0.0143836625
172	0x3d4b9970	0.049706876
173	0xbd354930	-0.04425925
174	0xbd241f3f	-0.04006886
175	0xbc4d177a	-0.012517804
176	0xbd103e61	-0.03521574
177	0xbce72bc7	-0.028219117
178	0x3bedd040	0.0072574914
179	0x3b2f0d2b	0.002671073
180	0xbce9772c	-0.028499208
181	0x3d7bf1f7	0.061510053
182	0x3ca9ee11	0.020743402
183	0x3ca5a9ab	0.020222506
184	0xbca1a400	-0.019731522
185	0xbc893152	-0.01674715
186	0x3d873717	0.066023044
187	0xbb272ffb	-0.0025510776
188	0xbc423826	-0.011854207
189	0x3d363db0	0.044492424
190	0x3d266886	0.040627025
191	0x3d22076d	0.039557863
192	0x3a7f44cf	0.00097377313
193	0xbd42d765	-0.047568697
194	0x3d3a74fb	0.045521718
195	0x3d65c90e	0.056099944
196	0xbc9e841c	-0.019350104
197	0xbd65d3c0	-0.056110144
198	0xbcb9d718	-0.022685573
199	0x3d3c0357	0.045901623
200	0x3c040828	0.008058585
201	0x3cc0153d	0.023447627
202	0x3c5d6028	0.013511695
203	0x3ce67ae5	0.028134773
204	0xbd2ce26b	-0.042208117
205	0xbd04d2ef	-0.032427724
206	0xbcb65f48	-0.02226223
207	0x3c48c708	0.012254484
208	0xbd27dc04	-0.040981308
209	0x3ce840cc	0.02835121
210	0xbd0868a5	-0.03330292
211	0xbc48bc0f	-0.012251868
212	0xbd37d0ba	-0.04487679
213	0xbccc6021	-0.024948182
214	0xbcaf6d46	-0.02141441
215	0x3d3365a3	0.0437981
216	0x3cacd2a3	0.021096533
217	0x3cc31b97	0.023816867
218	0xbc4c62dd	-0.012474743
219	0xbcada26e	-0.021195617
220	0xbc855b9e	-0.016279038
221	0xbcb2ef15	-0.021842519
222	0xbd378c51	-0.04481155
223	0xbd3a5091	-0.04548699
224	0x3d149ba5	0.036281247
225	0xbcd1929f	-0.02558261
226	0xbd86a03b	-0.0657353
227	0xbc9a6609	-0.018847482
228	0x3ceead38	0.029135332
229	0xbc8aafcd	-0.016929531
230	0xbd01cd35	-0.03168984
231	0x3ad6713e	0.0016360653
232	0x3cbc4036	0.022979837
233	0x3cea1c45	0.028577933
234	0x3d79843e	0.06091713
235	0x3c202570	0.009774551
236	0x3d15f99e	0.036615007
237	0x3d02e6a0	0.031958222
238	0xbd3dd2ce	-0.046343617
239	0x3ba487fc	0.0050210934
240	0xbd537bc9	-0.051631723
241	0xbcc3219d	-0.023819739
242	0xbc2101f6	-0.009827128
243	0x3c991cc2	0.01869047
244	0xbd5024de	-0.05081641
245	0x3d749c4b	0.059719365
246	0xbc4a5c69	-0.012351134
247	0xbaabd959	-0.0013111039
248	0xbc7be663	-0.015374753
249	0x3d411932	0.04714317
250	0x3b77bf60	0.0037803277
251	0x3cb05e0c	0.02152922
252	0xbccaa0b4	-0.024734832
253	0xbd4dda7d	-0.050257195
254	0x3a57d65e	0.00082335423
255	0xbd3632d2	-0.04448206

bias f4 [64]
0	0x3c04ee9e	0.008113531
1	0x3d21f814	0.039543226
2	0xbd18a15b	-0.037263256
3	0xbce31b80	-0.027723074
4	0x3d463ba2	0.048396714
5	0xbd082131	-0.03323478
6	0xbd05e0a4	-0.032684937
7	0x3d4d9556	0.050191246
8	0xbc8ec135	-0.017426113
9	0xbc8d1d73	-0.017225957
10	0x3cd225de	0.025652822
11	0x3cbc5d3f	0.022993682
12	0x3d5ca311	0.05386645
13	0xbd37da6d	-0.04488604
14	0xbcc45f0a	-0.0239711
15	0x3d3ef50a	0.046620406
16	0x3d2e75c8	0.042592794
17	0x3c8f7ae7	0.01751466
18	0x3bf30ab6	0.0074170483
19	0x3d469b2f	0.04848784
20	0xbd56c167	-0.052430537
21	0x3d0e48f4	0.034737542
22	0xbd68a970	-0.056802213
23	0x3d242040	0.04006982
24	0xbd621acc	-0.055201337
25	0xbcc3fe79	-0.023925053
26	0xbce6fe9a	-0.028197575
27	0xbc3e72da	-0.011624062
28	0x3d4dd14d	0.050248433
29	0x3be21717	0.006899725
30	0xbd35b198	-0.04435882
31	0x3c151aac	0.009100597
32	0xbd648d9b	-0.055799108
33	0xbbb3889e	-0.0054789325
34	0xbd43a788	-0.047767192
35	0x3d2fd70c	0.042929694
36	0xbd5778ff	-0.052605625
37	0xbb430570	-0.002975788
38	0x3d2e9636	0.04262372
39	0x3bb05292	0.005380937
40	0xbbfdf1aa	-0.007749756
41	0xbcb4a04c	-0.022049092
42	0x3c88c2fa	0.016694535
43	0xbd36b5a4	-0.04460682
44	0x3d5d232e	0.053988628
45	0x3d2bf2c7	0.041979577
46	0x3cc7aed6	0.02437536
47	0x3d0b68a8	0.034035355
48	0xbd2db5f7	-0.042409863
49	0x3c808bba	0.015691627
50	0xbbd35aee	-0.0064500486
51	0x3bb06502	0.005383135
52	0x3d04c8b5	0.03241797
53	0x3d5980b7	0.053101268
54	0xbcf14a95	-0.029454509
55	0xbbce7047	-0.0063000056
56	0xbd6477b4	-0.05577822
57	0x3c164dbc	0.009173807
58	0x3d077fd7	0.033080902
59	0x3cbb1fa2	0.022842232
60	0xbc0f38f8	-0.00874161
61	0x3ca4e249	0.020127432
62	0x3d19e49d	0.03757154
63	0x3b8306df	0.003998622

weight f4 [64]
0	0x3f82e21a	1.0225251
1	0x3f803a97	1.001788
2	0x3f809f6f	1.0048655
3	0x3f80ac23	1.0052532
4	0x3f84f130	1.0386105
5	0x3f8075c0	1.0035934
6	0x3f89aa3e	1.0755079
7	0x3f7fdcb1	0.99946123
8	0x3f8430db	1.032741
9	0x3f7fde6c	0.99948764
10	0x3f857007	1.0424813
11	0x3f95a4dc	1.1690936
12	0x3f84e4bc	1.0382304
13	0x3f7fca4c	0.99918056
14	0x3f830ac3	1.0237659
15	0x3f8042d4	1.0020394
16	0x3f80e6e9	1.0070468
17	0x3f811bba	1.0086586
18	0x3f806d12	1.0033286
19	0x3f800bd6	1.0003612
20	0x3f80415f	1.001995
21	0x3f81f064	1.0151486
22	0x3f80997a	1.0046837
23	0x3f803af8	1.0017996
24	0x3f805213	1.0025047
25	0x3f83507c	1.0258937
26	0x3f8005f2	1.0001814
27	0x3f7fab4f	0.9987077
28	0x3f7fdc34	0.9994538
29	0x3f801f38	1.0009527
30	0x3f84dce4	1.037991
31	0x3f7ff682	0.99985516
32	0x3f81214a	1.0088284
33	0x3f80009d	1.0000187
34	0x3f94106c	1.1567512
35	0x3f7fb396	0.998834
36	0x3f811756	1.0085247
37	0x3f82a13c	1.0205455
38	0x3f8165f8	1.0109243
39	0x3f7fbbc0	0.9989586
40	0x3f80bc9f	1.0057563
41	0x3f7ff0e8	0.9997697
42	0x3f89f5bb	1.0778116
43	0x3f81d1f2	1.0142195
44	0x3f813d47	1.0096825
45	0x3f800192	1.0000479
46	0x3f7fd3a5	0.9993232
47	0x3f7fef3e	0.9997443
48	0x3f871dd6	1.055598
49	0x3f7fc522	0.99910176
50	0x3f806e40	1.0033646
51	0x3f808a9e	1.0042303
52	0x3f831466	1.02406
53	0x3f85c3bc	1.0450358
54	0x3f821d83	1.0165256
55	0x3f7fcbd9	0.9992042
56	0x3f806ca8	1.0033159
57	0x3f80010a	1.0000317
58	0x3f80e578	1.0070028
59	0x3f801533	1.000647
60	0x3f7fdc2d	0.99945337
61	0x3f7fe34e	0.99956214
62	0x3f7fd80b	0.9993903
63	0x3f80b21d	1.0054356

bias f4 [64]
0	0x3b15be7a	0.0022849129
1	0xba85d41a	-0.0010210306
2	0xba06c34f	-0.00051407976
3	0x39a1de8d	0.00030874126
4	0x3b30dc48	0.0026986767
5	0x3a198ee0	0.0005857777
6	0x3b27e205	0.0025616896
7	0xba978752	-0.0011560714
8	0x3b2e57ce	0.0026602629
9	0xb9a11ac2	-0.0003072825
10	0x3b41f78a	0.0029597008
11	0x3c2f1f98	0.010688685
12	0x3b60cd76	0.0034302152
13	0xbaac1c62	-0.0013131017
14	0x3a46c95c	0.00075831055
15	0xba421d7b	-0.00074049056
16	0xb9d4281e	-0.0004046568
17	0xba4b0b8c	-0.0007745556
18	0x3a8b01ae	0.0010605359
19	0xb9782ae9	-0.00023667108
20	0xba17e22e	-0.0005793896
21	0x3b4ef3c2	0.0031578396
22	0x397fc3a5	0.00024391578
23	0xb90b2224	-0.00013268791
24	0xb9dd9c12	-0.00042268686
25	0x3b4d6ede	0.00313466
26	0xba23c700	-0.000624761
27	0xba745b3d	-0.0009321457
28	0xbaa2774e	-0.0012395175
29	0xba3fb794	-0.0007313427
30	0x3af42f77	0.0018629868
31	0xba2fbe56	-0.00067040825
32	0x3a9f580a	0.0012156975
33	0xb7646b2f	-1.3614815e-05
34	0x3bbce72b	0.005764862
35	0xba87d87e	-0.0010364202
36	0x3abfa0a0	0.0014620014
37	0x39dc6588	0.00042037317
38	0x3b36d1ac	0.002789597
39	0xba5a4700	-0.000832662
40	0xb9a0ed9a	-0.00030694605
41	0xb93e5b7b	-0.00018153891
42	0x3be080d0	0.006851293
43	0x3a219924	0.00061644823
44	0xb9f00027	-0.0004577648
45	0xb7d63c0b	-2.5538748e-05
46	0xb8d26b40	-0.00010033557
47	0xba1ffd43	-0.00061031076
48	0x3b438a1c	0.0029836958
49	0xba457aa6	-0.00075332297
50	0x39cd7775	0.0003918965
51	0xbabf0364	-0.0014573154
52	0x3b437ed5	0.0029830236
53	0x3bf7852c	0.007553717
54	0x3b0c7666	0.0021432876
55	0xba502db7	-0.00079413824
56	0xba255e0e	-0.0006308266
57	0x37ae69fb	2.0791767e-05
58	0x39b5f041	0.00034702013
59	0xba3a1ae2	-0.0007099343
60	0xbb519fc3	-0.0031986095
61	0xba2e5de4	-0.0006651564
62	0xba4d6304	-0.0007834884
63	0xba9e8f6e	-0.0012097189

running_mean f4 [64]
0	0x00000000	0.0
1	0x00000000	0.0
2	0x00000000	0.0
3	0x00000000	0.0
4	0x00000000	0.0
5	0x00000000	0.0
6	0x00000000	0.0
7	0x00000000	0.0
8	0x00000000	0.0
9	0x00000000	0.0
10	0x00000000	0.0
11	0x00000000	0.0
12	0x00000000	0.0
13	0x00000000	0.0
14	0x00000000	0.0
15	0x00000000	0.0
16	0x00000000	0.0
17	0x00000000	0.0
18	0x00000000	0.0
19	0x00000000	0.0
20	0x00000000	0.0
21	0x00000000	0.0
22	0x00000000	0.0
23	0x00000000	0.0
24	0x00000000	0.0
25	0x00000000	0.0
26	0x00000000	0.0
27	0x00000000	0.0
28	0x00000000	0.0
29	0x00000000	0.0
30	0x00000000	0.0
31	0x00000000	0.0
32	0x00000000	0.0
33	0x00000000	0.0
34	0x00000000	0.0
35	0x00000000	0.0
36	0x00000000	0.0
37	0x00000000	0.0
38	0x00000000	0.0
39	0x00000000	0.0
40	0x00000000	0.0
41	0x00000000	0.0
42	0x00000000	0.0
43	0x00000000	0.0
44	0x00000000	0.0
45	0x00000000	0.0
46	0x00000000	0.0
47	0x00000000	0.0
48	0x00000000	0.0
49	0x00000000	0.0
50	0x00000000	0.0
51	0x00000000	0.0
52	0x00000000	0.0
53	0x00000000	0.0
54	0x00000000	0.0
55	0x00000000	0.0
56	0x00000000	0.0
57	0x00000000	0.0
58	0x00000000	0.0
59	0x00000000	0.0
60	0x00000000	0.0
61	0x00000000	0.0
62	0x00000000	0.0
63	0x00000000	0.0

running_var f4 [64]
0	0x3f800000	1.0
1	0x3f800000	1.0
2	0x3f800000	1.0
3	0x3f800000	1.0
4	0x3f800000	1.0
5	0x3f800000	1.0
6	0x3f800000	1.0
7	0x3f800000	1.0
8	0x3f800000	1.0
9	0x3f800000	1.0
10	0x3f800000	1.0
11	0x3f800000	1.0
12	0x3f800000	1.0
13	0x3f800000	1.0
14	0x3f800000	1.0
15	0x3f800000	1.0
16	0x3f800000	1.0
17	0x3f800000	1.0
18	0x3f800000	1.0
19	0x3f800000	1.0
20	0x3f800000	1.0
21	0x3f800000	1.0
22	0x3f800000	1.0
23	0x3f800000	1.0
24	0x3f800000	1.0
25	0x3f800000	1.0
26	0x3f800000	1.0
27	0x3f800000	1.0
28	0x3f800000	1.0
29	0x3f800000	1.0
30	0x3f800000	1.0
31	0x3f800000	1.0
32	0x3f800000	1.0
33	0x3f800000	1.0
34	0x3f800000	1.0
35	0x3f800000	1.0
36	0x3f800000	1.0
37	0x3f800000	1.0
38	0x3f800000	1.0
39	0x3f800000	1.0
40	0x3f800000	1.0
41	0x3f800000	1.0
42	0x3f800000	1.0
43	0x3f800000	1.0
44	0x3f800000	1.0
45	0x3f800000	1.0
46	0x3f800000	1.0
47	0x3f800000	1.0
48	0x3f800000	1.0
49	0x3f800000	1.0
50	0x3f800000	1.0
51	0x3f800000	1.0
52	0x3f800000	1.0
53	0x3f800000	1.0
54	0x3f800000	1.0
55	0x3f800000	1.0
56	0x3f800000	1.0
57	0x3f800000	1.0
58	0x3f800000	1.0
59	0x3f800000	1.0
60	0x3f800000	1.0
61	0x3f800000	1.0
62	0x3f800000	1.0
63	0x3f800000	1.0

weight f4 [32, 64]
0	0xbd5f1c97	-0.054470625
1	0xbda896a8	-0.082318604
2	0x3d03f3f2	0.032215066
3	0x3db994be	0.090615734
4	0xbd881cd6	-0.06646125
5	0x3db75d9f	0.08953404
6	0xbdd2c50d	-0.10291491
7	0x3bee6388	0.0072750486
8	0x3de016c3	0.109418415
9	0xbd9cc50f	-0.076547734
10	0xb846e560	-4.74205e-05
11	0x3ade86a7	0.0016977385
12	0xbdaaac41	-0.08333636
13	0xbc9dc1d8	-0.019257471
14	0x3d5489c9	0.051889215
15	0xbcdc0e86	-0.026862394
16	0xbdf8fb34	-0.12157288
17	0x3d4c00ff	0.049805637
18	0x3c053bc0	0.008131921
19	0xbdc221b6	-0.09479086
20	0x3cbb5149	0.022865908
21	0x3d6c236c	0.05765097
22	0xbdc27e51	-0.09496749
23	0x3db474d1	0.088113435
24	0xbdadc6f8	-0.08485216
25	0x3c5c4162	0.013443323
26	0xbd4df440	-0.050281763
27	0x3bad64fb	0.005291579
28	0x3d4d87a1	0.050178174
29	0xbddb84b0	-0.107186675
30	0xbc8aa458	-0.016924068
31	0x3dbdc3bd	0.0926585
32	0x3c9f7aee	0.019467797
33	0xbdf92ce3	-0.121667646
34	0xbd90bfec	-0.07067856
35	0x3d38899e	0.045053117
36	0x3c072fd0	0.0082511455
37	0xbe049f25	-0.12951334
38	0xbdaffa09	-0.08592612
39	0xbd8515f7	-0.0649833
40	0xbd805a04	-0.06267169
41	0x3da8ef0c	0.082487196
42	0xbde15f4b	-0.11004504
43	0x3b6d58fa	0.0036216364
44	0x3d5fa62f	0.054601844
45	0x3da068ce	0.0783249
46	0xbd004fd5	-0.031326134
47	0x3dd35a00	0.103199005
48	0xbcbb0ed2	-0.022834215
49	0xbd8d3d0d	-0.0689641
50	0x3dffd5df	0.124919645
51	0xbbd15016	-0.006387721
52	0xbd89ca36	-0.06728022
53	0x3d8409c8	0.06447178
54	0x3da93548	0.08262116
55	0x3d95b12d	0.07309184
56	0x3cd0de9a	0.02549677
57	0x3dae3d69	0.08507807
58	0xbdc45549	-0.09586579
59	0x3dd45948	0.103685915
60	0xbd51258e	-0.051061206
61	0x3da020d6	0.07818763
62	0xbda792e3	-0.08182313
63	0xbd9e3672	-0.07725228
64	0x3cefdf70	0.029281348
65	0x3ca6b4f5	0.020349959
66	0xbd364cf5	-0.044506986
67	0xbd5457ea	-0.051841654
68	0x3dafea8f	0.085896604
69	0x3d8cf249	0.0688215
70	0xbde8deff	-0.11370658
71	0x3d9e8049	0.07739312
72	0x3cfee1c8	0.03111352
73	0xbd8467c4	-0.06465104
74	0xbdf26c22	-0.11837031
75	0xbde972da	-0.11398859
76	0x3e012805	0.12612922
77	0x3d23636b	0.039889734
78	0x3dcf7147	0.10129028
79	0xbbc4593d	-0.0059920833
80	0xbd77c07e	-0.06048631
81	0x3d21bfc2	0.039489515
82	0x3d7d5d20	0.06185639
83	0x3dba4544	0.090952426
84	0xbd17ecf6	-0.037091218
85	0x3dbf881a	0.09352131
86	0xbd7d5a0a	-0.061853446
87	0xbcf45555	-0.029825846
88	0xbddd34dc	-0.10801098
89	0xbdeb4c4b	-0.11489161
90	0xbc98bbfd	-0.018644327
91	0x3d87c619	0.06629581
92	0xbd89bfc9	-0.06726033
93	0xbcf4c16b	-0.029877385
94	0xbb8c618c	-0.0042840894
95	0xbd3ea070	-0.046539724
96	0xbdc77630	-0.09739339
97	0xbcf5cd36	-0.030005079
98	0xbd8406d2	-0.06446613
99	0x3d6ba875	0.0575337
100	0x3da1f75b	0.079085074
101	0xbdda252f	-0.106516235
102	0xbcedaae0	-0.029012144
103	0x3ded0735	0.1157364
104	0xbda94144	-0.082644016
105	0x3d85af24	0.06527546
106	0xbc455733	-0.012044716
107	0xbd2e22eb	-0.04251377
108	0xbd7cbfe3	-0.061706435
109	0x3cfb036f	0.030641286
110	0x3d7375f0	0.059438646
111	0x3d077b0b	0.033076327
112	0x3d4fc090	0.05072075
113	0x3c73a9f8	0.014872067
114	0xbd95c95a	-0.073137954
115	0xbdee3564	-0.11631277
116	0xbdca43b7	-0.09876197
117	0xbd980090	-0.07421982
118	0x3b4ebb4f	0.003154475
119	0xbdc2550c	-0.09488878
120	0x3dd3ff60	0.10351443
121	0xbc0d208d	-0.008613718
122	0x3d5ea42a	0.054355778
123	0x3d054b8c	0.03254275
124	0xbb0c0c50	-0.0021369644
125	0x3d9c181e	0.076217875
126	0x3dbfbf98	0.093627155
127	0x3dddeccd	0.10836182
128	0xbc4a0ebc	-0.0123326145
129	0xbd08268d	-0.03323989
130	0xbdd2277f	-0.102614395
131	0xbb84006c	-0.0040283706
132	0xbd809b75	-0.06279651
133	0xbda2f263	-0.07956388
134	0xbca72a64	-0.020405956
135	0xbd8f4df2	-0.06997289
136	0x382ca2e5	4.1159703e-05
137	0x3de27c2e	0.11058842
138	0x3e0bac01	0.13639833
139	0xbe1db042	-0.15399268
140	0xbd664986	-0.05622246
141	0x3c7be8ed	0.015375358
142	0xbd81f76b	-0.06346019
143	0x3d892ffe	0.06698607
144	0xbd61ed60	-0.05515802
145	0x3d534e44	0.05158831
146	0xbd7d8ae2	-0.061900027
147	0x3c94c65f	0.018160997
148	0xbccb8ad8	-0.02484648
149	0xbdc758a1	-0.097337015
150	0xbdbefcd7	-0.09325569
151	0x3d5cf088	0.053940326
152	0xbd73d6a0	-0.059530854
153	0x3e00579b	0.12533419
154	0x3df2d499	0.11856956
155	0x3df2fb1b	0.11864301
156	0xbca4515b	-0.020058325
157	0xbe05d057	-0.13067757
158	0x3cc2f4ba	0.023798335
159	0x3d6e8942	0.058236368
160	0xbd712d10	-0.058880866
161	0x3d58adbb	0.052900057
162	0x3e3dc1f3	0.18531017
163	0xbd63f35b	-0.055652004
164	0x3d01b398	0.031665415
165	0xbde33358	-0.110937774
166	0xbda6b04a	-0.08139093
167	0x3d6ca0ab	0.057770412
168	0xbdba3af2	-0.09093274
169	0x3da99589	0.08280475
170	0x3d9f6cdf	0.077844374
171	0xbcded4b0	-0.027201027
172	0x3df4a949	0.11946351
173	0xbd2f8c1f	-0.04285824
174	0x3d4fbb62	0.05071581
175	0xbded6efd	-0.11593435
176	0xbba44c58	-0.0050139837
177	0xbc2f0545	-0.010682409
178	0x3d9ecf54	0.077543885
179	0xbd89832b	-0.067144714
180	0x3e11ba2c	0.14231175
181	0x3d1c5339	0.038165305
182	0x3c8a2d03	0.016867166
183	0xbc805345	-0.015664706
184	0xbd45b693	-0.04826982
185	0x3cf38096	0.0297244
186	0xbd7b1216	-0.061296545
187	0xbd1a3032	-0.03764362
188	0xbd67123b	-0.05641387
189	0x3cc04578	0.023470625
190	0x3d8749c8	0.066058695
191	0xbd146d40	-0.036237
192	0x3dc01010	0.09378064
193	0xbd84df46	-0.064878985
194	0xbd694b2a	-0.056956448
195	0x3cea6ab4	0.028615333
196	0xbd9453bb	-0.07242533
197	0x3d8fc000	0.07019043
198	0x3dcb2f02	0.099210754
199	0xbd20ded0	-0.03927499
200	0x3b728f43	0.003701166
201	0xbd82cf08	-0.06387144
202	0x3c981b6b	0.018567761
203	0xbdcfeaa2	-0.101521745
204	0x3d4df7fc	0.050285324
205	0xbdace21c	-0.084415644
206	0xbd7ba2da	-0.061434604
207	0x3dd27b7d	0.1027746
208	0x3dd0771c	0.10178968
209	0x3d565625	0.052328248
210	0xbcc8363f	-0.024439929
211	0xbc6f6c69	-0.014613249
212	0xbde4c2d9	-0.11169977
213	0x3d3b9db9	0.045804713
214	0x3c850390	0.01623705
215	0xbd831d87	-0.06402116
216	0x3b218fcd	0.0024652362
217	0xbdfa8129	-0.122316666
218	0xbdec7df6	-0.11547463
219	0xbd70c86f	-0.0587849
220	0xbc3fc9c4	-0.0117058195
221	0xbd9cbef2	-0.076536074
222	0xbd709870	-0.058739126
223	0x3d27151b	0.040791612
224	0xbc4695f6	-0.012120714
225	0x3db121fa	0.08649059
226	0xbccc91a0	-0.024971783
227	0x3d80ccc4	0.06289056
228	0x3de81e76	0.11333935
229	0x3c964059	0.01834123
230	0x3d833eef	0.06408488
231	0xbdc45b22	-0.09587695
232	0x3d9679ff	0.07347488
233	0x3ce61a6a	0.028088767
234	0x3d6133b9	0.054980967
235	0xbdbf8400	-0.09351349
236	0x3d030c96	0.031994425
237	0x3cfddc6d	0.030988896
238	0xbcd47ad7	-0.02593748
239	0xbd8f8a9f	-0.07008862
240	0x3dd15099	0.10220451
241	0x3d85d6b4	0.06535092
242	0x3dd0250f	0.10163318
243	0xbd8b9de5	-0.06817225
244	0xbd4f190c	-0.050560996
245	0x3c8c2277	0.017106278
246	0x3cb990c5	0.02265204
247	0x3df950a3	0.12173583
248	0xbded500f	-0.115875356
249	0xbd637366	-0.055529974
250	0x3cdd69ee	0.02702805
251	0x3d925d78	0.07146734
252	0xbb8c340c	-0.0042786654
253	0x3c6ad6d3	0.014333445
254	0xbdca7a2a	-0.09886582
255	0x3cba8ebd	0.022773141

bias f4 [32]
0	0x3d4cf204	0.05003549
1	0x3df4cbf6	0.11952965
2	0x3c4c3e89	0.012466081
3	0xbd710a56	-0.058847748
4	0x3d4b3711	0.049613062
5	0xbba973b8	-0.0051712655
6	0xbd5d7349	-0.054065023
7	0x3c995db7	0.018721445
8	0x3d882834	0.06648293
9	0xbd17863c	-0.03699325
10	0xbd95dd1f	-0.07317566
11	0xbdc6e4ac	-0.097115844
12	0x3b2131ca	0.0024596327
13	0xbdaac068	-0.0833748
14	0x3ca127fa	0.019672383
15	0xbdc517f8	-0.09623712
16	0x3da4c3aa	0.080451325
17	0x3d8728f0	0.06599605
18	0xbd7dc532	-0.06195564
19	0x3dcf9c8a	0.10137279
20	0x3dda5801	0.10661317
21	0xbd400986	-0.046884082
22	0x3d7c107e	0.061539166
23	0x3c1aab40	0.009440243
24	0xbd5c46ed	-0.053778578
25	0x3db84def	0.0899924
26	0xbbf0c379	-0.007347521
27	0xbbb96d93	-0.005658814
28	0xbb557a45	-0.00325741
29	0xbc3ce1eb	-0.011528472
30	0xbd990c61	-0.07473064
31	0x3c5b5f3f	0.013389408

weight f4 [2, 32]
0	0x3d3c8d2d	0.046033073
1	0x3e04e0c4	0.12976366
2	0x3e6b781b	0.22995035
3	0x3d529e01	0.051420216
4	0xbe2cfb91	-0.1689284
5	0xbe8d1f09	-0.2756274
6	0xbe9245df	-0.28568932
7	0xbeb2e390	-0.3493924
8	0x3e1a55e7	0.15071832
9	0x3d3d0f96	0.046157442
10	0xba1f9bc2	-0.00060885784
11	0x3bbdd6c9	0.0057934267
12	0xbe8e4cbc	-0.2779292
13	0x3e891994	0.26777327
14	0xbe717515	-0.2357982
15	0x3cac0bb0	0.021001667
16	0xbe9e04b2	-0.30862957
17	0x3e2fd4d3	0.1717103
18	0x3e1373e5	0.14399679
19	0x3e36a227	0.17835294
20	0x3f05365b	0.52036065
21	0x3da8ce63	0.0824249
22	0xbe9ccaa9	-0.30623367
23	0xbe06414c	-0.13110846
24	0xbe73d5de	-0.23812053
25	0xbe966754	-0.29375708
26	0x3dd9d095	0.10635487
27	0x3d345871	0.044029657
28	0x3dbab777	0.091170244
29	0xbdada8f6	-0.08479492
30	0xbdf32774	-0.118727595
31	0xbe801210	-0.2501378
32	0xbda4a8d9	-0.08040018
33	0x3deb296e	0.114825115
34	0xbe0b5a08	-0.13608563
35	0x3dec6df1	0.11544407
36	0x3ea83dca	0.3285964
37	0x3ddcb3c6	0.107764766
38	0x3ec12970	0.37726927
39	0x3e634695	0.22194894
40	0xbcf8584c	-0.03031554
41	0x3d89e423	0.06732967
42	0xbe51a331	-0.20472409
43	0x3dc66451	0.096871026
44	0x3ec7b7d5	0.3900744
45	0x3d33721d	0.04381
46	0x3e8b4e96	0.27208394
47	0xbdc4faa4	-0.096181184
48	0x3e73138d	0.23737927
49	0xbea63428	-0.32461667
50	0x3dc517e5	0.09623698
51	0xbaecfd76	-0.0018080908
52	0xbf06729b	-0.52518624
53	0x3d23f681	0.040030006
54	0x3e41a223	0.18909506
55	0x3e1d9e01	0.15392305
56	0x3d46f9c6	0.048578046
57	0x3e0d1824	0.1377874
58	0xbd808f86	-0.06277375
59	0xbdf8ffc8	-0.121581614
60	0x3e2b3286	0.16718492
61	0x3e5629a7	0.20914327
62	0xbe4a35a2	-0.19747022
63	0x3e8182b2	0.25295025

bias f4 [2]
0	0x3dd1d1eb	0.10245117
1	0x3e06e948	0.13174927
