models/Celeba-user20-agg5/server.pt (torch, 115994 bytes, 22 tensors)

weight f4 [16, 3, 3, 3]
00000000: fb84 1b3d dd6d d7bc d72f 8c3d a026 22bc
00000010: d5c1 ab3d f1f1 fe3c 8952 3fbd b026 22be
00000020: b104 133d de45 32be 3034 3b3d cf50 cd3c
00000030: beb9 10bd 75aa 2a3e cc64 9939 1cfe 553d
00000040: 54a9 9f3d eefb ffbd 6e2f 93bd c965 4e3e
00000050: 8bb9 3dbe cf0e 58ba acfd 17bc ac95 f43d
00000060: 0f1c 0fbd a057 583d 8190 14bc 8526 b9bd
00000070: f67c d9bd 3d6e d7bd ee08 31be 0c8b f6bd
00000080: 136b 5b3d 1104 013e 91a0 0cbb 890f acbd
00000090: c77f be3d 8323 98bd 709e 64bd 58f2 e1bd
000000a0: 04be 69bd 4bd7 2dbe 5836 923d 2a36 763d
000000b0: e86a 203d 226b d73d ea33 ad3d 87d9 6a3a
000000c0: 7a67 983c 38bc c23c c830 f13d 727a fc3d
000000d0: f42e 043e 1993 f33d f2e1 4fbd 6f9d b0bb
000000e0: fcf1 15bd 4b7d eb3d 4501 a03c 21ae 353e
000000f0: d980 ae3d d670 24be 9dd3 383d a1e7 433e
00000100: 9f18 3a3e 7af2 ae3b b347 703d 3b81 3fbe
00000110: a03d 89bd 8ed0 713d c121 3fbe 9ede 1a3e
00000120: 1e54 fdbd d45f 923d aec3 fb3b 46e1 263d
00000130: 248e d73c 541e 29be be09 7ebd e4d8 ebbd
00000140: 4f07 2d3e e15e 66bd 1ea3 45be b66a 2e3d
00000150: 3273 8d3d 91bb a4bd 51e7 6fbb d4a1 a23d
00000160: 1998 e8bd 8a37 acbd 71ad 17bd bbdc 03be
00000170: b5df ef3d 6977 353c bf61 fd3d 8bb5 e93d
00000180: 0a2d 19be 0f80 f4bd fde5 febd 03f3 a5bd
00000190: 2cc0 91bd a667 25bd a763 47be 82f4 a53d
000001a0: ac57 e13d c813 5d3d 5854 e73d 30ff 0d3e
000001b0: e993 33be e296 193d 7ef8 383e 6a09 0ebe
000001c0: 07b2 97bd 0205 01bc 58a3 f7bd 15c8 0fbd
000001d0: 0407 83bc 1c62 353e c6ff 35bc 8b6a ce3d
000001e0: 4ced 0a3e d548 bb3d 0e07 2dbe 8990 133e
000001f0: 88b4 013e 536d 02be 2d6a 87bd 6986 fe3d
00000200: 17f5 4abe 9afd 31be 8de8 07be c2c6 4a3d
00000210: 6a06 a0bd 86f8 35be b337 9e3d 1518 e23d
00000220: 67ea 433d 7c4a 3ebe c139 293e d41f b0bc
00000230: 9049 2abe b08a 1cbd 2f1a 0b3e e54b d53d
00000240: fede 6d3c 3ea1 d63d 78f9 4ebe cc8b e43d
00000250: 4c82 313e 96cd f1bd a0b7 293d f161 a2bc
00000260: 3ac3 1cbe f245 6b3c 7136 bbbd 797d 3dbe
00000270: caaf 1ebe 5083 35bb eaa3 423e f424 993d
00000280: db32 e0bd 5982 173e f82c 263d c655 3abe
00000290: 5559 4e3c 5d92 093e 908c d8bd 1822 fabb
000002a0: a072 93bd b433 f7bd 66aa 9bbd 39fa 263d
000002b0: 61a2 013e a2ad 15bd fc95 2bbe 82f2 52bb
000002c0: 7864 35be edb1 9a3c 3af0 1d3e 34a1 c33d
000002d0: aee8 e4bd 1132 6abd b094 763d a4c7 2b3d
000002e0: fcdf 4bbe 64d6 0dbe 1ce8 9ebd 863e 813d
000002f0: 4431 283e b036 ac3d cff5 893d db91 32be
00000300: d410 f63d c4ba 833d 663e 70bd 99f3 c5bd
00000310: ca47 513d b250 cdbd 1a7f a33d 0e41 193e
00000320: ae29 01be b8b8 f1bd 7e83 99bd e5fe 17be
00000330: c4fd b3bc ed94 f73d 3cbd ad3d 79ed 72bd
00000340: c0d3 9bbc 458f abbd a363 1ebe 8ed2 45bd
00000350: c8a0 cf3c 3a76 cfbd 5f14 15be a7d3 833d
00000360: 8b50 cc3c 8117 a1bd 7cda ea3c 50f9 2c3e
00000370: 3bee 0dbc 97cb 1ebe 5750 3d3e b3d7 183e
00000380: 4299 2dbc e554 c8bd cc4b bdbd a6a2 253e
00000390: 6139 ad3d bb28 f1bd e648 6cbc 9441 333d
000003a0: 1ba7 673d fa24 9dbc fe2a babd ce38 2d3c
000003b0: ece0 03bd 4e03 88bd 8cdc bbbd 7e97 b3bd
000003c0: ecb6 9fbd 51ec c63d 6a86 16be f3d1 2cbe
000003d0: cd7f 2d3e 8fa6 893d 00cd ad3d 116d 923d
000003e0: c73e c6bd ca80 e2bd 7f80 d8bd fe24 bcbc
000003f0: 6502 883d 0901 27be d83f 0cbe c1ff b93d
0.037968617 -0.026297504 0.06845062 -0.009896904 0.0838658 0.031121226 -0.04670957 -0.1583507
0.035893146 -0.17409465 0.045704067 0.025062947 -0.035333388 0.16666587 0.00029257534 0.05224429
0.07795969 -0.12499224 -0.07186781 0.20156015 -0.1852781 -0.0008241953 -0.009276789 0.1194261
-0.034938868 0.05281794 -0.009067656 -0.0904055 -0.106195375 -0.10519073 -0.17288563 -0.1203824
0.05356891 0.12599207 -0.002145801 -0.084014006 0.09301715 -0.07428648 -0.05581516 -0.110325515
-0.05706598 -0.16976659 0.071392715 0.06011025 0.039164454 0.10518481 0.084571674 0.00089588057
0.018604029 0.02377139 0.117768824 0.12328042 0.12908536 0.11893291 -0.050752588 -0.0053898613
-0.036607727 0.11498507 0.019531855 0.17742206 0.085206695 -0.16058668 0.045123685 0.19131328
0.18173455 0.005338964 0.058662128 -0.18701641 -0.06701207 0.059036784 -0.1866522 0.15123984
-0.1236956 0.07147184 0.007683239 0.04074218 0.026312895 -0.16515476 -0.06202101 -0.11515978
0.1689732 -0.056242827 -0.19300506 0.042582236 0.069067374 -0.08043588 -0.0036606381 0.079410225
-0.11357135 -0.08409031 -0.03703064 -0.1287717 0.117125906 0.011075833 0.12372159 0.1141158
-0.14958587 -0.11938488 -0.124462105 -0.081029914 -0.07116732 -0.04038205 -0.19471608 0.08103277
0.1100305 0.053973943 0.11295384 0.13866878 -0.17536892 0.03749741 0.18063542 -0.13870779
-0.07407003 -0.007874729 -0.12091702 -0.035102922 -0.015994556 0.17713207 -0.011108344 0.10078915
0.13567084 0.09144751 -0.16897222 0.14410605 0.12666523 -0.12737016 -0.06612048 0.124279805
-0.19820057 -0.17381898 -0.13272305 0.049505956 -0.078137234 -0.17770585 0.077254675 0.110397495
0.047830965 -0.18583101 0.16525938 -0.021499552 -0.16629624 -0.0382182 0.13584207 0.10414866
0.0145184975 0.10479973 -0.20212352 0.11159477 0.1733486 -0.118067905 0.041434884 -0.019822093
-0.15308848 0.014359938 -0.09141243 -0.18504895 -0.15496746 -0.0027696677 0.19007841 0.074777514
-0.109472 0.14795817 0.04057023 -0.18196782 0.012594541 0.1343474 -0.10573685 -0.007633459
-0.07199597 -0.120704085 -0.0760086 0.040765975 0.12659599 -0.036542542 -0.16756433 -0.0032188003
-0.17714107 0.01888367 0.1542367 0.095522314 -0.11177193 -0.057176653 0.060200393 0.04193844
-0.19909662 -0.13851315 -0.07759115 0.063107535 0.16425043 0.08408868 0.067363374 -0.17438452
0.120149285 0.06432107 -0.058653258 -0.09665603 0.051093854 -0.10025157 0.07983227 0.14966223
-0.12613556 -0.118028104 -0.07495783 -0.14843328 -0.02197159 0.12088952 0.08483359 -0.059308503
-0.019021869 -0.08376936 -0.15467696 -0.048296504 0.025345221 -0.10129972 -0.14558552 0.06436854
0.02494075 -0.07865811 0.028668635 0.1689198 -0.008662756 -0.15507351 0.18487678 0.14926033
-0.010595622 -0.09781817 -0.09242973 0.16175327 0.0845821 -0.11775347 -0.014421677 0.043763712
0.05655585 -0.01918267 -0.09090231 0.010572625 -0.032196924 -0.06641255 -0.09172925 -0.08769129
-0.077985615 0.097130425 -0.14699712 -0.16876964 0.16943283 0.06721222 0.08486366 0.07149709
-0.096799426 -0.11059721 -0.10571384 -0.022966858 0.06641082 -0.16308989 -0.1369623 0.09081984

bias f4 [16]
00000000: 2aa4 043e f884 f2bc 8d47 75bd 92b7 1d3e
00000010: 0ca3 9d3d ec03 2fbe ee43 18be 38d3 40be
00000020: 521b a6bd 346a 03bd c865 903d d51c e73d
00000030: dcbb 2fbe bc18 c93d 432e 893d 9555 813d
0.12953249 -0.02960442 -0.05988269 0.15402058 0.07697114 -0.1709134 -0.14869663 -0.18830574
-0.0811068 -0.032083705 0.07050663 0.11284796 -0.17161506 0.09819171 0.06698277 0.063151516

weight f4 [16]
00000000: c95a 803f bcba 7e3f f976 803f 3869 803f
00000010: 6b05 803f 1303 7d3f 6604 803f 66de 7f3f
00000020: ed5b 7d3f 16a5 803f fc20 803f d24b 813f
00000030: ed90 7b3f 71c8 813f 5543 803f 421e 803f
1.0027705 0.99503684 1.0036308 1.003211 1.0001653 0.98832816 1.0001342 0.9994873
0.9896839 1.005038 1.0010066 1.0101264 0.98268014 1.0139295 1.0020548 1.0009234

bias f4 [16]
00000000: 759c 2ebb 0154 4cbb 820b b7ba 6ee6 8a3b
00000010: f067 c7bb b33d 68bc bc26 cb3c a04b 43bc
00000020: 57c4 33bc 308c dd3b 4859 263c c4fd d4bb
00000030: be77 763c 9d5c 823b 24f7 283c e983 973c
-0.0026643549 -0.0031178 -0.0013965222 0.004238895 -0.0060853884 -0.0141748665 0.024798743 -0.011919886
-0.010972104 0.0067610964 0.010153122 -0.006499978 0.015043197 0.0039783255 0.010312829 0.018495517

running_mean f4 [16]
00000000: 0000 0000 0000 0000 0000 0000 0000 0000
00000010: 0000 0000 0000 0000 0000 0000 0000 0000
00000020: 0000 0000 0000 0000 0000 0000 0000 0000
00000030: 0000 0000 0000 0000 0000 0000 0000 0000
0.0 0.0 0.0 0.0 0.0 0.0 0.0 0.0
0.0 0.0 0.0 0.0 0.0 0.0 0.0 0.0

running_var f4 [16]
00000000: 0000 803f 0000 803f 0000 803f 0000 803f
00000010: 0000 803f 0000 803f 0000 803f 0000 803f
00000020: 0000 803f 0000 803f 0000 803f 0000 803f
00000030: 0000 803f 0000 803f 0000 803f 0000 803f
1.0 1.0 1.0 1.0 1.0 1.0 1.0 1.0
1.0 1.0 1.0 1.0 1.0 1.0 1.0 1.0

weight f4 [32, 16, 3, 3]
00000000: 2e1d 78bd b19d 7cbd 388f 98bc 3b65 273d
00000010: 6c40 1ebc aa6f 793b 8940 333c 70bf a73b
00000020: f387 acbc 4b14 9fbb ad37 01bd 1646 9c3d
00000030: adc2 633c 152f be3c 8fb8 67bd 1cf8 04bc
00000040: c4ff df3b df06 a1bd 6410 4dbb 726b 4bbd
00000050: 00a3 e5bc 8e42 553b 8e18 9ebd 3968 2a3d
00000060: ce3d 283d 93b8 a2bd e135 37bc 2eb4 13bd
00000070: c648 9fbd b06f 35bc 0644 733d 1bcc 123c
00000080: bf1f eabb ee23 a83d 1b9a 693b e8b3 5d3d
00000090: aa49 77bd a6cc 393d 4c29 8a3d f6e4 0f3d
000000a0: 813e e1bc 0645 573d aeec 1bbd c045 3b3c
000000b0: 7f95 d0bd e2f0 71bd 0c6a cabd e7e8 29bd
000000c0: d5ac 11bd 03f6 a3bd 5f76 40bd 4c75 23bd
000000d0: b479 d03c 7e30 b53d 19f9 443d 77a9 02bd
000000e0: 38e9 1fbd cd87 2c3d 0a7c 6ebd 6f6b 86bd
000000f0: a2b8 1cbd 095d 5b3d 1940 633d 557d 6ebd
00000100: 5630 ac3d f2bf 1ebd 32d9 e9bc b82d a5bd
00000110: e12d a53d fb8b 883d ebef 6b3d 112a 803c
00000120: 253e cdbc ac56 273d 8636 64bc 53f6 91bd
00000130: 5652 f4bc 4be6 573d 659a 79bd 1476 9ebd
00000140: f563 b03d b46c 7cbd f799 3dba dc1a ac3d
00000150: e018 a03c 07cd c6bc 02ba c4b7 da76 8c3d
00000160: a9b4 8cbd 6812 f93c 023f b5bc 16a5 5abd
00000170: 0df9 ef3b 0ac0 643d 5e6a 99bd 2516 8fbb
00000180: f7c5 adbc d0f8 d93c 445b 883c 32b9 5d3d
00000190: f77d 563d a669 443d 46b7 3dbd 49e5 36bb
000001a0: 8e3b 883d 8960 3c3d 3537 90bd 2c2b ae3c
000001b0: d637 cf3c 5d79 023d 5117 87bc d10b f8bc
000001c0: 4871 553d 74cf 7abd 38ce 583d a77a bbbd
000001d0: 4033 a8bd 4261 c43b 0d44 8b3b 605a 843c
000001e0: 4c9c 54bd e84d 013c 7e9d 83bd e879 483d
000001f0: 3d92 153d 3c13 febc 2164 433c 7f9c 1a3d
00000200: 78c8 6abc 33aa d63c da0a 76bd 13b4 b13c
00000210: f21e 7c3d 1a8c 6e3c 518e 90bd bc9b 4db9
00000220: a987 343d 62a7 81bd 6b64 f43c 82c2 4bbd
00000230: 12a1 bebc 3dc3 79bd 7e8b 4a3c 6896 6a3d
00000240: a6f2 85bd 7279 553d fc02 1c3d 6546 8b3c
00000250: 8057 703d 80d1 e73c cbab 8a3a 0f4a 453d
00000260: ad5e 35bc c476 763d bd1b a2bb 82ab 9a3d
00000270: 967c 183c 07fa 30bd d8d7 c7bc dfa6 89bd
00000280: 5c75 15bd b489 d93a cd0b 9ebd 38ba 8fbd
00000290: 694c 703c dc59 873c f86b 16bd 08d9 ad3d
000002a0: 0ac0 22bd 43a8 65bd 40aa f03c 267b 1a3d
000002b0: e948 55bd d219 ac3a 8a5e 123d 968d 153d
000002c0: 3f9a 20bb 7a4a a7bd f0ae 8cbd d8f2 7a3d
000002d0: f27c 473d 77c8 9e3d 1977 0d3d 2a39 e63c
000002e0: 6c19 b5bc 0e6a 723c 1b63 153d 4dd8 38bd
000002f0: 36e1 a4bb c6f9 9cbd a976 ca3c 3690 a7bc
00000300: a37a 85bd d8cf 283d 4566 83bc 8169 7ebd
00000310: 3f54 84bc 5eed 94bd a09a 2c3c 3ef5 d03c
00000320: 1483 dfbb 3b72 0c3c c124 8bbc 3292 273d
00000330: e516 8a3d 10cd 2837 fbf5 a8bd c4f0 213d
00000340: 9f5d fc3c 8c95 1e3d e4f5 fabc c5a2 043d
00000350: c4b0 623d d4f2 643d d0b8 88bd 5f1d 7d3a
00000360: 681c 86bd 7ffc 8cbd a4ab 40bd 46e9 083d
00000370: cd3b 493d 09e0 77bd 16c7 a1bc 881b fd3c
00000380: b533 173d 22d5 483d ba32 583d 1c50 0a3d
00000390: faac 54bd b83d c13c c4d9 96bb 04b5 98bd
000003a0: 947a 553d 90f6 343d bad8 4bbd 53d4 69bc
000003b0: a825 113d 2843 e93c fe20 953d da95 a3bd
000003c0: b6b0 a6bb 6d97 9dbd 294e 953d 523d 2dbd
000003d0: fc4c 063d 60fd 193d 6dde f6bc 903c 51bd
000003e0: 354a 913d cfe4 833d 622b b7bc a246 98bc
000003f0: 0925 a93d 3fcc 803b fa11 80bd ae5f 583d
-0.060574703 -0.061673824 -0.01862298 0.040868025 -0.009658914 0.0038060942 0.010940679 0.0051192567
-0.02106092 -0.004854714 -0.031547237 0.07630555 0.013901395 0.02321581 -0.056572493 -0.0081157945
0.0068359096 -0.07862639 -0.0031290287 -0.049663015 -0.028031826 0.003254089 -0.07719527 0.0416033
0.041074567 -0.07945361 -0.011182279 -0.036060505 -0.07777552 -0.011073992 0.059391044 0.008959795
-0.0071448977 0.08209978 0.0035644833 0.05412665 -0.060372986 0.045361184 0.06746158 0.035130464
-0.027495624 0.05255606 -0.038067512 0.011430204 -0.10184764 -0.059067614 -0.09883508 -0.04148188
-0.035565216 -0.080059074 -0.046987887 -0.039906785 0.025448658 0.0884714 0.04808912 -0.031899896
-0.039040774 0.042121697 -0.05822376 -0.0656346 -0.038262017 0.053555522 0.05548105 -0.058224995
0.08407657 -0.038757272 -0.02854595 -0.08065361 0.08065391 0.06667324 0.05760185 0.015645059
-0.025054047 0.04085414 -0.013929015 -0.07127061 -0.029824417 0.05270986 -0.060938258 -0.07737365
0.08612815 -0.061627105 -0.00072327204 0.084035605 0.019543111 -0.024267687 -2.3451637e-05 0.06858607
-0.06870396 0.030404285 -0.022124771 -0.053380094 0.0073233903 0.055847205 -0.07490991 -0.0043666535
-0.021212561 0.0266079 0.016645081 0.054131694 0.052366223 0.047952317 -0.04631736 -0.002790766
0.06651984 0.0459905 -0.0704178 0.02126082 0.02529518 0.031854022 -0.01649061 -0.030279072
0.052109987 -0.061233 0.05293104 -0.091542535 -0.082129 0.0059930393 0.0042500556 0.016156375
-0.05190687 0.007892109 -0.064265236 0.048944384 0.036516417 -0.031015031 0.011925728 0.037746903
-0.014330022 0.026204204 -0.060068943 0.021692311 0.06155295 0.01455977 -0.07058395 -0.00019608339
0.044074688 -0.06330754 0.02983304 -0.049746044 -0.023270164 -0.06097721 0.012362359 0.057272345
-0.06540422 0.052117772 0.038088784 0.01700134 0.058677197 0.02829814 0.0010579763 0.04816633
-0.011069936 0.060171857 -0.0049471543 0.07552244 0.009307047 -0.043207195 -0.024394915 -0.06721281
-0.036488876 0.0016596825 -0.077170946 -0.0701794 0.014666655 0.01652234 -0.03672406 0.08488661
-0.039733924 -0.05606867 0.029378057 0.0377151 -0.052071486 0.0013130254 0.03573469 0.03651198
-0.0024506 -0.08168502 -0.06869304 0.06126675 0.04870314 0.077530794 0.03453741 0.02810343
-0.022106849 0.014795793 0.036471467 -0.045128155 -0.00503173 -0.07664828 0.024714785 -0.020454507
-0.06517532 0.04121384 -0.016039977 -0.062112335 -0.016153453 -0.07271837 0.010534912 0.025507566
-0.0068210457 0.008572157 -0.016985299 0.040910907 0.06742648 1.0061325e-05 -0.08250042 0.039536253
0.03080636 0.038716838 -0.030634828 0.03238179 0.055344358 0.05589564 -0.06675875 0.0009655561
-0.06548387 -0.06884097 -0.04703869 0.033425592 0.049129296 -0.06051639 -0.019748252 0.030896917
0.036914546 0.049031384 0.05278275 0.033767805 -0.051922776 0.023589 -0.0046035964 -0.07456401
0.052118853 0.044180453 -0.049767233 -0.014271813 0.035436302 0.028474405 0.072816834 -0.07987566
-0.0050869836 -0.07694898 0.072902985 -0.042294808 0.03278826 0.037595153 -0.030135358 -0.051083148
0.07094232 0.06440126 -0.022359554 -0.018588368 0.08259017 0.003930598 -0.06253429 0.052825622

bias f4 [32]
00000000: 0660 893d 7e4e 013d e6b1 a5bd 88a3 d4bb
00000010: 542f a4bd 16ce 6f3d 33ac cf3c 3c2d 7b3d
00000020: 08f2 5ebc 6c38 ae3c ca84 73bd 8617 89bd
00000030: 471f a03d b8cf cc3c c294 31bd ebc0 a0bc
00000040: 4c95 aeb9 6aab ec38 2f98 36bd 36d1 a9bc
00000050: 5025 11bd d8d0 33bd 9471 97bd 8f3f 713d
00000060: 678a 7ebc 98b5 2e3d 291f 8a3c f42a 533d
00000070: 5f66 a73d f0be 8cbb 5e78 0cbd 67d7 bd3c
0.06707768 0.031568997 -0.08090572 -0.006489221 -0.080168396 0.05854615 0.025350666 0.061322436
-0.013607509 0.021267138 -0.05945281 -0.0669394 0.07818466 0.025001392 -0.043354757 -0.01962324
-0.000332991 0.00011285285 -0.044578727 -0.020729642 -0.035435975 -0.04390034 -0.0739471 0.058898505
-0.015535927 0.04265365 0.016860561 0.051554635 0.081738226 -0.0042952225 -0.03429448 0.023174

weight f4 [32]
00000000: 46e6 803f 7a5d 7f3f a0ab 803f 8415 823f
00000010: 75e3 7e3f 4bf3 7e3f bf9e 7d3f d196 813f
00000020: 2b02 7e3f d6ac 7f3f 64f1 813f a33e 7f3f
00000030: 617e 7d3f 1924 813f c517 803f fbb8 803f
00000040: 6e6d 823f 6751 7e3f afd2 7f3f 1c5e 7e3f
00000050: ff39 813f 8af1 803f d254 803f 16a8 7b3f
00000060: 4ea9 803f d08e 7e3f bf97 7e3f 2cfa 7b3f
00000070: 9315 7e3f cab4 7d3f 636e 7f3f e02a 803f
1.0070274 0.9975201 1.0052376 1.0162816 0.9956582 0.99589986 0.9907035 1.012415
0.9922206 0.998731 1.0151792 0.9970495 0.99020964 1.0089141 1.0007254 1.0056452
1.0189645 0.9934296 0.9993085 0.9936235 1.0095824 1.0073712 1.0025885 0.98303354
1.0051668 0.99436665 0.99450296 0.98428607 0.9925167 0.9910399 0.9977781 1.0013084

bias f4 [32]
00000000: 1de6 9a3b 46b8 5cbb 5373 36bc 0322 8cbb
00000010: 1990 88bb d03a d2bb bdd3 7bbb e8ef edbb
00000020: 4d6e dfbb c5ae 96bb d93c 9bbb 1358 d9bb
00000030: 399b 96ba e90e c9bb d547 8fba b3ac 46bb
00000040: e9a8 b3bb d8d0 0cbc ba48 80bb 6407 afbb
00000050: 0ab9 4cbc 5cb0 9eba fa1d 993a 790f 95ba
00000060: 0351 9fbb d7b1 6abb 25c7 cabb 27f6 cbbb
00000070: 1754 e9bb 7e0b 58bb ebfd 9cbb 769f 7e3b
0.0047271387 -0.0033679171 -0.011135894 -0.0042765155 -0.0041675684 -0.0064157024 -0.0038425766 -0.007261265
-0.006818569 -0.004598471 -0.004737478 -0.0066328137 -0.0011490352 -0.0061358106 -0.0010931442 -0.003031534
-0.005482782 -0.008594714 -0.0039149197 -0.005341457 -0.012495289 -0.0012107003 0.0011681907 -0.0011372409
-0.0048619523 -0.0035811567 -0.0061882907 -0.006224412 -0.00712062 -0.0032965834 -0.0047910116 0.003885237

running_mean f4 [32]
00000000: 0000 0000 0000 0000 0000 0000 0000 0000
00000010: 0000 0000 0000 0000 0000 0000 0000 0000
00000020: 0000 0000 0000 0000 0000 0000 0000 0000
00000030: 0000 0000 0000 0000 0000 0000 0000 0000
00000040: 0000 0000 0000 0000 0000 0000 0000 0000
00000050: 0000 0000 0000 0000 0000 0000 0000 0000
00000060: 0000 0000 0000 0000 0000 0000 0000 0000
00000070: 0000 0000 0000 0000 0000 0000 0000 0000
0.0 0.0 0.0 0.0 0.0 0.0 0.0 0.0
0.0 0.0 0.0 0.0 0.0 0.0 0.0 0.0
0.0 0.0 0.0 0.0 0.0 0.0 0.0 0.0
0.0 0.0 0.0 0.0 0.0 0.0 0.0 0.0

running_var f4 [32]
00000000: 0000 803f 0000 803f 0000 803f 0000 803f
00000010: 0000 803f 0000 803f 0000 803f 0000 803f
00000020: 0000 803f 0000 803f 0000 803f 0000 803f
00000030: 0000 803f 0000 803f 0000 803f 0000 803f
00000040: 0000 803f 0000 803f 0000 803f 0000 803f
00000050: 0000 803f 0000 803f 0000 803f 0000 803f
00000060: 0000 803f 0000 803f 0000 803f 0000 803f
00000070: 0000 803f 0000 803f 0000 803f 0000 803f
1.0 1.0 1.0 1.0 1.0 1.0 1.0 1.0
1.0 1.0 1.0 1.0 1.0 1.0 1.0 1.0
1.0 1.0 1.0 1.0 1.0 1.0 1.0 1.0
1.0 1.0 1.0 1.0 1.0 1.0 1.0 1.0

weight f4 [64, 32, 3, 3]
00000000: ebe6 0cbd 12eb bbbc 1975 6fbb 7206 3cbd
00000010: c220 1ebd b076 693b 086b 1cbb 47c0 a93b
00000020: 1ec8 59bd f9ad 063d c3ea 1fbd 98a1 a43c
00000030: 4440 bd3c 36b6 133d 984d 183d c26c 523d
00000040: 09c5 5d3c 2b69 9b3b bda3 2cbd a088 563c
00000050: 3442 43bd e710 d93c a5fc 47bc 1d74 e7bc
00000060: 4ad4 373c ce63 2bbd 5397 1c3d a5ca 23bd
00000070: b4a1 06bd 0e41 643c db2e c8bc 3aa5 c33c
00000080: 085d 343c 8137 013d cc93 933c 707d 4ebd
00000090: 76b1 02bd b032 29bd 4758 6c3d 1b42 20bc
000000a0: b244 ad3b adc0 22bd cfb2 dabc 6021 193d
000000b0: db36 4cbc 4294 ac3c 9ba0 423d e2ff 9b3c
000000c0: 573c 8dbc 0a95 473d 5e2f 023b b562 3d3d
000000d0: 5495 8abc 1aa7 c2bc b7b3 bb3c 7ca6 15bd
000000e0: 5126 e73c 2390 96bc bb5d 9fbc 0ef0 30bb
000000f0: 5e2f d5bb 33d5 3d3d 6b8d 13bd af85 f43c
00000100: 7ae2 17bb cb57 d53c e88b c93a 80a1 7b3d
00000110: baa7 25bd cbae 86bc 6deb 183c d1cf e13c
00000120: 8632 48bd a58b 1d3c eb90 dc3c d60f e2bb
00000130: 7cab b9bb 18a6 213d a059 3d3c 1e86 2ebc
00000140: 00c1 ab3b 253f 67bd 3322 1d3d 4b72 3abd
00000150: 302e ff3c 6367 29bc 7ab3 15bd 4420 4b3d
00000160: 4e46 663c 4ee4 1f3c bbeb ebba 2386 39bd
00000170: b0c1 cd3c 8896 bbbc 7128 efbc 872c b93c
00000180: 8da3 d73c 69ca 46bd 6f97 00bd b4c6 233d
00000190: 93ea e8bc 68ec 1fbd 244c bf3c fa93 003c
000001a0: c521 f6bc c7b8 05bd df35 22bd 38ed 513c
000001b0: a709 2f3d 06c6 21bd da2b 87bc d63d 64bd
000001c0: 93a1 183d d12a 8bbc c207 5a3d 1799 adbb
000001d0: 346a b9bc 182f 73bd 11c2 b3bc 37b3 35bd
000001e0: 3d29 33bd f18e 0cbd d2f0 a53c faa2 6b3c
000001f0: 3b96 4cbb 63e6 e33b 8090 023d 1360 e13c
00000200: bfc5 4a3d ff1e 78bc d3ab 7e3d 7139 703c
00000210: 3822 caba 8c6b 57bd c0a7 78bc 2156 5d3b
00000220: e310 123d a154 81bb 0aa3 57bd 61ac b93c
00000230: 3911 4ebd 8810 37bd e2ea 3f3d a3b0 c03c
00000240: 867e 0b3d da3b 633d dcd7 56bd 2460 ca3b
00000250: f825 133d 9407 c83c 6b28 38bd b40e 113d
00000260: 11f7 5e3c bb2e 2b3c 88e1 a3bc 4ba1 a6bc
00000270: 5f23 e03a 0d66 2fbd 74f6 edbc 2ebb 0abb
00000280: 6dad 1bbc 50df 6abd d897 f43c 8fe0 20bc
00000290: a533 1cbd 3852 053d cc00 533d a3a3 c4bc
000002a0: 6ad0 29bd 2332 e1bc 867a 5a3d ef1e 59bb
000002b0: 0a2c 673d caaa fdbc 3ce6 42bd 70f1 13bc
000002c0: 9a63 26bd e92a fbbc a74e 69bb cac5 013b
000002d0: 1292 e7bc c5d5 853d 54d1 d13c ea11 a03c
000002e0: 05f1 88bc 0597 86bc cad6 7f3d 573f 563c
000002f0: bdce a2bc c0bd fb3c 05cd 383d f249 2b3d
00000300: 104e 82bb fcea 1dbd 46cf 783d d80d 4e3d
00000310: 8a43 c3bc 0c56 64bd 28d3 dabc 7109 763d
00000320: 394d 923c 1e7f 093d 3ef5 6a3a eeec ef3c
00000330: d490 62bd 9475 86bc dde1 9dbc f669 3c3c
00000340: 8bb8 4fbd fc84 1c3d 4d74 d8bc 2d09 4bbc
00000350: 925d 18bd 1703 f4bc 7c5b 0fbc c6be 473d
00000360: 9538 e73c 8d3e 0c3d 0aa8 84bc 9dff 21bc
00000370: d527 c2bc 08cf 80bc 2cd9 30bd 3697 39bd
00000380: b02f 123d a40a ecbc 22b2 67bd da14 91bc
00000390: 5029 c83c b4ee c6bc 4553 12bd c3f9 e1bb
000003a0: 39c3 783c bcb4 d23c 4afb 4f3d c04e 163c
000003b0: d561 343d 366b 0f3d fc31 15bd ea9e 333c
000003c0: 8fa6 50bd 63ea a2bc d7f5 7a3b cb22 e93c
000003d0: dfd6 66bd 300b 603d c0d0 d2bb 2f79 68bc
000003e0: 90fe 473c c05b 273d 6d6b 5dbc 50ce 1c3d
000003f0: 7f90 a9bc acb3 5cbd 1bca 0f3c 2bc0 23bd
-0.034399908 -0.022939239 -0.0036538302 -0.045904584 -0.03860546 0.0035623722 -0.0023867507 0.005180392
-0.053169362 0.032880757 -0.039042246 0.020096585 0.023101933 0.03606244 0.037183374 0.05137325
0.013535746 0.0047427616 -0.04214834 0.013094097 -0.047670558 0.026497317 -0.012206231 -0.02825361
0.011220047 -0.041843228 0.03823025 -0.03998818 -0.032869056 0.013931526 -0.024436405 0.023882497
0.0110085085 0.031547073 0.018014811 -0.050412595 -0.03190752 -0.041308105 0.057701375 -0.009781386
0.00528773 -0.03973453 -0.02669659 0.037385345 -0.01246425 0.021066789 0.047516447 0.019042913
-0.017240686 0.04872612 0.0019864659 0.046236712 -0.016916908 -0.02376132 0.022912843 -0.036535725
0.028216513 -0.018379277 -0.019453874 -0.0026998552 -0.0065058907 0.0463459 -0.03602354 0.029848902
-0.0023175762 0.02604284 0.0015376778 0.061433315 -0.04044316 -0.01644077 0.009333474 0.027564915
-0.048876308 0.009615813 0.026924571 -0.0068988604 -0.0056661945 0.03946504 0.011557013 -0.010652093
0.0052415133 -0.056456704 0.038362693 -0.045519155 0.031149954 -0.010339591 -0.036548115 0.049591318
0.014054848 0.009759022 -0.001799933 -0.04529394 0.025116771 -0.022898927 -0.029194089 0.02260424
0.026323104 -0.048532877 -0.03139442 0.03998442 -0.028432166 -0.039043814 0.023351736 0.00784778
-0.0300454 -0.03264692 -0.039602157 0.012812905 0.042733815 -0.03949549 -0.016500402 -0.055723034
0.037263464 -0.01698819 0.053230055 -0.0052977907 -0.02263365 -0.059371084 -0.021943124 -0.044360366
-0.0437405 -0.034316007 0.020256434 0.014382118 -0.0031217474 0.0069549545 0.031876087 0.027511632
0.04950499 -0.015144109 0.062175583 0.014662133 -0.0015421575 -0.0525928 -0.0151767135 0.003377326
0.035660636 -0.003946856 -0.05264572 0.022665204 -0.050309394 -0.0446935 0.04685486 0.023521727
0.03405621 0.055477 -0.052451953 0.0061760116 0.03592488 0.024417676 -0.04496042 0.035414413
0.01360871 0.010448153 -0.020005003 -0.020340582 0.0017100385 -0.042821933 -0.029048182 -0.0021168697
-0.009501797 -0.057341874 0.029857561 -0.009819164 -0.03813519 0.032549113 0.05151443 -0.02400381
-0.041458525 -0.027489727 0.053339504 -0.003313001 0.056438483 -0.030965228 -0.04758285 -0.009029731
-0.04062233 -0.03066011 -0.003559986 0.001980173 -0.028267894 0.06534914 0.02561251 0.019539792
-0.01671649 -0.016429434 0.0624607 0.013076625 -0.019873971 0.030730128 0.045117397 0.041818567
-0.003976591 -0.038554177 0.060744546 0.05030617 -0.023835916 -0.055746123 -0.026712015 0.060067598
0.017859088 0.033568494 0.00089629355 0.029287782 -0.0553139 -0.016413487 -0.019272739 0.011499872
-0.050713103 0.03821276 -0.026422644 -0.012392324 -0.03719861 -0.02978663 -0.008749839 0.04876592
0.028225223 0.03423934 -0.016193409 -0.009887603 -0.023700634 -0.01572372 -0.04317586 -0.04531022
0.03569001 -0.028813668 -0.056566365 -0.017710138 0.024433762 -0.024283744 -0.035723943 -0.006896229
0.015183263 0.025720946 0.050776757 0.009174049 0.044038612 0.035014354 -0.036424622 0.010963181
-0.050940093 -0.019887155 0.0038293505 0.028458973 -0.05635726 0.05469817 -0.0064335763 -0.014189049
0.0122066885 0.040858984 -0.013514382 0.038282692 -0.020698784 -0.053882286 0.008776213 -0.039978188

bias f4 [64]
00000000: a4ee 043c 16f8 213d 60a1 18bd 5f1b e3bc
00000010: 9a3b 463d 2421 08bd a5e0 05bd 5295 4d3d
00000020: 40c1 8ebc 761d 8dbc e825 d23c 545d bc3c
00000030: 08a3 5c3d 62da 37bd 145f c4bc 09f5 3e3d
00000040: d475 2e3d e37a 8f3c ca0a f33b 1e9b 463d
00000050: 52c1 56bd ee48 0e3d 80a9 68bd 2620 243d
00000060: e41a 62bd 7efe c3bc 9bfe e6bc da72 3ebc
00000070: 4bd1 4d3d 1d17 e23b 84b1 35bd a41a 153c
00000080: 7b8d 64bd a188 b3bb 9ca7 43bd 15d7 2f3d
00000090: 0c79 57bd 8005 43bb 5a96 2e3d 8e52 b03b
000000a0: bdf1 fdbb 65a0 b4bc 05c3 883c 9cb5 36bd
000000b0: 3f23 5d3d ccf2 2b3d d3ae c73c 9c68 0b3d
000000c0: e0b5 2dbd ae8b 803c e95a d3bb 0c65 b03b
000000d0: b5c8 043d 9d80 593d 974a f1bc 4970 cebb
000000e0: c677 64bd ce4d 163c d47f 073d a61f bb3c
000000f0: 0239 0fbc 50e2 a43c ace4 193d d806 833b
0.008113537 0.039543234 -0.037263274 -0.027723012 0.048396684 -0.03323473 -0.03268494 0.05019123
-0.017426133 -0.017225962 0.02565284 0.022993721 0.053866416 -0.044886 -0.023971118 0.046620402
0.04259284 0.017514652 0.0074170576 0.048487775 -0.05243046 0.03473752 -0.056802273 0.04006972
-0.055201426 -0.023925062 -0.028197577 -0.011624062 0.050248425 0.006899728 -0.044358745 0.00910059
-0.05579899 -0.005478934 -0.047767267 0.042929728 -0.052605674 -0.0029757917 0.042623855 0.005380935
-0.0077497647 -0.022049138 0.016694555 -0.04460679 0.05398869 0.041979596 0.024375355 0.03403531
-0.042409778 0.015691604 -0.0064500463 0.0053831395 0.03241797 0.05310117 -0.029454513 -0.0063000065
-0.055778287 0.0091738235 0.03308089 0.02284224 -0.008741619 0.020127445 0.037571594 0.0039986186

weight f4 [64]
00000000: 4a14 813f 85b2 803f 7a7b 803f 225d 803f
00000010: 5bac 823f 799f 803f e4dd 843f 6305 803f
00000020: 2202 823f 5b04 803f e654 863f 9bef 933f
00000030: 5b63 833f 43ef 7f3f b37d 853f b62f 813f
00000040: 5b8d 803f d6a0 803f 1e0b 803f a605 803f
00000050: ea75 803f 29bc 813f d477 813f 8153 813f
00000060: 4243 803f 1b6a 833f a608 803f fa1b 803f
00000070: ec00 803f 7a53 803f d7d0 853f bec9 803f
00000080: 48d5 813f 3d1d 803f c105 943f 80e6 7f3f
00000090: 4df2 7f3f 1145 813f 8a01 833f 33f1 7f3f
000000a0: 3956 803f 1237 803f 5a6b 8b3f 8a64 823f
000000b0: 7b35 823f ef63 803f 3307 803f 9612 803f
000000c0: 6e40 853f 6b07 803f b482 803f bf7e 803f
000000d0: 56f7 813f 95db 823f 0aed 813f 5df7 7f3f
000000e0: f50d 803f 5401 803f 6d61 803f 34e1 803f
000000f0: fc3f 813f e2f3 7f3f d2f7 7f3f 4b51 803f
1.0084317 1.005448 1.0037682 1.0028422 1.0208849 1.0048667 1.0380216 1.0001644
1.0156901 1.0001329 1.0494659 1.1557497 1.0264696 0.9997446 1.0428985 1.0092685
1.0043138 1.0049083 1.0003393 1.0001724 1.0035985 1.0135547 1.0114694 1.0103608
1.0020525 1.0266756 1.0002639 1.0008538 1.0000281 1.0025475 1.0454358 1.0061567
1.0143213 1.0008923 1.1564256 0.9996109 0.99979097 1.0099202 1.0234845 0.99977416
1.0026313 1.0016806 1.0892136 1.0186932 1.0172571 1.0030497 1.0002197 1.0005672
1.0410287 1.0002264 1.0039887 1.003868 1.0153606 1.0223261 1.0150464 0.9998682
1.0004259 1.0000405 1.0029732 1.0068727 1.0097651 0.9998151 0.9998752 1.0024809

bias f4 [64]
00000000: 200f 1b3a ea96 e9b9 c888 a6b9 e512 88b9
00000010: 47b4 1aba c2ec df3a 0c69 c73a 3084 b5b9
00000020: faa0 f33a 9c14 ff38 b314 703b b454 0a3c
00000030: 0cde 183b 2ea6 81ba 7c22 3bb8 f93a a7b9
00000040: 7f54 93b9 773e 2cba e54f ceb7 d400 f136
00000050: d23f 1c3a 1b4a 4f3b cfe9 c5b9 e11f a23a
00000060: e596 9838 608a 793b 7429 8a38 d486 9bb8
00000070: ef93 4aba 741a 0138 1cce c73b 0bce 1c3a
00000080: d38e a63a 66e6 98b9 b3c3 543c ae24 ceb9
00000090: 5298 0eb9 2c11 9439 2e77 f03a dd27 00ba
000000a0: f635 edb9 41b2 d735 d810 db3b dda9 763b
000000b0: dd78 2e3b b246 073a 3c4b b339 e6f4 04b9
000000c0: a215 7e3a fd4f 00b9 81a0 033a 1a0e 92ba
000000d0: dab3 f13a 0855 543b 7c05 d23a a57d c1b9
000000e0: 943d 9cb8 9a1e 28b7 4d1d 7a3a 787f dcb9
000000f0: a62e f1b9 d5df d3b9 3021 a339 c915 7b37
0.00059150346 -0.00044553663 -0.00031763897 -0.0002595402 -0.0005901497 0.0017084109 0.0015213802 -0.00034621498
0.0018587403 0.00012163186 0.0036633431 0.008443046 0.002332571 -0.0009891444 -4.461639e-05 -0.0003189666
-0.0002810098 -0.0006570587 -2.4594317e-05 7.182456e-06 0.00059604377 0.0031629864 -0.0003774897 0.001236912
7.276031e-05 0.0038076863 6.588074e-05 -7.41609e-05 -0.00077277323 3.0780633e-05 0.006097568 0.00059816305
0.001270736 -0.0002916336 0.012986111 -0.0003931871 -0.00013598919 0.00028241554 0.0018346065 -0.00048887526
-0.00045244367 1.6070627e-06 0.0066853575 0.0037637867 0.0026622333 0.0005160376 0.00034197595 -0.00012679733
0.00096925546 -0.00012236829 0.00050211704 -0.0011143119 0.0018440441 0.0032399315 0.0016023363 -0.0003690544
-7.4501295e-05 -1.0020705e-05 0.00095411093 -0.00042056642 -0.00046001858 -0.00040411824 0.0003111451 1.4965838e-05

running_mean f4 [64]
00000000: 0000 0000 0000 0000 0000 0000 0000 0000
00000010: 0000 0000 0000 0000 0000 0000 0000 0000
00000020: 0000 0000 0000 0000 0000 0000 0000 0000
00000030: 0000 0000 0000 0000 0000 0000 0000 0000
00000040: 0000 0000 0000 0000 0000 0000 0000 0000
00000050: 0000 0000 0000 0000 0000 0000 0000 0000
00000060: 0000 0000 0000 0000 0000 0000 0000 0000
00000070: 0000 0000 0000 0000 0000 0000 0000 0000
00000080: 0000 0000 0000 0000 0000 0000 0000 0000
00000090: 0000 0000 0000 0000 0000 0000 0000 0000
000000a0: 0000 0000 0000 0000 0000 0000 0000 0000
000000b0: 0000 0000 0000 0000 0000 0000 0000 0000
000000c0: 0000 0000 0000 0000 0000 0000 0000 0000
000000d0: 0000 0000 0000 0000 0000 0000 0000 0000
000000e0: 0000 0000 0000 0000 0000 0000 0000 0000
000000f0: 0000 0000 0000 0000 0000 0000 0000 0000
0.0 0.0 0.0 0.0 0.0 0.0 0.0 0.0
0.0 0.0 0.0 0.0 0.0 0.0 0.0 0.0
0.0 0.0 0.0 0.0 0.0 0.0 0.0 0.0
0.0 0.0 0.0 0.0 0.0 0.0 0.0 0.0
0.0 0.0 0.0 0.0 0.0 0.0 0.0 0.0
0.0 0.0 0.0 0.0 0.0 0.0 0.0 0.0
0.0 0.0 0.0 0.0 0.0 0.0 0.0 0.0
0.0 0.0 0.0 0.0 0.0 0.0 0.0 0.0

running_var f4 [64]
00000000: 0000 803f 0000 803f 0000 803f 0000 803f
00000010: 0000 803f 0000 803f 0000 803f 0000 803f
00000020: 0000 803f 0000 803f 0000 803f 0000 803f
00000030: 0000 803f 0000 803f 0000 803f 0000 803f
00000040: 0000 803f 0000 803f 0000 803f 0000 803f
00000050: 0000 803f 0000 803f 0000 803f 0000 803f
00000060: 0000 803f 0000 803f 0000 803f 0000 803f
00000070: 0000 803f 0000 803f 0000 803f 0000 803f
00000080: 0000 803f 0000 803f 0000 803f 0000 803f
00000090: 0000 803f 0000 803f 0000 803f 0000 803f
000000a0: 0000 803f 0000 803f 0000 803f 0000 803f
000000b0: 0000 803f 0000 803f 0000 803f 0000 803f
000000c0: 0000 803f 0000 803f 0000 803f 0000 803f
000000d0: 0000 803f 0000 803f 0000 803f 0000 803f
000000e0: 0000 803f 0000 803f 0000 803f 0000 803f
000000f0: 0000 803f 0000 803f 0000 803f 0000 803f
1.0 1.0 1.0 1.0 1.0 1.0 1.0 1.0
1.0 1.0 1.0 1.0 1.0 1.0 1.0 1.0
1.0 1.0 1.0 1.0 1.0 1.0 1.0 1.0
1.0 1.0 1.0 1.0 1.0 1.0 1.0 1.0
1.0 1.0 1.0 1.0 1.0 1.0 1.0 1.0
1.0 1.0 1.0 1.0 1.0 1.0 1.0 1.0
1.0 1.0 1.0 1.0 1.0 1.0 1.0 1.0
1.0 1.0 1.0 1.0 1.0 1.0 1.0 1.0

weight f4 [32, 64]
00000000: 4e46 50bd cecc abbd 6548 053d 5aae b63d
00000010: ce5e 82bd 6d16 b73d f875 cabd 8833 fe3b
00000020: 3691 d83d e7f5 9bbd 05a8 86b9 0d90 113b
00000030: b327 afbd bd39 9cbc 7315 4d3d 0ee2 eabc
00000040: 54c9 f6bd cd31 503d e5f5 3f3c 18ba c4bd
00000050: eae2 b83c e377 673d 97cf c3bd 369b b83d
00000060: 8e0a b0bd 3f26 513c 21e9 51bd 7895 ce3b
00000070: 2c0a 483d 18d1 dcbd ac14 92bc cb0c c03d
00000080: 7090 933c 14c1 f7bd e63f 95bd 9655 343d
00000090: f388 813b ab98 02be f88e b3bd 7437 83bd
000000a0: 32f8 84bd 8898 aa3d a1e6 e1bd 5bde 7c3b
000000b0: 3034 603d 99da a23d 6162 01bd 7db6 d23d
000000c0: f215 aabc c1ab 8abd 5e80 ff3d 8a9b cabb
000000d0: 0be8 8fbd 7764 793d 6066 a63d cd1a 953d
000000e0: 9eb7 dd3c ebac ae3d 1ee8 c7bd f065 cf3d
000000f0: a189 58bd 4d0a a13d 79b1 aabd 88aa a2bd
00000100: d73e ff3c bcca a63c 6a78 32bd 95a2 57bd
00000110: a67b b53d 822a 8c3d 3640 e1bd 8267 9f3d
00000120: f6ae eb3c e9e6 82bd 0e8c f7bd 4c51 debd
00000130: e924 fd3d e72a 213d 0de3 d03d 89d4 c0bb
00000140: 589f 73bd 1f3d 253d ad85 813d f67b b83d
00000150: 20d1 1abd 5411 bd3d 9a51 7dbd c269 f4bc
00000160: 3240 debd 190a f0bd 4af1 9ebc 7cdf 873d
00000170: 2b68 8cbd fc61 f2bc d845 c4bb 9119 3ebd
00000180: ad4b c5bd 7d31 f6bc 371f 8dbd 9e6f 693d
00000190: c9b8 9c3d 9064 d6bd 83bf ebbc b1ed ed3d
000001a0: bfa7 aabd 5675 853d 90aa 16bc 7f1e 32bd
000001b0: e1eb 7fbd d675 fb3c d5b8 753d 8572 083d
000001c0: 25de 5c3d f889 7e3c 03f0 96bd 96f0 ecbd
000001d0: 29dc cdbd a0bd 9ebd 1c9e 023b f4a2 c2bd
000001e0: 2fc6 d53d 2eee 0ebc 84e7 5a3d bed6 043d
000001f0: 5a01 3cbb fcd3 9b3d eceb bf3d ec7c db3d
00000200: 0b13 60ba c7cb 21bd 523c cebd 987d f8bb
00000210: 2f4d 5cbd 70ce 9bbd 98ec babb d065 88bd
00000220: 4936 1fbc 6949 ed3d 56b2 123e 93aa 21be
00000230: 0464 77bd c207 633c a2c3 9abd 9844 6d3d
00000240: 0f34 50bd 8eb7 613d 2866 34bd 0c32 5b3c
00000250: c016 babc 9a91 c6bd 203d ccbd 998b 8b3d
00000260: 1d08 76bd 3b5d 023e 3105 ef3d 3165 003e
00000270: 59c2 e7bc 6231 08be ffac ef3c dd96 8c3d
00000280: 2a86 86bd b672 653d cfc0 433e b664 72bd
00000290: 8df8 503c 7c37 d4bd caa6 bebd d0a1 803d
000002a0: 74a8 c1bd 285d b63d 9c4c 8f3d b3a8 b3bc
000002b0: 19b6 023e b452 0dbd 0e2e 5c3d d05a efbd
000002c0: a186 403a 3347 20bb 1609 a33d 6623 85bd
000002d0: 2c36 0c3e 62f6 e33c d838 873c 3866 83bc
000002e0: 4e65 25bd 684e f73c c898 85bd 08c6 48bd
000002f0: bed6 8bbd f709 dc3c 572d 833d 5aa4 28bd
00000300: 3c53 be3d 9507 80bd 3b3d 68bd 464d eb3c
00000310: e5c2 94bd 2427 8b3d c40e c93d c98d 23bd
00000320: b7a1 853b 16a8 86bd 7824 593c 59ea c2bd
00000330: 8738 473d bed9 aabd dd61 63bd 342d da3d
00000340: 4f16 d03d 1e49 573d 8905 f1bc 5b55 5bbc
00000350: f404 e8bd d9a1 333d 9684 a03c 4a8c 8ebd
00000360: 626e cd3a 76ce ffbd 2fa8 ecbd 16ce 79bd
00000370: cdce 13bc 7138 9abd de67 82bd 46c2 153d
00000380: d61f 11bc 280f af3d e51e 08bd 3071 823d
00000390: 13e9 f13d 8241 933c ba3c 8e3d f2ed c6bd
000003a0: 14a6 943d fc7b d33c 29cf 7a3d 06fe c5bd
000003b0: b283 df3c 6c4f e53c 78b4 debc da7e 8ebd
000003c0: 4c8e d43d 95c5 803d 6c97 cd3d 32be 8bbd
000003d0: d2d0 53bd 25c2 8e3c 9d87 a93c 4a91 f93d
000003e0: f03f f1bd 4cf0 62bd 239f de3c 2e7f 9a3d
000003f0: 1ac9 6d39 1d81 583c bedb cabd e7f8 ba3c
-0.050848298 -0.08388673 0.032539744 0.08919974 -0.06365739 0.08939824 -0.09885782 0.007757608
0.10574572 -0.076152615 -0.00025683656 0.0022211105 -0.08552494 -0.0190705 0.050069284 -0.028672244
-0.12050119 0.050828744 0.011716341 -0.09605807 0.022569139 0.056510817 -0.09561079 0.09013979
-0.08595763 0.012765466 -0.05124772 0.006304439 0.048837826 -0.10782069 -0.017832123 0.0937744
0.01801321 -0.120973736 -0.07287578 0.044026934 0.003953093 -0.1275355 -0.087675035 -0.06407061
-0.06492652 0.08329874 -0.11030317 0.0038584683 0.05473727 0.079518504 -0.031587962 0.10288713
-0.020762417 -0.06771041 0.12475656 -0.0061830925 -0.070266806 0.060886826 0.08124995 0.072805025
0.027065095 0.08529075 -0.0976107 0.10126865 -0.05286563 0.07863293 -0.083346315 -0.079426825
0.031157894 0.020360343 -0.043571867 -0.052645285 0.08861475 0.06844045 -0.109985754 0.077834144
0.028769951 -0.06391699 -0.1208726 -0.1085535 0.12360556 0.039347555 0.101995565 -0.005884711
-0.059478134 0.040341493 0.06324325 0.09008019 -0.037797093 0.09231821 -0.0618454 -0.029835586
-0.10852088 -0.11720676 -0.019402165 0.06634423 -0.06855806 -0.029587738 -0.0059897713 -0.0464111
-0.09633575 -0.030052895 -0.068907194 0.056991212 0.076524325 -0.104683995 -0.028777843 0.11617602
-0.08332776 0.06516521 -0.009195939 -0.043486115 -0.06248081 0.030695837 0.059990723 0.03331234
0.05392279 0.015535824 -0.07369997 -0.115693256 -0.10051758 -0.07751012 0.0019930666 -0.09503737
0.10438191 -0.008723779 0.053443447 0.032431357 -0.002868733 0.07608792 0.093711704 0.10717186
-0.00085477595 -0.039500978 -0.10070099 -0.0075833313 -0.053784546 -0.07607734 -0.0057044737 -0.06660044
-0.009717532 0.115862675 0.14325842 -0.15787725 -0.060398117 0.01385683 -0.07556845 0.057926744
-0.050830897 0.055106692 -0.044042736 0.013378631 -0.022715926 -0.0969574 -0.09972596 0.068137355
-0.06006633 0.12730877 0.11670912 0.12538601 -0.028290914 -0.13300088 0.029257296 0.068647124
-0.065685585 0.0560176 0.1911652 -0.059178077 0.012754572 -0.10362145 -0.09309156 0.06280863
-0.09455958 0.08904487 0.06997034 -0.021931028 0.12764777 -0.0345027 0.05375486 -0.11687243
0.000734428 -0.00244565 0.079607174 -0.06500892 0.1369254 0.027827445 0.016506597 -0.016039953
-0.040379815 0.030188754 -0.06523281 -0.049016982 -0.06828068 0.02686022 0.06405132 -0.041172363
0.092932194 -0.06251446 -0.05669902 0.02872337 -0.07263736 0.06794575 0.098172694 -0.03993014
0.004078116 -0.065750286 0.013253324 -0.095173545 0.048637893 -0.08342312 -0.05551325 0.10653153
0.10160505 0.052559964 -0.029421585 -0.01338705 -0.1132907 0.04385552 0.019594472 -0.06960352
0.0015673155 -0.12490551 -0.11555516 -0.060987554 -0.009021473 -0.075302966 -0.06367467 0.036562227
-0.008857688 0.08547813 -0.03323259 0.06369245 0.118120335 0.017975572 0.069451764 -0.09713353
0.072582394 0.025815956 0.06123272 -0.09667592 0.027284477 0.027991973 -0.027185664 -0.06957789
0.103787035 0.06287686 0.10038647 -0.06823386 -0.05171282 0.01742656 0.020694548 0.12185915
-0.11779773 -0.055404946 0.027175492 0.07543789 0.00022676997 0.013214377 -0.09905194 0.022823764

bias f4 [32]
00000000: 3756 4b3d fc95 f43d 6457 513c f272 72bd
00000010: ab15 4c3d 08a4 c1bb e9a2 5fbd 698c 953c
00000020: 2928 893d efdf 17bd 8752 95bd 5720 c8bd
00000030: d4cb e83a 3f7a aabd 0084 9f3c 730c c6bd
00000040: 66c7 a43d 62bd 883d 4b3a 7fbd 9c86 cf3d
00000050: 9044 db3d e821 3fbd fd38 783d 3410 0c3c
00000060: 4200 5dbd 04f7 b73d 9d64 dfbb ae14 d3bb
00000070: 0def 80bb f841 4bbc 5812 9abd 81f7 553c
0.049642768 0.1194267 0.012777183 -0.05919165 0.04982535 -0.0059094466 -0.054598723 0.01825543
0.06697113 -0.037078794 -0.072911315 -0.09771793 0.0017760941 -0.08324098 0.019472122 -0.09670343
0.08045845 0.06676747 -0.062311452 0.101330966 0.10706437 -0.046663195 0.060601223 0.008548785
-0.053955324 0.08982661 -0.006817414 -0.006441674 -0.003934747 -0.012405865 -0.0752303 0.013059498

weight f4 [2, 32]
00000000: fc7d 2a3d f525 f33d 5683 803e 3851 eb3c
00000010: ec2e e3bd ac40 94be e834 86be aef8 b4be
00000020: ccb5 443e e6e4 1e3d 32b9 8fbc 2c2e 883d
00000030: 3004 98be 8e73 903e a17f 5ebe 088a 1c3c
00000040: 7814 82be 5c1b 363e 85bb fe3d 6c03 1c3e
00000050: 5a83 fb3e a35b 943d dde1 8ebe 9197 1ebe
00000060: 695c 50be 3fce 8abe bc70 9f3d e41f 843d
00000070: 961e 253e 4a30 b0bd aa86 d3bd 0d41 94be
00000080: 4fa1 9bbd 79e2 003e 8ce8 20be 3f74 0d3e
00000090: ba8b 8a3e 763a f93d 6618 b53e c070 673e
000000a0: c3d5 92bd 82f9 983d 9d4b 40be 1e27 143d
000000b0: 5a6f d13e a644 f13c dcd3 813e fa88 adbd
000000c0: 1833 3b3e 4c57 a9be 2d44 ed3d 2f26 c63c
000000d0: f2fb fdbe c7db 4c3d 68d0 253e 34f4 353e
000000e0: c850 643c b8cb eb3d 545f 0cbd b279 11be
000000f0: 84df c63d 596d 573e fd05 5abe a7b1 953e
0.041624054 0.11872474 0.251002 0.028725252 -0.11092934 -0.2895559 -0.2621224 -0.35345978
0.19209975 0.038792513 -0.017544363 0.066494316 -0.29690695 0.2821316 -0.21728374 0.009554394
-0.2540624 0.17783874 0.1243811 0.1523568 0.4912365 0.07244041 -0.27906695 -0.15487505
-0.20347752 -0.27110478 0.07785174 0.06451395 0.16124949 -0.086029604 -0.103284195 -0.2895588
-0.075991265 0.12586392 -0.1571371 0.13813876 0.27059728 0.12169354 0.35370177 0.22601604
-0.07169678 0.07469465 -0.18778844 0.036170118 0.40905267 0.02945168 0.25356948 -0.08473392
0.1828121 -0.33074415 0.11585269 0.02418813 -0.49606282 0.050014284 0.16192782 0.17768937
0.013935275 0.11513466 -0.0342706 -0.1420658 0.09710601 0.21037807 -0.21291347 0.292371

bias f4 [2]
00000000: 9db8 d43d 1076 053e
0.10386775 0.13033319
