models/Celeba-user20-agg18/server.pt (torch, 115994 bytes, 22 tensors)

weight f4 [16, 3, 3, 3]
00000000: 1316 753d 6ecc f1bc 35c5 953d 19c5 00bc
00000010: d2a5 963d 9343 0f3d 4b32 7fbc 9103 14be
00000020: 0b01 d63c af54 12be 0296 263d fa2c bf3c
00000030: 09da b5bc 296a 293e e803 f83b 13d5 b83d
00000040: 6d95 cc3d f76c 04be 8a50 57bd 2b38 4c3e
00000050: d3b1 31be 59df 1c3c f30f 9dbb fa2b 0c3e
00000060: 7c3e bf3a b0cd 9d3d f80c 77bc 800a e1bd
00000070: f612 08be 7e27 dfbd d3b2 37be 2a8a 08be
00000080: 76cd 193d a0b9 e43d 2a5b 20bc 6d1a bebd
00000090: cef8 c03d 1dc0 a5bd 272f 1abd 3fdf bfbd
000000a0: f55d 5ebd cc4a 33be 792d 953d 8a91 813d
000000b0: 7180 0e3d 14d8 de3d ea22 a83d cc2d a63c
000000c0: 827e e43c 3ddb bd3c 82a0 d93d 8787 ec3d
000000d0: d6d6 fa3d 820c cf3d 95b8 3ebd 8f29 81bc
000000e0: b3bd 85bc 3c13 103e 22b1 0d3d c39c 483e
000000f0: e0dc c93d 701f 24be 5232 2c3d 63ac 3f3e
00000100: 8741 283e 4f84 863c 8c3c 943d c776 40be
00000110: 6dad 78bd 7968 843d e949 4cbe 1129 053e
00000120: 1278 f9bd 9960 5c3d b32b e73b 879d 803d
00000130: 3771 173d 67a2 21be c747 40bd 3939 e9bd
00000140: 857b 223e 099f 9fbc 5894 43be 01e1 6e3d
00000150: 4107 ce3d e7bd cebd 85a2 96bc 97c1 be3d
00000160: ead1 fbbd 53a2 bfbd c862 bdbc 0f1c 10be
00000170: 58f7 fb3d 42ad c43c 77fb c03d 54f9 bc3d
00000180: 903f 1abe 4cf4 09be 6188 0cbe eff7 84bd
00000190: ccdc 9cbd 91f9 dfbc 3c89 35be 0fd9 723d
000001a0: e2c8 cc3d 0429 7e3d 30d1 e13d 5da6 113e
000001b0: fcc8 37be da98 563d e6cf 3e3e f5ca e7bd
000001c0: 90a6 7bbd 9c98 c33b 43bc dabd fbcc afbc
000001d0: 3f83 bdbc 9138 393e 3d5b ed39 45e5 aa3d
000001e0: bc9d 273e a15e c03d d3ee 3dbe dca3 1d3e
000001f0: f90f 053e 4061 21be 0557 5abd 4692 123e
00000200: ba47 53be 0331 07be b8d8 e6bd 1e39 4e3d
00000210: 11a1 82bd 84f5 28be 7918 7c3d d80b 113d
00000220: b1b0 f9bb 8869 5abe 7ba0 283e fce9 40bb
00000230: d6b9 fabd fc95 5abc 6d54 223e be39 1c3e
00000240: 5a12 a8bc 41a8 923d c27a 5dbe 05b9 053e
00000250: cbf6 3e3e f4dd b0bd 8d2b 8c3d 8aa6 a6b9
00000260: 9a84 04be 89ef 17bc 731d d3bd 1d14 35be
00000270: a705 10be 2433 5b3c 7492 643e f695 a73d
00000280: a69b f0bd 4add 1a3e 48a7 ec3c 0cae 54be
00000290: 1079 f639 6f1a 083e 4a9f e0bd c9e8 92bc
000002a0: 1797 90bd 2605 fbbd 3606 c4bd 9929 253d
000002b0: 498d e93d 2079 12bd 93be 2cbe 17a3 e53a
000002c0: 2dd3 30be 39ea 873c 4836 1f3e efd5 b43d
000002d0: d692 cebd 7575 73bd 5f7a 8f3d ecc9 493d
000002e0: 2f62 3dbe 73a0 00be fe64 94bd fe3e 983d
000002f0: dd4f 293e 92fb d73d e995 a73d 74c2 19be
00000300: 5272 f93d 5214 543d f52d 6cbd 3c2f c7bd
00000310: e099 873d 99b6 8ebd 6898 a33d 4fda 0e3e
00000320: e9a2 06be 593f f2bd 844b afbd 2447 19be
00000330: aa8b 70bc b72c 173e 8dd0 f73d 05da 4cbd
00000340: df37 adbc 799c abbd 30fe 16be dd31 67bd
00000350: 66bd c53c 67ae b0bd ffb8 f1bd e935 c73d
00000360: 8246 29bc 8b0b 94bd 8cc9 143d ea3b 1d3e
00000370: fd7c 63bc a620 34be 6d84 283e 9489 313e
00000380: 950f 053c c09e d4bd 7c56 9bbd 19bd 2c3e
00000390: 0764 cc3d f450 f1bd 627d 31bd e26a f13c
000003a0: 3c04 6c3d abc0 28bd 9383 b7bd 5a17 e33c
000003b0: 2cb1 b7bc b838 35bd 76f3 b9bd d0cb e0bd
000003c0: 4c4e abbd e4e7 e93d 624f 0bbe 2fbf 1fbe
000003d0: 8e88 543e 61df c33d 7b7f a33d 3eda b03d
000003e0: b41f a8bd 7233 01be 41fb 00be fa9e a1bc
000003f0: 4055 5f3d 6b80 26be 9408 35be 725e 9e3d
0.059835505 -0.029516425 0.07313005 -0.007859492 0.073558465 0.034976553 -0.015575956 -0.14454485
0.026123544 -0.14290117 0.040670402 0.023336876 -0.022198694 0.16544403 0.007568825 0.09025016
0.09989438 -0.12932192 -0.052567042 0.19943301 -0.17352991 0.009574735 -0.004793161 0.1368865
0.0014590765 0.077052474 -0.015078776 -0.10988331 -0.13288483 -0.108962044 -0.1793931 -0.13333955
0.03754946 0.11168218 -0.00978736 -0.09282384 0.09422456 -0.08093283 -0.037642624 -0.09368753
-0.054288823 -0.17509001 0.07284064 0.063265875 0.03479046 0.108810574 0.08209784 0.02028551
0.027892355 0.02317583 0.106263176 0.11549287 0.12248008 0.101098076 -0.04656275 -0.015766887
-0.016325807 0.14069837 0.034592755 0.1959105 0.09856582 -0.16027617 0.042040177 0.18718104
0.16431247 0.016420512 0.07238111 -0.1879531 -0.060712267 0.06465239 -0.1995007 0.13003947
-0.12181105 0.05380306 0.00705477 0.06280046 0.036973204 -0.15784608 -0.046943452 -0.113878675
0.15867431 -0.019485014 -0.19099557 0.05832005 0.10059977 -0.10094815 -0.018388042 0.09314268
-0.12295897 -0.09357133 -0.023118392 -0.14073204 0.123030365 0.024008397 0.09422963 0.09227243
-0.1506331 -0.13472098 -0.137239 -0.06492602 -0.07659301 -0.027340682 -0.17728132 0.059289034
0.09999253 0.062050834 0.110262275 0.14223619 -0.17947763 0.052391864 0.18633994 -0.11318008
-0.061438143 0.00596912 -0.10680439 -0.021460047 -0.023133872 0.18087985 0.0004527214 0.08344511
0.16368765 0.09393049 -0.18548135 0.15394539 0.12994374 -0.15759754 -0.053305645 0.14313611
-0.2063283 -0.1320229 -0.112718046 0.05034744 -0.06378377 -0.16499907 0.061546776 0.035411686
-0.00761994 -0.2132932 0.16467468 -0.002943634 -0.12242477 -0.013341423 0.15852518 0.15256402
-0.020516563 0.07160998 -0.2162886 0.1305886 0.18648832 -0.08636084 0.06844244 -0.0003178607
-0.12941208 -0.009273418 -0.10308351 -0.17683454 -0.14064656 0.013378892 0.22321492 0.081829
-0.117484376 0.15123478 0.02888836 -0.20769519 0.00047010975 0.13291334 -0.10967882 -0.017933266
-0.07060068 -0.12256841 -0.09571497 0.040322874 0.11403901 -0.035760045 -0.16869573 0.0017519918
-0.17268057 0.016591178 0.1554805 0.08829867 -0.100866005 -0.059438188 0.07005762 0.049264833
-0.18494485 -0.12561207 -0.07245825 0.0743389 0.16534372 0.1054603 0.0818289 -0.15015584
0.12180008 0.05177719 -0.057661016 -0.09725806 0.06621146 -0.069684215 0.079880536 0.13950466
-0.13148083 -0.11828489 -0.08559325 -0.14968544 -0.014681736 0.14763151 0.12100325 -0.050012607
-0.021144805 -0.08379454 -0.14745402 -0.056444038 0.024138164 -0.086270146 -0.11802863 0.097270794
-0.010331752 -0.07228764 0.036325023 0.15354887 -0.01388478 -0.1759058 0.16456766 0.17337638
0.008121391 -0.10381842 -0.07584855 0.1686901 0.09980016 -0.11783019 -0.043332465 0.029469911
0.057621226 -0.041199367 -0.08960643 0.027721096 -0.02242335 -0.044243544 -0.090796396 -0.10976374
-0.08364543 0.11421183 -0.13604501 -0.15600275 0.20755216 0.095640905 0.07983299 0.086353764
-0.08209172 -0.12617281 -0.12595846 -0.019729126 0.05452466 -0.16259925 -0.17679054 0.07732858

bias f4 [16]
00000000: 2ea4 043e 0e85 f2bc 7e47 75bd a7b7 1d3e
00000010: f8a2 9d3d ef03 2fbe fd43 18be 47d3 40be
00000020: 521b a6bd 2d6a 03bd c465 903d e91c e73d
00000030: d6bb 2fbe b618 c93d 4a2e 893d 9a55 813d
0.12953255 -0.029604461 -0.059882633 0.15402089 0.076970994 -0.17091344 -0.14869685 -0.18830596
-0.0811068 -0.03208368 0.0705066 0.11284811 -0.17161497 0.09819166 0.06698282 0.06315155

weight f4 [16]
00000000: b1b6 803f 894d 7e3f ff20 7e3f cd69 7f3f
00000010: 1d4e 7e3f df09 803f c435 803f 51c1 803f
00000020: ed40 7d3f c454 803f c575 833f e030 7d3f
00000030: 6461 7f3f cd43 7e3f 9a28 803f dddc 803f
1.0055753 0.9933706 0.992691 0.99770814 0.9933794 1.0003012 1.0016408 1.0058995
0.98927194 1.0025868 1.0270315 0.989027 0.9975798 0.99322206 1.0012391 1.0067402

bias f4 [16]
00000000: 403c 2fbb 2b63 6ebc a3d4 de3b bc33 623c
00000010: b526 49bc c51b 0c3b 3b1e 923b 52e0 2fbc
00000020: 979e 1cbc af9e 903c 715f 1b3d 4a11 8c3b
00000030: f0e8 083d 34a4 71bb 43cf 7e3c 71d6 803c
-0.0026738793 -0.014550011 0.0068002506 0.01380628 -0.012277295 0.0021378857 0.00445917 -0.0107346345
-0.009559295 0.017653791 0.037932817 0.004274522 0.03342527 -0.0036871554 0.015552345 0.015727254

running_mean f4 [16]
00000000: 0000 0000 0000 0000 0000 0000 0000 0000
00000010: 0000 0000 0000 0000 0000 0000 0000 0000
00000020: 0000 0000 0000 0000 0000 0000 0000 0000
00000030: 0000 0000 0000 0000 0000 0000 0000 0000
0.0 0.0 0.0 0.0 0.0 0.0 0.0 0.0
0.0 0.0 0.0 0.0 0.0 0.0 0.0 0.0

running_var f4 [16]
00000000: 0000 803f 0000 803f 0000 803f 0000 803f
00000010: 0000 803f 0000 803f 0000 803f 0000 803f
00000020: 0000 803f 0000 803f 0000 803f 0000 803f
00000030: 0000 803f 0000 803f 0000 803f 0000 803f
1.0 1.0 1.0 1.0 1.0 1.0 1.0 1.0
1.0 1.0 1.0 1.0 1.0 1.0 1.0 1.0

weight f4 [32, 16, 3, 3]
00000000: 006f a8bd 24f0 93bd 9361 9dbc b9fc 343d
00000010: e6e9 cdbc 502b c2bb 44aa 52bb 166e 83bc
00000020: 2da7 0dbd 64a4 19bb f9c5 28bd 0ddd a83d
00000030: 4bdb 1e3b 8ee2 283d 9bb6 98bd 7ed9 93bc
00000040: d820 2d3d 6f1a 81bd d185 8b3b 4cf4 9abd
00000050: 50fc a7bc f463 b73c dc2c 97bd d012 0a3d
00000060: 4987 453d faf2 76bd fa9e c93b 8c15 05bd
00000070: 3a36 b9bd 3627 b0bb bad5 7e3d 2426 a83b
00000080: f311 343a 7977 9f3d 5b90 713c 7efa 8c3d
00000090: 4eb1 97bd 328e 9e3c 2e11 6a3d e8ad 1a3d
000000a0: a566 debc 9349 643d 1803 82bd 0dbc 313b
000000b0: ddbe c8bd 1dde 9dbd 3a8f 9dbd b59e 83bd
000000c0: edc5 3cbd cd43 89bd 4ed1 13bd 45af 24bd
000000d0: 4a19 f53c 4f65 6e3d a897 123d 1323 4abd
000000e0: 56ea 26bd 4c5f e03c a28e 6dbd 9575 88bd
000000f0: 33d9 09bd 0934 853d 72a1 813d 3767 9bbd
00000100: 5718 ac3d be8a 15bd 5806 1dbd b28d adbd
00000110: 4938 823d 3f41 903d 226d 943d 2eff 293c
00000120: e968 c63b 8277 7a3d 0ce0 20bc 88cf 9bbd
00000130: a755 8bbd bd8a 3b3d 727d 82bd 3bec 9fbd
00000140: 7ed5 7e3d e28f 82bd 3471 e13a 4ef9 c83d
00000150: 59aa 143d 480b dfbc 8cbd 0e3c 87ab 983d
00000160: 8ce3 aabd f23a 153d df77 63bd 6c0d 8abd
00000170: 16da 5abb 45f6 2f3d 6504 9abd 242f a9bc
00000180: 46f7 34bc 6847 b33c 8945 a83c 0a9a 543d
00000190: 3c10 693d 68df b43c 0b2a 98ba 68b1 223c
000001a0: 325a 673d 371e 1f3d f285 9abd 2f0b 8c3c
000001b0: b8aa 083c d392 b93b 0480 723c 7a80 6bbd
000001c0: 3805 aa3c cb2a 8abd 4d11 343d 18e1 90bd
000001d0: 8a7c 85bd fe3a d03b 5c51 b93c c6ca cf3c
000001e0: 8cad 0ebd 76b1 fa3c af2b 90bd d42b 133d
000001f0: 65d4 f33c ddf6 90bd 445d 80bc b81b 073d
00000200: d94f 5d3c e4f3 2c3d 0792 36bd 03a8 393d
00000210: 112d 8abb 58b6 d5bb cb7d 46bd 45d2 9bbb
00000220: 210f 293d d2ec 35bd c63f d63c 3027 1cbd
00000230: 161c eebc 8f9d 48bd 26ad d03c d809 223d
00000240: 751b 7bbd 8845 773d fe58 a73c 7a25 2638
00000250: 678f 8e3d cea4 213c c9f6 8b3c 3ee1 443d
00000260: efbc 03bc c505 873d 7326 1c3b 7733 a23d
00000270: 07a0 c3ba 6253 13bd 11cc 3fbc 5282 adbd
00000280: 5a70 3ebd 5c7c 8b3c f3ca 8ebd 6213 89bd
00000290: ec85 0a3c f2fe a43c f2d8 cbbc cfe7 b23d
000002a0: 7844 c9bc 91ca 5abd d1e7 6d3c 9a30 0b3d
000002b0: 67ec 62bd cb1a 463c b561 d23c c004 053d
000002c0: 8b39 0d3b 2b46 b3bd 30e8 92bd 26df 9c3d
000002d0: c01d 723d e1b2 bc3d 7858 023d 6189 ab3c
000002e0: 2f5e 4fbc bfe5 d53c ef6c e53c 6e24 1fbd
000002f0: 111c 4db9 a34c 8dbd ab40 5d3d 6d59 b6bc
00000300: 5790 9cbd 6c19 2c3d 0013 8abc 725c 34bd
00000310: b9a0 953c 0d05 59bd a56e 153c a6fa ef3c
00000320: e7c2 c23a 07a5 033c 36a6 85bc ba5f 453d
00000330: 15a7 5c3d edc5 05bb 0a13 94bd 119f 373d
00000340: c03c 313d 3e45 f53c a5ef 0dbd bb2e 8e3c
00000350: cd7e 673d 4257 fa3c 5a54 97bd eb78 053c
00000360: 7195 82bd 742c 56bd d85a 24bd 088e 3e3d
00000370: 8f66 8c3d 1b27 65bd f324 893a 09be bf3c
00000380: eb5a 953c 0b57 433d f02f 693d be47 f73c
00000390: 6747 3dbd 2773 023d e7aa 2a3b 20a7 a0bd
000003a0: a972 373d 32d3 423d 3ec5 1fbd 88a1 2bb7
000003b0: 12df dd3c b83d c13c 19ed 8b3d 09bf 4abd
000003c0: fe6e 2ebd 6082 93bd e7b0 b93d 18f3 ecbc
000003d0: db2e 533d 6a8d 0b3d d0d8 d7bc 76be 2dbd
000003e0: 0ce9 a93d 57dc 9c3d ca94 a4bb 9cd8 99bc
000003f0: af1e af3d 0e46 acbc d62e 68bd 5b47 3d3d
-0.082242966 -0.072235376 -0.019211566 0.044186328 -0.025135946 -0.0059255734 -0.0032144943 -0.016043704
-0.03458326 -0.0023443932 -0.041204426 0.08245287 0.0024239596 0.041231684 -0.07456704 -0.018048044
0.04226765 -0.0630387 0.0042578955 -0.07566127 -0.020506054 0.022386529 -0.07381603 0.033709347
0.04822472 -0.060290314 0.0061529847 -0.03249125 -0.09043546 -0.005375768 0.062215544 0.0051315
0.000686913 0.077864595 0.01474389 0.06883715 -0.07406865 0.019354913 0.05714529 0.037763506
-0.027148554 0.05573423 -0.06348246 0.0027120144 -0.09802029 -0.0770838 -0.07693334 -0.06426755
-0.046087194 -0.06702385 -0.03608828 -0.040206213 0.029919285 0.058202084 0.035789162 -0.049349856
-0.040750824 0.027389191 -0.057997353 -0.06663052 -0.033654403 0.065040655 0.063296214 -0.07588046
0.0840308 -0.036509268 -0.038336128 -0.08474292 0.06358392 0.07043695 0.07247378 0.010375781
0.0060549867 0.061149128 -0.009819042 -0.07607943 -0.06803446 0.045786608 -0.06371583 -0.07808729
0.06221532 -0.063751 0.0017199875 0.09813176 0.03629527 -0.027227059 0.008712184 0.07454591
-0.08344182 0.036433168 -0.05553424 -0.06740841 -0.003339415 0.04295947 -0.075203694 -0.020652361
-0.011045283 0.021884635 0.02054097 0.051904716 0.056900248 0.022079185 -0.001160921 0.009929992
0.0564825 0.038847174 -0.07545079 0.017095177 0.008341484 0.0056632548 0.014801029 -0.05749557
0.020754442 -0.06746443 0.04396181 -0.07074183 -0.065178946 0.0063546887 0.022621803 0.025365245
-0.034833476 0.030602198 -0.07039582 0.03593047 0.029764364 -0.070783354 -0.015669473 0.03298542
0.013507807 0.04222478 -0.044572856 0.045326244 -0.004216798 -0.006521981 -0.04845981 -0.0047552907
0.041274194 -0.044415303 0.026153456 -0.03812331 -0.029066127 -0.048978385 0.025473189 0.03956017
-0.061305482 0.060369045 0.020428177 3.9612387e-05 0.069609456 0.009865953 0.01708545 0.04806637
-0.008040651 0.06592897 0.0023826628 0.079199724 -0.0014925011 -0.035968192 -0.011706368 -0.08472122
-0.046493866 0.017027073 -0.06972303 -0.0669315 0.008454781 0.020141099 -0.024883721 0.0873562
-0.024568781 -0.05341584 0.014520601 0.033981897 -0.055401232 0.012091349 0.025681356 0.032475233
0.002154919 -0.08753618 -0.071731925 0.0765975 0.059110403 0.09213806 0.03182265 0.02093953
-0.012656732 0.026110528 0.028006045 -0.0388531 -0.00019560779 -0.06899383 0.05401675 -0.022259438
-0.07644718 0.04201643 -0.016854763 -0.044033475 0.018265115 -0.052983332 0.009120618 0.029294323
0.0014859111 0.008034951 -0.016314607 0.048186995 0.05387028 -0.0020412162 -0.07230194 0.044829432
0.043270826 0.029940244 -0.03465237 0.017356267 0.05651741 0.030559186 -0.07389136 0.008146505
-0.0637616 -0.052288488 -0.040125698 0.04652217 0.06855499 -0.055945497 0.0010463282 0.023406046
0.01823183 0.047690433 0.056930482 0.030185577 -0.046210673 0.0318481 0.0026041807 -0.078443766
0.044787083 0.047564693 -0.039006464 -1.0230004e-05 0.027083907 0.023589 0.06832332 -0.04949859
-0.04258632 -0.072026014 0.090669446 -0.02892451 0.051558357 0.03407041 -0.026348501 -0.042417966
0.08296403 0.07659214 -0.00502262 -0.018780045 0.08550774 -0.021029498 -0.05668529 0.046210628

bias f4 [32]
00000000: 1060 893d 834e 013d f1b1 a5bd 70a3 d4bb
00000010: 6c2f a4bd fdcd 6f3d 47ac cf3c 422d 7b3d
00000020: 00f2 5ebc 6938 ae3c dc84 73bd 8517 89bd
00000030: 581f a03d adcf cc3c ce94 31bd 06c1 a0bc
00000040: 0c94 aeb9 3ca9 ec38 3b98 36bd 3ed1 a9bc
00000050: 6425 11bd ced0 33bd 9871 97bd 883f 713d
00000060: 848a 7ebc 8eb5 2e3d 2e1f 8a3c f62a 533d
00000070: 3666 a73d f3be 8cbb 5678 0cbd 6cd7 bd3c
0.067077756 0.031569015 -0.0809058 -0.00648921 -0.080168575 0.058546055 0.025350703 0.061322458
-0.013607502 0.021267133 -0.059452876 -0.06693939 0.07818478 0.025001371 -0.0433548 -0.01962329
-0.0003329817 0.00011284879 -0.044578772 -0.020729657 -0.03543605 -0.043900304 -0.07394713 0.05889848
-0.015535954 0.042653613 0.01686057 0.051554643 0.08173792 -0.004295224 -0.03429445 0.02317401

weight f4 [32]
00000000: 7d29 813f 8a19 803f 1913 7f3f dd50 823f
00000010: 0f2f 7e3f ae76 7e3f bc69 7c3f 969f 803f
00000020: d9ce 7e3f d5c6 7f3f f5fa 823f 2597 7e3f
00000030: 95dd 7e3f 0518 813f 33be 803f 2670 813f
00000040: 8945 813f e966 803f 2a17 813f bc11 7f3f
00000050: 0f56 803f 8d1e 813f 9f14 803f dab6 7d3f
00000060: ac4c 7f3f 599c 7c3f 20f5 7d3f c5e6 7b3f
00000070: 7c3f 7f3f 4f6d 7c3f f0d9 803f 3d08 7e3f
1.0090786 1.0007794 0.99638516 1.0180928 0.99290556 0.9939984 0.9859884 1.0048702
0.99534374 0.9991277 1.0232836 0.9944938 0.9955686 1.0085455 1.0058044 1.011235
1.0099345 1.0031406 1.0085194 0.99636436 1.0026263 1.0087448 1.0006293 0.99107134
0.99726367 0.9867607 0.99202156 0.98399 0.99706244 0.9860429 1.0066509 0.9923132

bias f4 [32]
00000000: 62af 8fba bc36 c03a f38f 36bc debb 7bbb
00000010: a7eb 7fbb 51ff a5ba 9566 49bc 3551 81bb
00000020: 1b9f fdbb 7fad 10bc 264a 9bbb e019 b23a
00000030: 4382 08bb 72bb 05bc 0dae 37bc 16dc 20bc
00000040: 9c33 b6bb fe33 33bc 81ab a139 4b13 a1bb
00000050: 208c 60bc 4102 6b3b 296e bbbb 0b95 bdbb
00000060: 1e0c 4dbc 914a a3ba 528d 9fbb 00a3 f4bb
00000070: 2905 3fbc d0bf 7ebb b566 4abb 82bc 1d3a
-0.0010962302 0.001466475 -0.011142719 -0.0038411538 -0.0039050372 -0.0012664591 -0.012292524 -0.003946448
-0.007739914 -0.008830427 -0.004739064 0.0013588034 -0.0020829595 -0.008162366 -0.0112109305 -0.009818098
-0.0055603515 -0.010937689 0.00030836093 -0.00491563 -0.013705283 0.0035859498 -0.005719919 -0.0057855896
-0.012515096 -0.0012458136 -0.0048691416 -0.00746572 -0.011658945 -0.0038871653 -0.0030883972 0.00060171646

running_mean f4 [32]
00000000: 0000 0000 0000 0000 0000 0000 0000 0000
00000010: 0000 0000 0000 0000 0000 0000 0000 0000
00000020: 0000 0000 0000 0000 0000 0000 0000 0000
00000030: 0000 0000 0000 0000 0000 0000 0000 0000
00000040: 0000 0000 0000 0000 0000 0000 0000 0000
00000050: 0000 0000 0000 0000 0000 0000 0000 0000
00000060: 0000 0000 0000 0000 0000 0000 0000 0000
00000070: 0000 0000 0000 0000 0000 0000 0000 0000
0.0 0.0 0.0 0.0 0.0 0.0 0.0 0.0
0.0 0.0 0.0 0.0 0.0 0.0 0.0 0.0
0.0 0.0 0.0 0.0 0.0 0.0 0.0 0.0
0.0 0.0 0.0 0.0 0.0 0.0 0.0 0.0

running_var f4 [32]
00000000: 0000 803f 0000 803f 0000 803f 0000 803f
00000010: 0000 803f 0000 803f 0000 803f 0000 803f
00000020: 0000 803f 0000 803f 0000 803f 0000 803f
00000030: 0000 803f 0000 803f 0000 803f 0000 803f
00000040: 0000 803f 0000 803f 0000 803f 0000 803f
00000050: 0000 803f 0000 803f 0000 803f 0000 803f
00000060: 0000 803f 0000 803f 0000 803f 0000 803f
00000070: 0000 803f 0000 803f 0000 803f 0000 803f
1.0 1.0 1.0 1.0 1.0 1.0 1.0 1.0
1.0 1.0 1.0 1.0 1.0 1.0 1.0 1.0
1.0 1.0 1.0 1.0 1.0 1.0 1.0 1.0
1.0 1.0 1.0 1.0 1.0 1.0 1.0 1.0

weight f4 [64, 32, 3, 3]
00000000: b225 21bd 6468 d6bc d59b c1bb cc32 4cbd
00000010: 9bda 17bd 2d6b dd3c 0a07 623a 758f 013c
00000020: ccca 59bd 04d0 9e3c 722f 1fbd c5b8 9c3c
00000030: dc47 633c 0663 3a3d c2f1 053d b552 533d
00000040: cd2f 823c 701f 063c b41e 38bd d990 543c
00000050: f8ec 59bd 2817 893c 1896 18bc 37e8 07bd
00000060: b82b 893c cc30 16bd a386 293d a722 2cbd
00000070: 9ed8 cbbc 5402 3f3c 5911 a4bc cc9a e73c
00000080: 5a82 1e3c 7174 0e3d ff39 fb3b eaef 60bd
00000090: efa4 06bd 18f0 42bd 6698 343d db8f 51bc
000000a0: c3eb ea3a a093 2bbd 1821 d4bc 3c67 0c3d
000000b0: 6efe 0bbc 3e0a b83c 26d3 1f3d 076b b83b
000000c0: baee 71bc fdb8 453d 7e1b a03b 5add 373d
000000d0: 089d bdbc 2140 debc bda2 b63c ec5d 25bd
000000e0: a208 cb3c be83 e7bc ce17 dfbc 9c2b 02bb
000000f0: 01ca 1bbc 82ec 3d3d 3e66 e9bc 693b 0c3d
00000100: 84ab 85bb dc32 ea3c 85e3 0bba 9181 623d
00000110: 8d46 08bd b58a 34bc bc77 883c 9e7f 0d3d
00000120: 939c 5dbd 1ad0 b93b e595 d03c 984f 94bc
00000130: a95a 81bb c0e4 043d 26fb e43b 441d b8bc
00000140: 87ae 1f3b 69d9 47bd d29a 333d d2b2 34bd
00000150: 2f48 b43c 0ad4 51bc 084b 09bd dd38 243d
00000160: ec99 713c 3d75 0dbb 454f 2dbb bcb6 44bd
00000170: 8a04 963c 30b5 f5bc edd7 e9bc 8c2f b63c
00000180: c330 023d c886 24bd b5b2 08bd 44e8 fc3c
00000190: 2c2c 1abd 3566 37bd af28 8d3c 860e ec3b
000001a0: fccb e0bc a05e f0bc 86f9 dcbc bc6c 9a3c
000001b0: f006 2a3d c7a2 54bd a870 e4bc e50f 80bd
000001c0: 322e 2a3d 729f 2dbc d4fe 873d f064 f6bb
000001d0: f177 b3bc ade3 6fbd 6704 cdbc 2e61 3fbd
000001e0: 359f 26bd fb88 12bd 6d9b 453c 691b 613c
000001f0: faa4 b4bb ef79 523b 5b49 033d 5eff d93c
00000200: 1874 503d de02 77bc bb87 8f3d 1bd3 143c
00000210: cc06 91bb 82ed 51bd 7204 95bc 0e85 d5bb
00000220: 24c6 133d 42e2 7fba 522d 44bd 947f a63c
00000230: 907c 1cbd b008 47bd 3267 1d3d e4da be3c
00000240: f0ce 023d c825 6f3d 37a7 6dbd 0edc 30bc
00000250: 0f10 053d 0f35 bb3c 54b6 59bd 3ae3 2d3d
00000260: 04bc c23c b771 c93c cf6c 5abc 7513 b6bc
00000270: a56d 2a3c 02b7 47bd b6bd 0bbd 7218 56bb
00000280: 1cee f6bb a276 8ebd d828 df3c ac1e 05bc
00000290: ffce 0ebd 4825 203d 9a81 2b3d bf6d d7bc
000002a0: 9f67 30bd 7870 e7bc 9a9d 5a3d 69f6 12bc
000002b0: 79d7 143d 1cf2 16bd 875b 3dbd 8a61 09bc
000002c0: 4883 06bd 4154 19bd 5b5b 8d3b a402 d83b
000002d0: 87ef dfbc 2a61 8e3d 01f4 983c b264 d13c
000002e0: 22d9 8abc 64d0 97bc 2cb2 743d 8cbe 2c3c
000002f0: 84c1 abbc 70ca 213d 21cd 1e3d 6688 273d
00000300: 95ad 2a3b 9a8d 2abd cee2 4b3d 8a81 793d
00000310: dca4 cabc 9dba 54bd 2511 d0bc cc25 303d
00000320: 755d 643c 8481 e33c 57cf f9ba 3a71 4a3c
00000330: 45a6 4fbd 2f94 b0bc dbbe d0bc 661e 643c
00000340: 3495 42bd d234 233d d4d9 e6bc eb56 b1bc
00000350: d170 3cbd a7c3 efbc 14c3 94bc 959d 343d
00000360: a42e d83c 65c9 0d3d 7892 80bc 5099 48bc
00000370: da99 dcbc 9f87 98bc dc88 28bd 4099 41bd
00000380: 3926 273d d9b4 f3bc babc 91bd 92fd d8bc
00000390: 16f8 e23c 3068 e3bc 341b ffbc 3a6b ee39
000003a0: 4dc8 513c b1d8 cf3c 6d27 763d 350d 483c
000003b0: 2484 193d 345f 0d3d ddca 23bd 0642 b53b
000003c0: eaa0 54bd 9730 e7bc 4c0b 4cbb 800a dc3c
000003d0: e5d4 75bd fa98 743d 39e2 23bc 6c0b 1dbc
000003e0: 90c9 91bb fc54 273d 8bb7 cbbb 6750 0b3d
000003f0: f602 8fbc bcc8 5abd 005d f93b 1668 2bbd
-0.03934259 -0.026172824 -0.005908469 -0.04985313 -0.037073713 0.027028644 0.0008622265 0.007907738
-0.053171918 0.019386299 -0.038863607 0.019131074 0.013872113 0.045504592 0.03270126 0.051592547
0.015891934 0.008186206 -0.044951156 0.0129739875 -0.053204507 0.016734675 -0.009313129 -0.03318044
0.01674448 -0.03666763 0.041388165 -0.042025235 -0.024883565 0.01165827 -0.020027803 0.028272055
0.009674633 0.034779016 0.007666826 -0.0549163 -0.032872137 -0.047592252 0.04409065 -0.0127906455
0.0017923046 -0.041888833 -0.025894687 0.03427814 -0.0085445475 0.022465821 0.039019726 0.005627993
-0.0147663895 0.04827212 0.00488609 0.04488883 -0.023146167 -0.027130188 0.022294397 -0.040372774
0.02478439 -0.028261062 -0.02723303 -0.001986242 -0.009508611 0.04636813 -0.028491136 0.034236345
-0.004079284 0.028588705 -0.0005336332 0.055299345 -0.033270407 -0.011019398 0.016658656 0.034545533
-0.0541044 0.0056705596 0.0254621 -0.01810436 -0.003947575 0.032444715 0.006987947 -0.022474892
0.00243655 -0.048791323 0.04384882 -0.04411585 0.022007076 -0.012806902 -0.03351882 0.04009329
0.0147461705 -0.0021584772 -0.0026444953 -0.04802583 0.018312711 -0.029993623 -0.028545344 0.022239469
0.031784784 -0.0401676 -0.033373553 0.030872472 -0.03763978 -0.044775207 0.017231314 0.0072038798
-0.027441017 -0.029341996 -0.02697445 0.018850677 0.041510522 -0.05191305 -0.02788575 -0.06253032
0.04154796 -0.010597097 0.066404015 -0.007519357 -0.021907778 -0.058566738 -0.025026513 -0.046723537
-0.040679175 -0.035775166 0.012060982 0.013739445 -0.005512831 0.0032116135 0.03205238 0.026611026
0.050891966 -0.015076367 0.070083104 0.009083535 -0.004425859 -0.051251896 -0.018190596 -0.0065161055
0.036077634 -0.0009761193 -0.047894783 0.020324506 -0.03820473 -0.04859227 0.038428493 0.023297735
0.031935632 0.05838564 -0.058020797 -0.010794653 0.032486018 0.022852449 -0.053152397 0.04245303
0.023771293 0.024590356 -0.013331606 -0.022226075 0.010402118 -0.048758514 -0.03411647 -0.003266838
-0.007535709 -0.06956221 0.027241156 -0.0081249885 -0.034865376 0.039098054 0.041871645 -0.026297448
-0.04306757 -0.028251871 0.053372957 -0.008969882 0.036338303 -0.036851987 -0.046229865 -0.0083850715
-0.032840043 -0.037433866 0.004313869 0.0065921117 -0.027335895 0.06952126 0.018671038 0.02556071
-0.01694924 -0.018531986 0.05974023 0.010543477 -0.020966299 0.0394997 0.038769845 0.040901564
0.0026043404 -0.041638948 0.049776845 0.060914554 -0.024736814 -0.05193578 -0.0253988 0.043004796
0.0139382975 0.027771719 -0.0019058984 0.012356097 -0.050695676 -0.021555034 -0.025481632 0.013923263
-0.047505572 0.039845295 -0.02818004 -0.021647891 -0.046006028 -0.029268099 -0.018159427 0.044095594
0.026389427 0.034615893 -0.015694842 -0.012243584 -0.02692883 -0.018619357 -0.041146144 -0.04726529
0.040807936 -0.02974932 -0.07116075 -0.0264881 0.027706187 -0.027759641 -0.031140901 0.00045474787
0.012804103 0.025371881 0.060096193 0.01221018 0.037479535 0.03451462 -0.039988387 0.0055315522
-0.051911272 -0.028221412 -0.0031134663 0.026860476 -0.060017485 0.059716202 -0.010002666 -0.009585243
-0.004449077 0.04085253 -0.0062169484 0.034012225 -0.017457467 -0.05341409 0.0076099634 -0.04184731

bias f4 [64]
00000000: 9dee 043c 16f8 213d 6ba1 18bd 6c1b e3bc
00000010: a43b 463d 3021 08bd a4e0 05bd 6595 4d3d
00000020: 41c1 8ebc 701d 8dbc ef25 d23c 485d bc3c
00000030: 0da3 5c3d 70da 37bd 055f c4bc 19f5 3e3d
00000040: cf75 2e3d e27a 8f3c b20a f33b 229b 463d
00000050: 58c1 56bd fd48 0e3d 73a9 68bd 3520 243d
00000060: ea1a 62bd 6bfe c3bc 9afe e6bc d572 3ebc
00000070: 58d1 4d3d 0d17 e23b 98b1 35bd a41a 153c
00000080: 848d 64bd a688 b3bb 96a7 43bd 18d7 2f3d
00000090: 1a79 57bd 7f05 43bb 5196 2e3d a052 b03b
000000a0: aef1 fdbb 5aa0 b4bc 06c3 883c a2b5 36bd
000000b0: 2c23 5d3d d4f2 2b3d ceae c73c a568 0b3d
000000c0: f2b5 2dbd b58b 803c c85a d3bb 1465 b03b
000000d0: bbc8 043d b880 593d 9b4a f1bc 4d70 cebb
000000e0: b777 64bd ca4d 163c df7f 073d ad1f bb3c
000000f0: 0439 0fbc 52e2 a43c a8e4 193d d706 833b
0.00811353 0.039543234 -0.037263315 -0.027723037 0.04839672 -0.033234775 -0.032684937 0.0501913
-0.017426135 -0.017225951 0.025652854 0.022993699 0.053866435 -0.044886053 -0.02397109 0.046620462
0.04259282 0.01751465 0.0074170465 0.04848779 -0.05243048 0.034737576 -0.056802224 0.040069778
-0.05520145 -0.023925027 -0.028197575 -0.011624058 0.050248474 0.0068997205 -0.04435882 0.00910059
-0.055799022 -0.0054789362 -0.047767244 0.04292974 -0.052605726 -0.0029757915 0.04262382 0.0053809434
-0.0077497577 -0.022049118 0.016694557 -0.044606812 0.05398862 0.041979626 0.024375346 0.034035344
-0.042409845 0.015691618 -0.006450031 0.005383143 0.032417994 0.05310127 -0.02945452 -0.0063000084
-0.05577823 0.00917382 0.03308093 0.022842253 -0.008741621 0.02012745 0.03757158 0.003998618

weight f4 [64]
00000000: b2b8 803f 3b23 803f b836 803f 1cd6 803f
00000010: 01d9 833f d07f 803f 76e7 8a3f a581 7f3f
00000020: d11a 863f e5d3 7f3f dadd 843f ebe2 943f
00000030: 950d 843f ecc4 7f3f 9691 823f 541f 813f
00000040: 46bb 813f 652d 813f 35e4 803f f7dc 7f3f
00000050: 7d0b 803f 9021 823f 3203 803f 93b6 803f
00000060: 2afb 7f3f 79f3 823f 3cb4 7f3f 1c98 7f3f
00000070: d4c1 7f3f 64e2 7f3f 6968 823f 284e 803f
00000080: 3c35 803f fd0d 803f 2856 903f 4cb2 7f3f
00000090: 8cc0 813f 2590 813f 7ed0 803f 46e0 7f3f
000000a0: 3cc5 803f 4df3 7f3f 8a15 883f e749 813f
000000b0: 6b9e 803f 9bed 7f3f 8ec0 7f3f 8420 803f
000000c0: 0399 853f d4da 7f3f 7e9c 813f 5a54 803f
000000d0: c712 813f 3b4a 843f 4af2 813f a6f2 7f3f
000000e0: 16ed 7f3f 4f18 803f 719e 803f d9ad 7f3f
000000f0: 9ee1 803f 5215 803f edde 7f3f 2ef8 7f3f
1.0056365 1.0010751 1.0016699 1.0065341 1.0300599 1.0039005 1.0851886 0.99807197
1.0476934 0.999327 1.0380204 1.163175 1.0316645 0.99909854 1.0200679 1.0087686
1.0135276 1.0091978 1.0069643 0.9994654 1.0003506 1.0166492 1.0000975 1.0055717
0.9999262 1.0230552 0.9988439 0.99841475 0.99905133 0.9995482 1.0188113 1.0023851
1.0016246 1.0004269 1.1276293 0.99881434 1.0136886 1.0122114 1.0063627 0.9995159
1.0060191 0.9998062 1.0631573 1.0100678 1.0048345 0.9997193 0.9990319 1.0009923
1.043732 0.9994328 1.0125883 1.0025742 1.0083855 1.0335153 1.0152066 0.9997963
0.9997114 1.0007418 1.0048352 0.99874645 1.0068853 1.0006506 0.9994953 0.9998807

bias f4 [64]
00000000: 50a2 9f3a 04ab 44ba 2173 0cba 4caa 113a
00000010: 9c12 723b 6381 c9ba 5c51 193c c3ba b5ba
00000020: 6ca6 433a d16b 9eb9 9c3f 393b 100b 713c
00000030: 9293 903a ba79 8aba 3acf f2b9 d819 4bba
00000040: 0004 e539 73da 093a 1148 d03a 6424 e4b9
00000050: f8d7 6fb9 a486 a03a 94b7 a6ba bc69 5d39
00000060: 7768 90ba 6939 8d39 8211 8dba d8ea 9dba
00000070: 1460 aaba 7682 45ba 5b06 71bb f467 3aba
00000080: 6592 a9b8 5a59 39b9 eaa6 ac3b 818f a1ba
00000090: 1225 ba3a 6971 4fba 20bd f73a 65cd f7b9
000000a0: 3f9d a1b8 c08d 9ab9 acc2 2f3c c195 80b9
000000b0: d10c 6dba b136 b9b9 2091 30b9 be98 e3b9
000000c0: 2a66 863b 343e 60ba f455 3538 dff3 81ba
000000d0: 6594 fa39 9e17 003c b496 40bb ee6a 75ba
000000e0: ba50 f4b9 1e99 183a 3ffa acba 7a9b 19ba
000000f0: 3163 50b8 df60 2bba 66f2 9eba 994f 91ba
0.001217911 -0.000750229 -0.0005357732 0.0005556687 0.0036937362 -0.0015373643 0.0093577765 -0.0013864863
0.00074634585 -0.00030216438 0.0028266674 0.01471211 0.0011030308 -0.0010564842 -0.00046312233 -0.00077476865
0.00043681264 0.0005258687 0.0015890618 -0.00043514662 -0.00022873271 0.0012247157 -0.0012719505 0.00021115592
-0.0011017461 0.0002693639 -0.0010762664 -0.0012048138 -0.0012998604 -0.0007534394 -0.003677747 -0.0007110827
-8.085816e-05 -0.00017676261 0.005268921 -0.0012326093 0.0014201722 -0.0007913323 0.0018900968 -0.00047264542
-7.7063676e-05 -0.0002947878 0.010727566 -0.00024525638 -0.00090427423 -0.00035326698 -0.00016838731 -0.00043410616
0.0041015344 -0.0008554191 4.3233813e-05 -0.0009914598 0.00047794278 0.007818131 -0.00293867 -0.0009361942
-0.00046599453 0.0005821156 -0.0013197138 -0.00058596546 -4.9683444e-05 -0.0006537567 -0.0012126684 -0.0011086344

running_mean f4 [64]
00000000: 0000 0000 0000 0000 0000 0000 0000 0000
00000010: 0000 0000 0000 0000 0000 0000 0000 0000
00000020: 0000 0000 0000 0000 0000 0000 0000 0000
00000030: 0000 0000 0000 0000 0000 0000 0000 0000
00000040: 0000 0000 0000 0000 0000 0000 0000 0000
00000050: 0000 0000 0000 0000 0000 0000 0000 0000
00000060: 0000 0000 0000 0000 0000 0000 0000 0000
00000070: 0000 0000 0000 0000 0000 0000 0000 0000
00000080: 0000 0000 0000 0000 0000 0000 0000 0000
00000090: 0000 0000 0000 0000 0000 0000 0000 0000
000000a0: 0000 0000 0000 0000 0000 0000 0000 0000
000000b0: 0000 0000 0000 0000 0000 0000 0000 0000
000000c0: 0000 0000 0000 0000 0000 0000 0000 0000
000000d0: 0000 0000 0000 0000 0000 0000 0000 0000
000000e0: 0000 0000 0000 0000 0000 0000 0000 0000
000000f0: 0000 0000 0000 0000 0000 0000 0000 0000
0.0 0.0 0.0 0.0 0.0 0.0 0.0 0.0
0.0 0.0 0.0 0.0 0.0 0.0 0.0 0.0
0.0 0.0 0.0 0.0 0.0 0.0 0.0 0.0
0.0 0.0 0.0 0.0 0.0 0.0 0.0 0.0
0.0 0.0 0.0 0.0 0.0 0.0 0.0 0.0
0.0 0.0 0.0 0.0 0.0 0.0 0.0 0.0
0.0 0.0 0.0 0.0 0.0 0.0 0.0 0.0
0.0 0.0 0.0 0.0 0.0 0.0 0.0 0.0

running_var f4 [64]
00000000: 0000 803f 0000 803f 0000 803f 0000 803f
00000010: 0000 803f 0000 803f 0000 803f 0000 803f
00000020: 0000 803f 0000 803f 0000 803f 0000 803f
00000030: 0000 803f 0000 803f 0000 803f 0000 803f
00000040: 0000 803f 0000 803f 0000 803f 0000 803f
00000050: 0000 803f 0000 803f 0000 803f 0000 803f
00000060: 0000 803f 0000 803f 0000 803f 0000 803f
00000070: 0000 803f 0000 803f 0000 803f 0000 803f
00000080: 0000 803f 0000 803f 0000 803f 0000 803f
00000090: 0000 803f 0000 803f 0000 803f 0000 803f
000000a0: 0000 803f 0000 803f 0000 803f 0000 803f
000000b0: 0000 803f 0000 803f 0000 803f 0000 803f
000000c0: 0000 803f 0000 803f 0000 803f 0000 803f
000000d0: 0000 803f 0000 803f 0000 803f 0000 803f
000000e0: 0000 803f 0000 803f 0000 803f 0000 803f
000000f0: 0000 803f 0000 803f 0000 803f 0000 803f
1.0 1.0 1.0 1.0 1.0 1.0 1.0 1.0
1.0 1.0 1.0 1.0 1.0 1.0 1.0 1.0
1.0 1.0 1.0 1.0 1.0 1.0 1.0 1.0
1.0 1.0 1.0 1.0 1.0 1.0 1.0 1.0
1.0 1.0 1.0 1.0 1.0 1.0 1.0 1.0
1.0 1.0 1.0 1.0 1.0 1.0 1.0 1.0
1.0 1.0 1.0 1.0 1.0 1.0 1.0 1.0
1.0 1.0 1.0 1.0 1.0 1.0 1.0 1.0

weight f4 [32, 64]
00000000: c741 53bd 8ead a9bd 766e 053d 5cf5 bc3d
00000010: 8728 88bd fecb b83d 3aaf d8bd b1d8 193c
00000020: 88a4 e93d 5f4e 9ebd 05dc 033b 94d0 93ba
00000030: 44dc a6bd 93ca 9bbc 5d21 4d3d 66bb f6bc
00000040: 0fe9 fdbd 5cc7 453d 31b0 bc3b 77af c3bd
00000050: 91ea ba3c 9470 743d c8cf c0bd ad5a ba3d
00000060: 8c63 afbd c341 573c 0adc 52bd 3ae2 ab3b
00000070: 7a1a 4e3d 16d6 d4bd 7b1c 94bc 13bf c23d
00000080: fb37 a93c 60dd f7bd 4d67 8ebd 65b0 363d
00000090: 9c66 343c cec8 03be ffcf afbd 4b77 87bd
000000a0: 23b4 7dbd a186 a93d 4f9d e2bd b2a2 873b
000000b0: c2da 5c3d 74e8 9f3d 4a5f ffbc 20e7 cf3d
000000c0: 9d99 b6bc fc12 88bd ef69 033e 2520 d6bb
000000d0: 94fd 8cbd f5bf 843d 5015 ac3d 43cf 923d
000000e0: b397 e13c 6403 ab3d 365b c3bd d983 d83d
000000f0: ea3b 5ebd e9fd 9d3d c176 a6bd 817f a3bd
00000100: 4def f73c 15f2 a73c 7e28 35bd 66bc 51bd
00000110: 1818 af3d 3a83 8d3d f4ee edbd 0306 a03d
00000120: a3c4 073d 1eef 84bd 2680 f0bd 29c9 edbd
00000130: 3303 023e c087 233d a4e5 ce3d 7b4e f4bb
00000140: edf5 7dbd 8f18 1f3d 9235 793d 642f b93d
00000150: dd20 19bd e6e5 c03d b192 7abd fe72 eabc
00000160: 788e ddbd 9dc2 e9bd 771b 9bbc e5cb 873d
00000170: 5303 8abd 83a5 e9bc bf10 9bbb 5a23 3bbd
00000180: 9975 c5bd 22b0 f3bc b1f5 80bd b774 6c3d
00000190: 26ed a43d d4eb d9bd 1038 edbc 5533 ec3d
000001a0: a4be a7bd 5610 863d 73c3 4fbc fc10 2ebd
000001b0: 878b 7dbd c884 f83c 76d7 723d 263c 043d
000001c0: 401f 4c3d 92c9 803c 1083 92bd 6941 eebd
000001d0: b236 cbbd f526 97bd e757 743b 0660 c3bd
000001e0: 741c d63d 836c 16bc 2d79 5e3d 6f4f 083d
000001f0: 6545 55bb ea8a 9a3d b043 c03d fc62 dc3d
00000200: 513c 863b cc18 01bd 5ba7 c7bd 5975 32bb
00000210: a642 63bd f08b a4bd cf60 b3bc 1347 80bd
00000220: 1429 a73b 60be e03d 66a0 073e 9810 18be
00000230: ed04 7abd ca18 833c a66f 76bd c2d6 723d
00000240: fe0d 79bd e09e 523d 4cf8 85bd 2426 663c
00000250: d02d ebbc 6b36 c8bd aaf4 b1bd 2014 753d
00000260: 403e 83bd 6200 fa3d 7606 e93d 27d0 f23d
00000270: 819e b7bc 6bd6 f3bd fd40 3a3c 8f3d 813d
00000280: f5a7 49bd 007a 5f3d 0f5e 323e 9af1 65bd
00000290: 0c41 113d ef4a d2bd c475 9cbd 1cea 643d
000002a0: 5eb6 bbbd 6e83 aa3d 665c b03d 47aa 00bd
000002b0: 43d7 e53d 5e7b 37bd 9cec 503d 590e f8bd
000002c0: 8f65 5a3b 6a5c 4ebb 840a b23d 2a9c 84bd
000002d0: e806 053e 3535 f83c d049 6f3c 92af 9fbc
000002e0: 90b5 1cbd 6f8b d53c 9d69 83bd eeac ffbc
000002f0: 5448 83bd 8f7a 983c 0e6d 883d bd44 3fbd
00000300: 0767 b93d 574b 86bd b88e 6dbd d710 e53c
00000310: 8eaf 94bd bd7f 8f3d 2754 d33d 3443 27bd
00000320: a6a7 8e3a bf00 82bd 1849 953c 601e cabd
00000330: 57f8 4d3d 9e2f adbd d128 7ebd eeea d73d
00000340: f565 d63d 3652 593d 3cac babc df10 5dbc
00000350: 53b6 e2bd 0625 3a3d bd29 6e3c 080d 87bd
00000360: 11c5 5d3b 2807 fdbd 75b4 eabd 5a2a 70bd
00000370: 165b 35bc e6e5 a2bd 23ce 66bd dfb9 213d
00000380: 5d24 6fbc 3c0a b03d 562e d3bc 20a9 7f3d
00000390: 7f62 e33d 3e19 8e3c 3e53 813d c6bc c2bd
000003a0: 8da6 943d fa07 e43c 2271 613d 59a9 bdbd
000003b0: c89d 083d 42fc 013d 9806 d2bc 8fa4 8bbd
000003c0: 3ef6 d23d 0b9d 823d e5b9 c93d 043b 8cbd
000003d0: 0843 45bd 3b6e 8e3c 7973 b93c 0f63 fb3d
000003e0: 76aa f2bd ce42 5fbd bf65 e33c b61b 8f3d
000003f0: 3536 1abb 92d8 833c 9ed3 cabd a8b8 cb3c
-0.051576402 -0.08285056 0.032576047 0.09226486 -0.06648355 0.090232834 -0.10580297 0.009390042
0.11408335 -0.07729792 0.0020120156 -0.0011277371 -0.08147481 -0.019017493 0.050080646 -0.030118655
-0.12397968 0.048285827 0.0057583083 -0.09554952 0.022816928 0.059677675 -0.09414631 0.09099326
-0.08563909 0.013138237 -0.051479377 0.005245474 0.05031822 -0.10392396 -0.018079987 0.09509101
0.020656576 -0.12102771 -0.06953297 0.044601817 0.011010792 -0.1286957 -0.08584594 -0.0661455
-0.06193937 0.082776316 -0.110651605 0.004139268 0.05391956 0.07808009 -0.031173367 0.101515055
-0.022290045 -0.06644246 0.12833379 -0.0065345936 -0.06884304 0.064819254 0.084025025 0.07168438
0.027538156 0.08350256 -0.095388815 0.10572023 -0.054256357 0.07714445 -0.08128119 -0.07983304
0.030265475 0.020501176 -0.04422807 -0.05120506 0.085495174 0.06909795 -0.11617842 0.07813647
0.03314651 -0.064909205 -0.117431924 -0.11610634 0.12696533 0.039924383 0.10102394 -0.0074556447
-0.06200211 0.03884178 0.060842104 0.09042242 -0.037384856 0.0941885 -0.061175052 -0.028619286
-0.108181894 -0.11414073 -0.018933995 0.06630687 -0.06738915 -0.028521305 -0.004732221 -0.04568801
-0.096415706 -0.029747073 -0.06296862 0.057728495 0.08053045 -0.10640684 -0.028957397 0.11533228
-0.08190659 0.065460846 -0.012680876 -0.042496666 -0.06190064 0.030336753 0.05928751 0.032283925
0.04983449 0.015721116 -0.071539044 -0.1163357 -0.09922542 -0.07380477 0.003728384 -0.095397994
0.10454646 -0.009181145 0.05431478 0.03327888 -0.0032542583 0.07546027 0.0938791 0.10761067
0.0040965457 -0.03151779 -0.097487174 -0.002723059 -0.055483483 -0.080345035 -0.021896748 -0.06263556
0.0051013324 0.10973811 0.13244781 -0.1485008 -0.061039854 0.016003031 -0.06016507 0.05928684
-0.06080436 0.051421046 -0.065414995 0.014047179 -0.028708369 -0.097760044 -0.08689244 0.059833646
-0.064083576 0.12207104 0.113781855 0.11856108 -0.022414448 -0.11906131 0.0113680335 0.063105695
-0.049232442 0.054559708 0.17418693 -0.056138612 0.035462424 -0.10268199 -0.076396495 0.055887327
-0.09165643 0.083258495 0.086113736 -0.03141239 0.112226985 -0.044795386 0.0510069 -0.121121116
0.0033324694 -0.0031488189 0.08693412 -0.064750984 0.12990916 0.030298809 0.014605001 -0.019492898
-0.03825909 0.026067464 -0.064166285 -0.031210389 -0.0641028 0.018613128 0.066614255 -0.046696413
0.09052854 -0.06557339 -0.057997435 0.027962131 -0.07260047 0.07006786 0.10318785 -0.040835574
0.0010883703 -0.063477986 0.01822333 -0.09869075 0.050285663 -0.08456348 -0.062050644 0.10542856
0.104686655 0.053056918 -0.022787206 -0.013492792 -0.11069932 0.045445465 0.014536318 -0.065942824
0.0033839385 -0.123548806 -0.11460201 -0.05863414 -0.01106908 -0.07954006 -0.05634893 0.0394839
-0.014596072 0.08595702 -0.02577893 0.06241715 0.11102771 0.01734602 0.06314705 -0.09508662
0.072583295 0.027835835 0.055039532 -0.09260816 0.033353597 0.031734712 -0.02563791 -0.068184964
0.10300873 0.0637761 0.0984991 -0.06847194 -0.04815963 0.017386546 0.02263807 0.12274753
-0.11848919 -0.05450707 0.027758477 0.06987707 -0.0023530845 0.01609448 -0.09903644 0.024868324

bias f4 [32]
00000000: 9729 4c3d b9ab f43d 40a1 3f3c 1f42 70bd
00000010: f228 4f3d 181c 8bbb 9591 57bd 9329 a33c
00000020: 3b5b 873d 6038 17bd faf0 96bd e3db c5bd
00000030: 4325 813b ec9b abbd eb0a aa3c ab5b c5bd
00000040: aa55 a73d 84a9 843d 1666 7dbd 0abd ce3d
00000050: 28dc d53d a917 41bd d080 803d 2e38 293c
00000060: c8f1 59bd 403f ba3d fdb3 febb af91 bdbb
00000070: 2865 3fbb c01e 30bc 86f9 98bd 910c 6c3c
0.04984435 0.11946816 0.01169616 -0.058656808 0.050576158 -0.0042452924 -0.052629072 0.019917285
0.06609198 -0.036918998 -0.073701814 -0.09661081 0.0039412095 -0.08379349 0.02075716 -0.09636625
0.08170636 0.06477645 -0.061864935 0.1009465 0.10442382 -0.047141705 0.06274569 0.010328336
-0.053209096 0.09094095 -0.007772921 -0.005785189 -0.002920458 -0.010749519 -0.07469468 0.014407293

weight f4 [2, 32]
00000000: 0ad2 733d b9b8 0d3e 0522 503e 3430 5f3d
00000010: b793 06be e563 89be 6438 6abe fe77 a9be
00000020: e359 f43d 1c41 613d fe4f 273d 1ca6 dcbc
00000030: 861f 8bbe f3d6 703e 2258 41be 8f85 693c
00000040: eacc 97be 3e56 163e 97c9 093e 5463 563e
00000050: eae4 013f bf46 b93d 102f 8abe 0bb1 07be
00000060: e83f 5dbe 3d57 98be d711 723d 2b51 653d
00000070: 7e8a 8c3d 0ef8 b7bd 5131 13be 343f 7ebe
00000080: 514b c0bd 7c79 d93d ee07 e0bd c024 e63d
00000090: eb09 953e 58c7 cd3d baff a33e 486f 503e
000000a0: e8f9 8e3a b496 6f3d af16 7cbe 9fb5 043e
000000b0: b88a c43e 9a71 9c3d 5880 663e 6028 b7bd
000000c0: eca3 663e df74 99be 956c d83d 7f6c 06bd
000000d0: 3821 03bf 9f05 033d c76a 1c3e b30d 1f3e
000000e0: e743 d93c daf7 103e 903e 7ebc 15be 08be
000000f0: 1749 423e 4951 5b3e 0698 30be 2790 803e
0.05952648 0.13839997 0.20325477 0.05448933 -0.13142286 -0.26834026 -0.22873074 -0.3309936
0.11931207 0.054993734 0.04084777 -0.026934676 -0.27172488 0.23519497 -0.18881276 0.014253034
-0.29648525 0.14681336 0.13455807 0.20936328 0.5073992 0.09046697 -0.2698903 -0.1325113
-0.2160641 -0.29754058 0.059099045 0.05598561 0.06862353 -0.089828596 -0.14374281 -0.24828798
-0.093893655 0.106188744 -0.109390125 0.11237478 0.2910913 0.100477874 0.3203104 0.2035495
0.0010908218 0.05849333 -0.24618028 0.12959908 0.38387084 0.07638855 0.22509897 -0.08943248
0.22523469 -0.29971978 0.105675854 -0.032818314 -0.5122256 0.031987783 0.15275107 0.1553257
0.026521636 0.14157048 -0.015517846 -0.1335376 0.18973194 0.21417727 -0.17245492 0.2510998

bias f4 [2]
00000000: 88fc ca3d 1354 0a3e
0.09911448 0.13508634
