models/EMnist-alpha0.05-ratio0.5/server.pt (torch, 116143 bytes, 16 tensors)

weight f4 [6, 1, 3, 3]
0	0x3e5e03d1	0.21681143
1	0x3e382486	0.17982683
2	0x3ebd1cab	0.36935934
3	0xbe6e4ac3	-0.23270707
4	0x3e13bddb	0.14427893
5	0x3e9c89c2	0.3057385
6	0xbef1d847	-0.4723532
7	0xbeca504e	-0.39514393
8	0x3e4df567	0.20113145
9	0xbf18a14a	-0.5962111
10	0xbc8089e0	-0.015690744
11	0x3eaa5aac	0.33272302
12	0xbe7dcab1	-0.24784352
13	0x3e946c44	0.2898885
14	0x3e1da3b5	0.1539448
15	0x3dbda5a1	0.09260107
16	0x3e755460	0.23957968
17	0xbdd4dd16	-0.10393731
18	0xbe882919	-0.26593855
19	0x3da6ec8a	0.08150585
20	0xbf16139e	-0.58623683
21	0xbdffa553	-0.12482705
22	0xbe1b558d	-0.15169354
23	0x3e23f57b	0.16011612
24	0xbb541b00	-0.0032364726
25	0x3e3a3f4c	0.18188208
26	0x3e44270a	0.19155517
27	0xbe829f66	-0.25512236
28	0xbe2cae58	-0.16863382
29	0xbe206cca	-0.156665
30	0xbe7a8fee	-0.24468967
31	0xbe1ec5da	-0.15505162
32	0x3dae9b67	0.085257344
33	0x3e545968	0.20737231
34	0xbd7fc850	-0.062446892
35	0xbeb36749	-0.35039738
36	0x3d5fedbe	0.054670088
37	0xbe300257	-0.17188393
38	0xbe2334a1	-0.15938045
39	0xbea6e40c	-0.3259586
40	0xbe275d0e	-0.16344091
41	0xbebcc351	-0.36867765
42	0xbdd6f5f4	-0.104961306
43	0x3cdec960	0.027195632
44	0xba0aa4a7	-0.00052888173
45	0x3e14d4f5	0.14534362
46	0x3de330bd	0.110932805
47	0xbb8b546a	-0.0042520063
48	0x3e0453fb	0.12922661
49	0x3d59c7e3	0.053169142
50	0x3e256c5d	0.16154619
51	0x3e9936ac	0.29924524
52	0x3e7967c3	0.24355988
53	0x3e3fe7f8	0.18740833

bias f4 [6]
0	0xbda67063	-0.08126905
1	0xbc732106	-0.014839416
2	0xbd8abb76	-0.067740366
3	0x3e46908c	0.19391078
4	0x3d17a19c	0.037019357
5	0x3e9df562	0.30851275

weight f4 [6]
0	0x3f846322	1.0342753
1	0x3f5e6013	0.8686535
2	0x3f83b857	1.0290631
3	0x3f962c6f	1.173231
4	0x3f908eed	1.1293617
5	0x3f47207e	0.77783954

bias f4 [6]
0	0xbceee4f6	-0.029161911
1	0xbdae8f8d	-0.08523474
2	0xbe5342cd	-0.20630951
3	0x3d306fa8	0.043075234
4	0x3d7a4249	0.06109837
5	0xbbab691d	-0.0052310363

running_mean f4 [6]
0	0x00000000	0.0
1	0x00000000	0.0
2	0x00000000	0.0
3	0x00000000	0.0
4	0x00000000	0.0
5	0x00000000	0.0

running_var f4 [6]
0	0x3f800000	1.0
1	0x3f800000	1.0
2	0x3f800000	1.0
3	0x3f800000	1.0
4	0x3f800000	1.0
5	0x3f800000	1.0

weight f4 [16, 6, 3, 3]
0	0xbc85d26d	-0.01633569
1	0xbe13da50	-0.14438748
2	0xbc79686c	-0.01522265
3	0x3e383fb7	0.17993055
4	0x3e943385	0.28945556
5	0x3e0efb4a	0.13963047
6	0xbca36f09	-0.019950407
7	0xbe3a748f	-0.18208526
8	0xbd6ae0b9	-0.05734322
9	0xbcbcee11	-0.023062738
10	0xbd4b444d	-0.049625684
11	0x3dc4156c	0.095743984
12	0xbe13e7ff	-0.14443968
13	0xbdd72fea	-0.10507186
14	0xbd521e40	-0.05129838
15	0xbd81e7ce	-0.06343041
16	0xbd914dec	-0.070949405
17	0xbe0f8d4b	-0.14018743
18	0x3d96240a	0.07331093
19	0x3c9e6723	0.019336289
20	0x3e72ae99	0.23699416
21	0x3c0b526b	0.008503537
22	0xbd61f394	-0.055163935
23	0x3de46ba9	0.11153347
24	0x3e0ee804	0.13955694
25	0x3d05e46e	0.03268855
26	0x3d63e913	0.0556422
27	0x3d32bced	0.043637205
28	0xbcb55b7e	-0.022138353
29	0xbcb29a1f	-0.021802006
30	0xbd050003	-0.032470714
31	0xbdd7a111	-0.10528768
32	0x3d3d08d9	0.046151016
33	0x3cf0c872	0.029392455
34	0x3dad47c4	0.08460954
35	0x3d8236df	0.06358122
36	0xbda3c5ff	-0.07996749
37	0xba75a0e2	-0.00093699817
38	0xbd157837	-0.0364916
39	0xbda6b0b3	-0.081391715
40	0xbd844185	-0.06457809
41	0xbd5e4cd3	-0.054272484
42	0xbddad55e	-0.10685228
43	0x3d8aef1f	0.0678389
44	0x3da5f777	0.08103841
45	0x3de0bcb6	0.10973494
46	0x3e41ffe1	0.18945266
47	0x3e17de4a	0.1483089
48	0xbe0217ff	-0.12704466
49	0x3c1bb528	0.00950364
50	0x3df86430	0.12128484
51	0xbdb68e8a	-0.08913906
52	0xbde1764f	-0.11008894
53	0xbd6c1af8	-0.057642907
54	0xbdb2a4a3	-0.08722808
55	0xbde6b466	-0.11264877
56	0xbd7078c3	-0.058708917
57	0x3e7fd955	0.2498525
58	0x3e47cdc8	0.19512093
59	0x3e0cafa3	0.13738875
60	0x3e2e7479	0.17036618
61	0x3e287cf0	0.1645391
62	0x3cf36546	0.029711377
63	0x3d3235b0	0.04350823
64	0xbcdf3d25	-0.027250836
65	0xbe0a4ae0	-0.13505125
66	0xbd85d39b	-0.06534501
67	0x3d2ed94c	0.0426877
68	0xbe14af19	-0.1451992
69	0xbe4c2c6d	-0.19938822
70	0xbddf6dd5	-0.10909621
71	0x3c1fc34c	0.009751152
72	0xbd99c0ea	-0.075074986
73	0xbdba9082	-0.09109594
74	0x3dc01a5d	0.093800284
75	0x3cc64074	0.024200656
76	0x3c261b13	0.010138291
77	0xbdca3bf6	-0.09874718
78	0x3d654e82	0.055983074
79	0xbe034ad2	-0.1282151
80	0xbe061620	-0.13094378
81	0xbc533a7c	-0.012892362
82	0x3e30fb2c	0.17283314
83	0x3e4ce570	0.20009398
84	0xbd9f56ca	-0.077802256
85	0x3dfbba5f	0.12291407
86	0xbd04fcf9	-0.032467816
87	0xbcdeed32	-0.027212713
88	0x3d26b638	0.04070112
89	0xbe24e4bb	-0.16102879
90	0x3d06b4a9	0.032887135
91	0x3d9d0e00	0.07668686
92	0xbc6720f9	-0.014106982
93	0xbe4e4b90	-0.20146012
94	0xbe2b1866	-0.16708526
95	0xbe37e076	-0.17956719
96	0xbe629487	-0.22126971
97	0xbdbcaf3d	-0.092131115
98	0x3c2c4ef2	0.010516869
99	0x3b8063e7	0.0039181593
100	0xbe3f64ac	-0.18690747
101	0xbcb7aa20	-0.02241999
102	0xbd4b1c6e	-0.04958766
103	0xbe6b8c80	-0.23002815
104	0x3c568686	0.013093596
105	0x3c0c3b10	0.0085590035
106	0xbdb116b4	-0.086469084
107	0x3bf53c85	0.007484021
108	0xbe005892	-0.12533787
109	0xbe3357f2	-0.17514017
110	0xbde443c4	-0.11145738
111	0x3dc2c2c3	0.09509804
112	0x3d833ed1	0.06408466
113	0xbd5a0b1b	-0.053233247
114	0xbdc675ab	-0.09690412
115	0xbd3c6aaa	-0.04600016
116	0xbd5b893c	-0.053597674
117	0xbd13977b	-0.036033135
118	0x3e03c232	0.12867048
119	0x3d900d43	0.070337795
120	0x3d945f14	0.07244697
121	0x3d83da4e	0.06438123
122	0x3e071554	0.1319173
123	0x3bd4a71e	0.0064896485
124	0xbe4057a7	-0.18783437
125	0xbe371413	-0.17878751
126	0x3d96a7fd	0.0735626
127	0x3df38d21	0.118921526
128	0x3d806f6d	0.06271253
129	0x3e2afe74	0.16698629
130	0x3e40fc04	0.18846136
131	0xbd9b6169	-0.07586939
132	0x3dedcae6	0.116109654
133	0x3d86dd34	0.0658516
134	0xbd9498d5	-0.07255713
135	0xbdcdd8b9	-0.10051102
136	0xbd3600fa	-0.044434525
137	0xbe11817d	-0.14209552
138	0xbdc03474	-0.09385005
139	0xbdbedb52	-0.09319176
140	0xbe81158f	-0.2521176
141	0xbe17b8ac	-0.1481654
142	0xbdf069b5	-0.11738912
143	0xbe15e333	-0.14637451
144	0x3c9e2619	0.019305276
145	0x3da9fbc3	0.08299973
146	0x3d78da80	0.060755253
147	0xbda3bc41	-0.07994891
148	0xbde79206	-0.11307149
149	0xbe157b78	-0.14597881
150	0xbddd3918	-0.108019054
151	0xbc9926e6	-0.018695306
152	0x3c43ed89	0.011958488
153	0xbd8ab5b8	-0.06772941
154	0xbd9405f3	-0.07227697
155	0x3d419b88	0.047267467
156	0x3dbb4498	0.091439426
157	0x3d1553a0	0.036456704
158	0x3cc1b838	0.023647413
159	0x3cd1ca90	0.025609285
160	0xbdd103bb	-0.1020579
161	0xbe6bb973	-0.23019962
162	0x3e80f5e7	0.2518761
163	0x3e87b476	0.26504868
164	0x3de61ab1	0.1123556
165	0xbdb92e30	-0.09042013
166	0xbd66c442	-0.05633951
167	0x3de21a94	0.110402256
168	0x3cca1f20	0.024673045
169	0xbd95f406	-0.073219344
170	0x3bc39f3b	0.0059699095
171	0xbdf7688c	-0.120804876
172	0xbd5c48af	-0.053780254
173	0xbdbe7974	-0.09300509
174	0xbe14d143	-0.14532952
175	0xbdce1950	-0.10063422
176	0xbdc7ecd1	-0.09761966
177	0xbd4c01fc	-0.04980658
178	0xbd97ee54	-0.07418504
179	0xbdd2c059	-0.10290594
180	0xbd34e272	-0.044161268
181	0x3d7e5208	0.06208995
182	0xbd8c6b38	-0.06856388
183	0xbdc1c029	-0.0946048
184	0x3e0d03aa	0.13770929
185	0x3d8544e8	0.065072834
186	0x3e05ad15	0.13054307
187	0x3d8b8717	0.06812876
188	0x3bc02136	0.005863334
189	0xbd9bce98	-0.07607764
190	0xbe209f38	-0.15685737
191	0xbd162cf2	-0.036663957
192	0x3d9f07e9	0.077651806
193	0xbe0230ae	-0.12713882
194	0xbdb4250b	-0.08796128
195	0x3e02facd	0.12790985
196	0x3d69356e	0.05693572
197	0x3e0357e3	0.12826495
198	0x3e03a6b5	0.12856562
199	0x3d3ef894	0.04662378
200	0xbd1e0694	-0.038580492
201	0xbcfa9839	-0.030590164
202	0x3d22f34f	0.03978282
203	0x3e088f2b	0.13335864
204	0xbdc74bc2	-0.097312465
205	0x3d8f2573	0.06989565
206	0xbd831f17	-0.06402414
207	0xbdd7a19a	-0.1052887
208	0x3ca57204	0.020195968
209	0x3d890570	0.0669049
210	0xbd2d1448	-0.04225567
211	0xbd3438be	-0.043999426
212	0xbd462ca0	-0.0483824
213	0x395a1e99	0.00020801499
214	0xbdd8d9f3	-0.105884455
215	0xbd2dd2d9	-0.042437408
216	0xbceb9b30	-0.028760523
217	0xbdb38df6	-0.08767311
218	0xbdc93dc9	-0.09826238
219	0x3d6c5ed2	0.057707615
220	0xbce25ab1	-0.027631136
221	0xbdc00432	-0.093758
222	0xbcd2c484	-0.025728472
223	0xbdc45abc	-0.09587619
224	0x3da15dce	0.0787922
225	0xbdc4116a	-0.09573634
226	0x3befb4af	0.0073152403
227	0xbd6e79b5	-0.058221538
228	0x3d28f51c	0.04124938
229	0xbdcc9f79	-0.099913545
230	0xbe04d6b8	-0.12972534
231	0x3c1c8be0	0.009554833
232	0xbc8bfbf0	-0.017087907
233	0xbd268987	-0.0406585
234	0x3e073ce4	0.13206822
235	0xbde4c636	-0.11170618
236	0x3cd04ae4	0.025426336
237	0x3dab6580	0.08368969
238	0xbd2e6564	-0.042577162
239	0x3d006f77	0.0313563
240	0xba964ef5	-0.0011467623
241	0xbda798dc	-0.081834525
242	0x3de99f0c	0.11407289
243	0xbc0308d5	-0.007997711
244	0xbd6b1184	-0.05738975
245	0x3deee277	0.116642885
246	0x3e100985	0.14066131
247	0xbdf851c9	-0.12124974
248	0xbd9b66e5	-0.07587985
249	0x3e3ceb8b	0.18449228
250	0x3dfee199	0.12445373
251	0xbda7ca99	-0.08192939
252	0xbdb79e44	-0.08965734
253	0x3cdeeb6f	0.027211873
254	0xbdb1e698	-0.086865604
255	0x3e372b32	0.17887571

bias f4 [16]
0	0xbd437f14	-0.047728613
1	0x3d994653	0.074841164
2	0xbde05f9f	-0.10955738
3	0x3c000223	0.007813009
4	0x3dc53f4a	0.09631212
5	0x3d18f366	0.037341498
6	0x3d890046	0.06689505
7	0xbd7df4a7	-0.062000897
8	0x3c0b21f6	0.008491984
9	0xbdb9c234	-0.090702444
10	0x3d3642cb	0.044497292
11	0xbac50d15	-0.0015033806
12	0x3db371af	0.08761918
13	0xbd0fca48	-0.03510502
14	0xbd998a69	-0.07497103
15	0x3de63463	0.11240461

weight f4 [16]
0	0x3f8e9867	1.114026
1	0x3f8239c6	1.0173881
2	0x3f982ec7	1.1889275
3	0x3f90c0c6	1.130883
4	0x3f777313	0.96659964
5	0x3f7257d3	0.9466526
6	0x3f8b83d9	1.0899612
7	0x3f807f5c	1.0038867
8	0x3f88fb35	1.0701662
9	0x3f687dde	0.9081706
10	0x3f759e23	0.9594442
11	0x3f7743fb	0.96588105
12	0x3f9ed2ea	1.2408116
13	0x3f883a86	1.064286
14	0x3f8fc046	1.1230552
15	0x3f84a9c8	1.0364313

bias f4 [16]
0	0xbe8cd71f	-0.27507874
1	0xbe252f3a	-0.16131297
2	0xbe76e86d	-0.24112101
3	0xbe8442d6	-0.25832242
4	0xbea1ccc3	-0.31601533
5	0xbe91e25d	-0.28493014
6	0xbe066eac	-0.13128155
7	0xbe8f004a	-0.27929908
8	0xbe4fed47	-0.20305358
9	0xbe4695fb	-0.1939315
10	0xbe884289	-0.26613262
11	0xbe8a5c94	-0.27023757
12	0xbde363cd	-0.1110302
13	0xbe2507ba	-0.16116229
14	0xbe3117cb	-0.17294233
15	0xbe8449bb	-0.25837502

running_mean f4 [16]
0	0x00000000	0.0
1	0x00000000	0.0
2	0x00000000	0.0
3	0x00000000	0.0
4	0x00000000	0.0
5	0x00000000	0.0
6	0x00000000	0.0
7	0x00000000	0.0
8	0x00000000	0.0
9	0x00000000	0.0
10	0x00000000	0.0
11	0x00000000	0.0
12	0x00000000	0.0
13	0x00000000	0.0
14	0x00000000	0.0
15	0x00000000	0.0

running_var f4 [16]
0	0x3f800000	1.0
1	0x3f800000	1.0
2	0x3f800000	1.0
3	0x3f800000	1.0
4	0x3f800000	1.0
5	0x3f800000	1.0
6	0x3f800000	1.0
7	0x3f800000	1.0
8	0x3f800000	1.0
9	0x3f800000	1.0
10	0x3f800000	1.0
11	0x3f800000	1.0
12	0x3f800000	1.0
13	0x3f800000	1.0
14	0x3f800000	1.0
15	0x3f800000	1.0

weight f4 [32, 784]
0	0x3d2105ed	0.039312292
1	0x3d5e3b27	0.05425563
2	0x3c2a27af	0.010385438
3	0x3a04f6dd	0.0005072186
4	0x3c907bdc	0.017637186
5	0x3bea5471	0.0071511795
6	0x3d4b0f49	0.049575124
7	0x3cf21f85	0.029556045
8	0x3c5a392e	0.013319297
9	0xbcb97d31	-0.022642704
10	0xbbe834c9	-0.0070863706
11	0xbcffb4b4	-0.031214096
12	0xbc88676c	-0.016650878
13	0x3c98a7b7	0.01863466
14	0xbc890adb	-0.01672881
15	0xbd0f0e1c	-0.034925565
16	0xbcd4e5d8	-0.025988504
17	0xbd2735e6	-0.040822886
18	0xbc28a041	-0.010292114
19	0xbd595c04	-0.05306627
20	0xbd49323f	-0.049120184
21	0x3cf6a720	0.030108988
22	0xbd091155	-0.033463795
23	0xbd79f210	-0.061021864
24	0xbc95565e	-0.01822966
25	0xbd6a96a5	-0.057272572
26	0xbd17f1f3	-0.037095975
27	0xbd3071b2	-0.04307718
28	0xbcd9ffd9	-0.026611255
29	0xbc8d7bf4	-0.01727102
30	0x3d0901b6	0.033448897
31	0x3cb8fb77	0.022580845
32	0xbb5a10d1	-0.0033274184
33	0x3a2968fe	0.00064624834
34	0x3b8c23fb	0.00427675
35	0xbd043c98	-0.03228435
36	0x3c74f146	0.014950102
37	0x3d690f0d	0.05689912
38	0x3d65ccc3	0.05610348
39	0xbbbcc140	-0.005760342
40	0x39d0fa0a	0.00039859145
41	0xbc2d3d87	-0.010573751
42	0x3d005615	0.031332094
43	0x3c3f742e	0.011685414
44	0x3d62aaac	0.055338547
45	0xbccb4e0e	-0.024817493
46	0xbdc57a3b	-0.09642454
47	0xbc873abd	-0.0165075
48	0xbbe2ecda	-0.0069252076
49	0x3d4f0c9f	0.050549146
50	0x3cf0d063	0.029396242
51	0x3d706333	0.058688354
52	0x3c00185f	0.0078183105
53	0x3a395e40	0.0007071234
54	0x3d8cb5ea	0.06870635
55	0x3ca055dc	0.019572191
56	0x3bb8c0fb	0.0056382394
57	0x3c842889	0.01613261
58	0xbcd6bd77	-0.02621339
59	0x3c0c3314	0.0085571
60	0x3cd1a199	0.025589751
61	0xba46bdc0	-0.00075813755
62	0xbd3b17ae	-0.04567688
63	0xbc84bc5d	-0.0162031
64	0x3ba2a71b	0.004963768
65	0xbd9b2db2	-0.07577075
66	0xbd288262	-0.041139968
67	0xbcf38552	-0.029726658
68	0xbc4c68c6	-0.012476152
69	0x3cb11b76	0.02161954
70	0x3b1a70c4	0.0023565749
71	0xbd15738a	-0.03648714
72	0xbd203c95	-0.039120276
73	0xbdb5c067	-0.088745885
74	0xbd40ada6	-0.047040604
75	0xbdb8fc30	-0.09032476
76	0xbd616636	-0.055029117
77	0x39a12d97	0.0003074228
78	0x3ac4fc5c	0.0015028822
79	0x3d3a945b	0.04555164
80	0x3d3c4fef	0.045974668
81	0xbd2a08ee	-0.041512422
82	0xbd5b91d5	-0.053605873
83	0xbd642628	-0.05570045
84	0xbbf462dc	-0.007458074
85	0x3b21f381	0.002471179
86	0x3d7a663f	0.061132666
87	0x3d308947	0.043099668
88	0xbc7879d8	-0.015165769
89	0xbd29e611	-0.041479174
90	0xbc677428	-0.014126815
91	0x3ccb0fd5	0.024787823
92	0x3ba98d6b	0.005174329
93	0x3c80fa8f	0.015744476
94	0xbd588119	-0.052857492
95	0xbd2c4f7a	-0.042067982
96	0xbd4efbbb	-0.050533038
97	0xbd196f09	-0.037459407
98	0x3c85e67c	0.016345255
99	0x3cd97d2f	0.02654895
100	0xbbb6e87a	-0.0055819126
101	0xbc241666	-0.010015106
102	0x3ca63f2d	0.020293796
103	0x3c5ac76d	0.013353211
104	0xbc895b11	-0.016767057
105	0xbc1a992f	-0.009435936
106	0xbc42982e	-0.011877103
107	0x3da7ff7d	0.082030274
108	0x3e10ca4d	0.14139672
109	0xbd868060	-0.06567454
110	0xbdba5ab7	-0.09099334
111	0x3c984341	0.018586757
112	0xbd6f1635	-0.058370788
113	0xbd659328	-0.056048542
114	0x3d2844cc	0.041081235
115	0x3d819938	0.06328052
116	0x3c844243	0.016144877
117	0xbd7fce01	-0.06245232
118	0xbb6519c6	-0.003495799
119	0xbc06f814	-0.008237857
120	0xbdaf0e03	-0.085475944
121	0xbbf32c04	-0.0074210186
122	0x3d819541	0.06327296
123	0x3cdcf161	0.026970567
124	0xbd1b891c	-0.037972555
125	0xbd2104ae	-0.039311104
126	0x382db534	4.1415173e-05
127	0xbdc5f4cc	-0.09665832
128	0xbd03a4c1	-0.032139543
129	0xbca75a6d	-0.02042886
130	0x3d568417	0.052372064
131	0x3d0419b7	0.032251086
132	0xbcc2706f	-0.023735253
133	0xbc49a76a	-0.012307981
134	0xbd226635	-0.039648253
135	0xbd9726aa	-0.073804215
136	0x3d3fdddd	0.046842445
137	0xbd8a0ef3	-0.067411326
138	0xbd640868	-0.05567208
139	0xbb39e7b9	-0.0028366877
140	0x3c8c60be	0.017135974
141	0x3c9a2bfb	0.0188198
142	0x3c7c1a22	0.01538709
143	0x3c58c733	0.013231087
144	0xbc2ff02f	-0.010738417
145	0xbca99859	-0.020702528
146	0xbc8f11dd	-0.017464573
147	0x3c95fab7	0.018308027
148	0x3c8aad02	0.0169282
149	0xbd11c875	-0.03559156
150	0x3c6b1548	0.014348336
151	0xbd07bd65	-0.033139605
152	0x3cd672cd	0.026177788
153	0x3d170b7e	0.036876194
154	0x3a9786e9	0.0011560592
155	0xbd0ac6fa	-0.033881165
156	0x3c1bcd43	0.009509387
157	0x3bfca8f0	0.0077105686
158	0x3c748407	0.014924056
159	0xbb9d6169	-0.004802872
160	0xbd0bde2f	-0.034147438
161	0xbd08d743	-0.033408415
162	0xbcf5c009	-0.029998796
163	0xbc53681a	-0.012903238
164	0x3d8e5730	0.069502234
165	0x3cfd741d	0.030939156
166	0xbdb40f69	-0.08792002
167	0xbd5cdc8c	-0.053921267
168	0xbd18c3f2	-0.037296243
169	0x3c7cf257	0.015438638
170	0xbd2cb662	-0.04216612
171	0xbd96a408	-0.07355505
172	0xbd55f82e	-0.052238636
173	0xbd50f103	-0.051011097
174	0xbd288a19	-0.041147325
175	0x3c31e136	0.010856917
176	0x3c593aec	0.013258677
177	0x3d8bb98f	0.06822502
178	0x3d080a6e	0.03321307
179	0xbd415bd6	-0.047206722
180	0xbd7f1be2	-0.06228245
181	0xbcc10cf1	-0.023565741
182	0xbd168158	-0.036744446
183	0x3ae38517	0.001735839
184	0x3d82aecd	0.06380997
185	0x3d1ead1d	0.038739312
186	0xbd7f61fb	-0.0623493
187	0xbd07f972	-0.033196874
188	0xbd44f90e	-0.04808908
189	0xbb8115ea	-0.00393938
190	0x3d797f80	0.06091261
191	0x3ca8f4a8	0.020624474
192	0x3b142ade	0.0022608559
193	0xbcefb24a	-0.02925982
194	0x3d4c5f50	0.049895585
195	0xbc79da6a	-0.015249828
196	0xbae49d67	-0.0017441929
197	0x3c823210	0.015893012
198	0x3d8da1a3	0.069155954
199	0x3c927a44	0.017880566
200	0xbcd5288c	-0.02602031
201	0x3d34e4e8	0.044163615
202	0x3caf3841	0.021389129
203	0xbd026daf	-0.031842884
204	0x3cb6ad31	0.022299381
205	0x3c960952	0.018314991
206	0xbd5a5ffa	-0.053314187
207	0xbd20e9f2	-0.039285608
208	0xbcf63c52	-0.03005806
209	0x3d88f020	0.06686425
210	0x3ccc3ba1	0.024930777
211	0x3d543645	0.051809568
212	0xbd716587	-0.058934715
213	0xbcb096a8	-0.021556213
214	0xbce8ad83	-0.02840305
215	0x3b90cd72	0.0044190222
216	0x3c6a3240	0.014294207
217	0x3c986e96	0.018607419
218	0xbcf30959	-0.029667543
219	0x3c83487d	0.016025776
220	0x3bc77e6f	0.00608807
221	0x3cc9e153	0.024643576
222	0x3ce26bb8	0.027639255
223	0x3bc0ab5f	0.005879804
224	0xbcc91bac	-0.024549328
225	0xbcf6985b	-0.030101946
226	0xbd727fcc	-0.059203908
227	0x3d441ea5	0.047880787
228	0xb90182d8	-0.00012351142
229	0x3cd4136c	0.025888167
230	0xbb79920c	-0.0038081435
231	0x3d017e8b	0.03161482
232	0x3ce73642	0.028224114
233	0x3c59941d	0.013279942
234	0x3ba0fa0a	0.0049126195
235	0x3d071b58	0.03298506
236	0x3d3016b5	0.042990405
237	0x3c54764a	0.012967655
238	0x3ab75b1d	0.0013988946
239	0x3d1167a9	0.03549925
240	0x3d261a17	0.040552225
241	0xbc5c724f	-0.013454988
242	0x3cdd9837	0.02705012
243	0x3d0b936d	0.034076143
244	0x3d62ea07	0.055398967
245	0x3c4b8c11	0.012423531
246	0x3d521a7b	0.051294785
247	0xbc71886d	-0.014741999
248	0xbccd92d9	-0.025094436
249	0xbb094b0a	-0.0020949268
250	0x3ac8b03c	0.0015311311
251	0x3d1633b5	0.036670405
252	0xbb451905	-0.0030074727
253	0xbc9bf369	-0.019036965
254	0xbcc54e1a	-0.024085093
255	0x3b27c6b4	0.0025600614

bias f4 [32]
0	0x3cc846a8	0.024447754
1	0x3d80d6bd	0.06290958
2	0xbc3f6c63	-0.011683556
3	0xbb8b751c	-0.004255904
4	0xbc3b2bca	-0.011424014
5	0xbc33f220	-0.01098302
6	0xbd6f8355	-0.058474857
7	0xbc4ce4aa	-0.01250569
8	0x3d3473a7	0.044055607
9	0xbd7b1bdb	-0.061305862
10	0x3d1ee384	0.038791195
11	0x3cd8f871	0.026485654
12	0x3ce763f0	0.028245896
13	0x3b6edc10	0.0036447085
14	0xbc214a9c	-0.009844448
15	0x3d093451	0.03349716
16	0x3c081bb3	0.008307385
17	0x3c058c63	0.008151147
18	0xbd180db5	-0.037122447
19	0xbd076d15	-0.033063013
20	0xbd1d02d0	-0.03833276
21	0xbc83f274	-0.016106822
22	0xbc835e05	-0.016036043
23	0x3ca7c3c0	0.020479083
24	0x3b98a775	0.0046586343
25	0x3d0f2ffe	0.03495788
26	0xbd45b751	-0.048270527
27	0xbc9a0723	-0.018802231
28	0x3d3ed93a	0.046593882
29	0x3cf05b2a	0.029340345
30	0xbba5ea59	-0.005063337
31	0x3c6d89e8	0.014498211

weight f4 [26, 32]
0	0x3e78a634	0.24282151
1	0xbd9bb492	-0.076028004
2	0xbe725745	-0.23666103
3	0xbe414631	-0.18874432
4	0x3ea82cf8	0.32846808
5	0x3e28a447	0.16468917
6	0x3db2ae7a	0.08724685
7	0x3d1a1327	0.03761592
8	0xbee1d6f4	-0.4410931
9	0x3e0b6b1b	0.13615076
10	0xbdcbf9df	-0.099597685
11	0xbc951004	-0.018196113
12	0xbdab0244	-0.083500415
13	0x3c41492e	0.011797233
14	0xbe0ad4eb	-0.13557784
15	0xbdbc7b22	-0.09203173
16	0xbdab266a	-0.08356936
17	0x3d926aa0	0.07149243
18	0xbd9e7675	-0.07737438
19	0x3c8fe330	0.017564386
20	0xbe061397	-0.1309341
21	0x3b232e7c	0.0024899533
22	0x3eb790d6	0.3585269
23	0xbe280bb0	-0.16410708
24	0x3d301f1d	0.042998422
25	0x3e132917	0.14371143
26	0x3e312ca3	0.17302184
27	0x3d818eff	0.063261025
28	0xbeec8467	-0.46194765
29	0xbd875549	-0.06608064
30	0x3e30f43e	0.17280671
31	0xbcd3c315	-0.025849858
32	0xbe1850c1	-0.14874555
33	0xbdde1a84	-0.10844901
34	0xbec79353	-0.38979587
35	0xbe55400c	-0.20825213
36	0x3e198b71	0.14994599
37	0x3e8991f4	0.26869166
38	0xbec2de59	-0.38060263
39	0x3d3e7f0b	0.046507876
40	0x3d9a1b9b	0.075247966
41	0x3e33e1a5	0.17566545
42	0xbeaa87c3	-0.33306703
43	0x3e1bcf43	0.15215783
44	0x3dda2ada	0.106527045
45	0x3de7bcb1	0.11315287
46	0x3d8140f8	0.0631122
47	0xbcf97734	-0.030452348
48	0xbc1f425d	-0.009720412
49	0xbb80dd76	-0.00393265
50	0x3e80c638	0.2515123
51	0xbe615fcb	-0.22009198
52	0xbb236c2c	-0.0024936302
53	0x3e8e0d1d	0.2774438
54	0x3e7230d1	0.23651434
55	0xbd228ee3	-0.03968705
56	0x3df76c22	0.120811716
57	0xbd5a3cc3	-0.053280603
58	0xbcaa0b63	-0.020757383
59	0x3e57d205	0.2107621
60	0x3e773b07	0.24143611
61	0xbd2101e0	-0.03930843
62	0x3e56a78d	0.20962353
63	0x3df3a194	0.11896053
64	0x3e975c96	0.29562825
65	0xbe1e4bc2	-0.15458587
66	0x3ec12c81	0.37729266
67	0xbea3b046	-0.31970423
68	0x3e3ba84f	0.18325923
69	0x3e3b1bb7	0.18272291
70	0x3d77cf89	0.060500655
71	0xbd93ed59	-0.07223005
72	0xbe1af556	-0.1513265
73	0xbe2d861a	-0.16945687
74	0x3ddc8cfc	0.10769078
75	0xbda65e51	-0.08123458
76	0xbabe0a6d	-0.0014498957
77	0xbd203a28	-0.039117962
78	0xbda512be	-0.080602154
79	0xbd3cdb63	-0.04610766
80	0xbdc299c5	-0.095019855
81	0x3e0a56f8	0.13509738
82	0x3ce2ed92	0.027701173
83	0xbc8dab50	-0.017293602
84	0x3e1f3f32	0.15551451
85	0x3e060f52	0.13091782
86	0xbcf065d2	-0.029345427
87	0x3e125cad	0.14293166
88	0x3e8737d3	0.26409778
89	0xbe4f04b7	-0.20216642
90	0xbd8dbe86	-0.06921105
91	0x3ea26fac	0.31725824
92	0xbd292c1f	-0.041301843
93	0xbd8b2901	-0.0679493
94	0xbe30e0ab	-0.17273204
95	0x3e46021d	0.19336744
96	0x3db010c5	0.085969485
97	0x3e2f891f	0.17142151
98	0xbe9d9e34	-0.30784762
99	0x3ddb928f	0.10721313
100	0x3e4a9b5a	0.19785824
101	0x3c86cf36	0.016456228
102	0xbea70112	-0.32618004
103	0xbe5dc841	-0.21658422
104	0x3d235b94	0.039882258
105	0xbe1cf3f6	-0.15327439
106	0xbb640f67	-0.003479922
107	0x3e4b39f2	0.19846323
108	0xbdbeef2f	-0.093229644
109	0xbdc5d76a	-0.096602276
110	0xbe7127e8	-0.2355038
111	0xbe2bc978	-0.16776073
112	0x3bf55c9d	0.007487847
113	0x3ea67e1f	0.32518098
114	0x3d6d012a	0.05786244
115	0x3dbd2aaf	0.09236657
116	0x3e6352fa	0.22199622
117	0xbdbb8e57	-0.091580085
118	0x3e53f074	0.20697194
119	0x3d1bbfce	0.038024716
120	0x3d639eec	0.05557148
121	0xbe765989	-0.24057592
122	0x3e433b6f	0.19065641
123	0x3e85ec4d	0.26156846
124	0x3d3ea4d3	0.046543907
125	0xbe4a8ae4	-0.19779545
126	0x3e99bd37	0.30027172
127	0x3e3fdaa2	0.18735746
128	0x3d17e5f1	0.037084524
129	0xbecf0061	-0.40429977
130	0x3e739d8a	0.23790565
131	0xbe54747a	-0.20747557
132	0xbe4167d8	-0.1888727
133	0x3e5d41f2	0.21607187
134	0x3eebb8ee	0.46039528
135	0xbde219dc	-0.110400885
136	0xbe8994da	-0.26871377
137	0x3eac75aa	0.3368352
138	0xbd2dea55	-0.042459805
139	0xbe2b6e12	-0.16741207
140	0xbe489aca	-0.19590297
141	0xba414f00	-0.00073741376
142	0xbe63a8be	-0.22232339
143	0xbd69bca0	-0.057064652
144	0x3e066a58	0.13126504
145	0xbda4a1d3	-0.08038678
146	0x3d9d0b4d	0.07668171
147	0x3dd1e289	0.10248286
148	0x3eb63337	0.3558595
149	0x3cdc0b6d	0.026860917
150	0x3e10d592	0.1414397
151	0xbe387963	-0.18015055
152	0x3e9690dd	0.29407397
153	0xbe4d6d34	-0.20061189
154	0x3d40815b	0.046998363
155	0xbdbc0cfc	-0.09182164
156	0x3e170eeb	0.14751785
157	0xbdf7ba11	-0.12096036
158	0xbd62094d	-0.05518465
159	0x3d970d8f	0.07375633
160	0xbe88e2f9	-0.26735666
161	0xbc6d8dba	-0.014499122
162	0x3db1df78	0.086852014
163	0xbe86956e	-0.2628588
164	0x3de4876b	0.111586414
165	0x3de993dd	0.11405156
166	0x3d3d0110	0.04614359
167	0x3df06c87	0.1173945
168	0x3d31bd6b	0.043393534
169	0xbdc4d85d	-0.096115805
170	0xbdc873fe	-0.09787749
171	0xbe887e0b	-0.26658663
172	0xbd8d7a55	-0.069080986
173	0xbd589ecd	-0.05288582
174	0x3de9e6e6	0.114209935
175	0x3e3c41a3	0.18384413
176	0x3eaae9a7	0.33381388
177	0xbe98911d	-0.29798213
178	0xbe5bc449	-0.21461596
179	0xbccb0107	-0.024780763
180	0xbe80b265	-0.25136104
181	0xbf03b2e4	-0.5144484
182	0xbeebf9a7	-0.46088907
183	0x3d5e959e	0.054341905
184	0xbe572f8f	-0.21014236
185	0x3eaaa805	0.33331314
186	0xbe525577	-0.20540415
187	0xbc30ac85	-0.010783319
188	0xbd3ca836	-0.046058856
189	0x3db7a159	0.089663215
190	0x3d29ae33	0.041425895
191	0x3e14a1f5	0.14514907
192	0x3d01bf2f	0.031676468
193	0xbe0ed9ec	-0.13950318
194	0x3e4bbb0d	0.19895573
195	0xbd8c500e	-0.06851207
196	0x3e286724	0.16445595
197	0x3e6f4d29	0.23369278
198	0xbd99030c	-0.07471284
199	0x3db34d58	0.087549865
200	0xbc1b440b	-0.009476672
201	0xbdbf62c4	-0.0934501
202	0xbcd967f9	-0.026538836
203	0x3e472d05	0.19450767
204	0x3d976e05	0.073940314
205	0xbcd39cbe	-0.025831576
206	0x3e2bb4d2	0.16768196
207	0x3cde04a1	0.027101817
208	0x3dd41033	0.10354652
209	0xbdfdc11d	-0.12390349
210	0xbd4f2125	-0.05056872
211	0x3e6ccf0c	0.23125857
212	0xbe79eef2	-0.24407557
213	0x3d4b5302	0.04963971
214	0x3e54abfa	0.20768729
215	0x3dd08895	0.10182301
216	0xbdfab0e6	-0.12240772
217	0xbdbac86a	-0.09120257
218	0x3f07e568	0.5308442
219	0xbd97b386	-0.07407288
220	0xbd8d7e6c	-0.06908879
221	0x3e0a8933	0.135289
222	0x3d040fea	0.03224174
223	0x3e0d1829	0.13778748
224	0xbeab7b52	-0.33492523
225	0x3bc26446	0.0059323637
226	0xbe5c823d	-0.21534057
227	0x3e95c776	0.2925374
228	0xbd26674e	-0.040625863
229	0x3ce9d2ad	0.02854284
230	0xbe8552ab	-0.26039633
231	0x3d0340f6	0.032044373
232	0x3d0972f3	0.03355689
233	0x3d737c28	0.059444577
234	0xbe1daa23	-0.15396933
235	0x3e06838e	0.13136122
236	0x3ddef738	0.10886997
237	0xbe65d0c1	-0.22442915
238	0xbdba997e	-0.091113076
239	0xbed87b56	-0.42281598
240	0x3ea21024	0.3165294
241	0xbed96374	-0.4245869
242	0x3e8eaed0	0.27867746
243	0x3e26b57b	0.16280167
244	0x3de99dcc	0.114070505
245	0xbdf67982	-0.120348945
246	0xbe04b74a	-0.12960544
247	0xbd8db0a9	-0.06918461
248	0x3e689b43	0.22715478
249	0x3cf77073	0.030204987
250	0x3bf10048	0.00735477
251	0x3d4c2a5a	0.049845077
252	0xbc5d8d23	-0.013522419
253	0xbd5b2503	-0.053502094
254	0x3d908db9	0.070582815
255	0xbe1a5da4	-0.15074784

bias f4 [26]
0	0xbd4b14e5	-0.049580473
1	0x3dc6c054	0.097046524
2	0xbe3d6e00	-0.18498993
3	0xbd511249	-0.05104283
4	0xbdd241f7	-0.10266488
5	0x3daa7fd6	0.08325164
6	0x3e42e226	0.19031581
7	0x3df1aee6	0.11800937
8	0x3d06f24b	0.032945912
9	0x3de6ee58	0.11275929
10	0x3dbfc84e	0.09364377
11	0x3d629b6d	0.055324007
12	0xbde68d34	-0.11257401
13	0x3ca7a9fd	0.020466799
14	0xbde32924	-0.11091831
15	0x3ae5f4a0	0.0017544217
16	0x3e0f88d3	0.14017038
17	0xbe479768	-0.1949135
18	0xbe11209b	-0.14172594
19	0x3e84bdef	0.25926158
20	0xbe1d69ec	-0.15372437
21	0x3da90929	0.082537
22	0x3db92719	0.090406604
23	0xbe22c661	-0.15895988
24	0xbe2e783e	-0.17038056
25	0xbe1d8660	-0.15383291
