models/Mnist-alpha10-ratio0.5/server.pt (torch, 114762 bytes, 16 tensors)

weight f4 [6, 1, 3, 3]
0.01081292 0.098717555 0.15145034 -0.060304534 0.111973174 0.0977496 -0.14269006 -0.25063962
-0.064222746 -0.23998411 0.0820115 0.13675478 -0.044936363 0.27669224 0.018771164 0.123221844
0.10671052 -0.24997196 -0.06660839 0.19888477 -0.37561134 0.045760673 0.05335389 0.22892728
0.04061114 0.20402569 0.096993744 -0.17170267 -0.18086855 -0.15356857 -0.25177947 -0.22379693
0.04398623 0.23336183 -0.035816662 -0.2374426 0.11874655 -0.088156514 -0.025161328 -0.23838925
-0.13175166 -0.34854347 0.040670056 0.07430054 0.009488744 0.14686188 0.1302991 0.027947683
0.06890972 0.047409613 0.19507217 0.23798749 0.21642998 0.19574153
00000000: ac28 313c 6e2c ca3d cc15 1b3e e301 77bd
00000010: 3152 e53d f130 c83d 581d 12be d653 80be
00000020: 3787 83bd 65be 75be a5f5 a73d 7209 0c3e
00000030: 310f 38bd 9baa 8d3e fcc5 993c bc5b fc3d
00000040: 0c8b da3d a6f8 7fbe fb69 88bd 73a8 4b3e
00000050: 2150 c0be 8b6f 3b3d 9c89 5a3d ea6b 6a3e
00000060: de57 263d 1cec 503e a8a4 c63d d3d2 2fbe
00000070: 9b35 39be 1441 1dbe 3de9 80be 062b 65be
00000080: e82a 343d 67f6 6e3e 7eb4 12bd 2724 73be
00000090: 6431 f33d 678b b4bd 211f cebc 501c 74be
000000a0: e8e9 06be 4a74 b2be a595 263d e22a 983d
000000b0: ad76 1b3c f662 163e 216d 053e 8af2 e43c
000000c0: 8a20 8d3d 9530 423d 00c1 473e feb2 733e
000000d0: d29f 5d3e 7870 483e

bias f4 [6]
-0.081269875 -0.014839201 -0.06774066 0.19391078 0.037019357 0.3085123
00000000: d270 a6bd 1f20 73bc 9dbb 8abd 8c90 463e
00000010: 9ca1 173d 53f5 9d3e

weight f4 [6]
1.0713522 0.9511798 0.95108336 1.0209746 0.9882301 1.0054038
00000000: 1222 893f 8580 733f 337a 733f 4caf 823f
00000010: a6fc 7c3f 12b1 803f

bias f4 [6]
-0.0211764 -0.044308636 0.05014966 0.017531112 0.006520027 0.09393511
00000000: 217a adbc f97c 35bd bb69 4d3d 689d 8f3c
00000010: f3a5 d53b 0d61 c03d

running_mean f4 [6]
0.0 0.0 0.0 0.0 0.0 0.0
00000000: 0000 0000 0000 0000 0000 0000 0000 0000
00000010: 0000 0000 0000 0000

running_var f4 [6]
1.0 1.0 1.0 1.0 1.0 1.0
00000000: 0000 803f 0000 803f 0000 803f 0000 803f
00000010: 0000 803f 0000 803f

weight f4 [16, 6, 3, 3]
0.093698 -0.088395625 0.11391758 0.19215678 0.18177235 0.100077614 0.055004552 -0.08399327
-0.018910933 0.060283333 -0.034415375 0.05202621 -0.043690708 0.034232806 -0.019058637 0.0063707707
-0.08028199 -0.09806819 0.01791991 -0.02586318 0.1146501 0.04501145 -0.089836426 0.055931058
0.029200746 -0.0912422 -0.009467084 0.084789865 -0.039973218 -0.035450045 0.0073855696 -0.06124821
0.10158573 0.03135791 0.10194971 0.07785208 -0.07613658 -0.048020132 -0.050222497 -0.03255865
-0.037600223 -0.0066090156 -0.11559765 0.07532264 0.07971317 0.07990832 0.13441506 0.10237793
-0.09024275 0.014620875 0.10643918 -0.12155293 -0.14338931 -0.02187011 -0.04387628 -0.016378466
0.012091933 0.19737336 0.051973633 0.07241775 0.14329728 0.1138078 -0.10761248 0.038621783
0.06075869 -0.0747217 -0.07373503 0.017383058 -0.09356068 -0.111662924 -0.06426682 0.030430228
-0.04858615 -0.12632655 0.039071664 0.09852296 0.08430576 -0.06229808 0.15231255 0.07581929
-0.07192485 0.014145913 0.15500441 0.14417626 0.022158679 0.13676913 -0.04916848 0.04192247
0.088421956 -0.09904084 0.06797113 0.04293022 -0.05434699 -0.01900426 -0.05587872 -0.10907701
-0.13683894 -0.019309651 0.09721015 0.05912897 -0.107080504 0.06441566 0.05512895 -0.093667135
0.04394276 0.08668131 -0.013324798 0.049292378 -0.06234641 -0.15360384 -0.02308626 0.023833415
0.05202289 0.027209202 -0.06734401 -0.029475309 -0.08567831 -0.03171121 0.11948453 0.08947506
-0.008461676 0.05132718 0.1339595 -0.008806609 -0.104210965 -0.08639826 -0.05784278 0.04884669
0.1204403 0.0628056 0.06813489 -0.09961374 0.022116033 0.038118996 -0.048138674 -0.04640767
0.029579591 -0.11741748 0.053221602 0.08527763 -0.12785847 -0.09132856 -0.060752682 -0.1231008
-0.0037128613 0.081799746 0.0371853 -0.04491082 -0.033513594 -0.07106626 -0.11262248 -0.03068669
0.011445827 -0.09425812 -0.0949325 0.037496217 0.04476843 -0.00021843889 0.062858865 0.0873337
-0.0027648178 -0.10285723 0.1250802 0.13621838 0.06909865 0.0014332866 0.06197895 0.16545929
0.015845126 0.0075787553 0.00052612374 0.050268512 0.0380044 -0.0064894427 -0.110745735 -0.0916564
-0.034982465 -0.041536808 -0.0883306 -0.008737782 0.0053646 0.09966398 -0.04842341 -0.12451288
0.13305184 0.09964267 0.074070215 0.0685849 0.03498686 -0.037816 -0.051750746 0.030446872
0.08192174 -0.08958346 -0.07208205 0.105996065 0.032315806 0.07763434 0.14716235 0.100427285
0.0125973355 -0.046268944 0.03200134 0.103994146 -0.10351754 0.032213666 -0.1244036 -0.03891209
0.062772386 0.0875486 0.008447804 -0.012332498 -0.029033737 -0.0014040662 -0.1290668 -0.024738044
0.01804668 -0.014101641 0.038379095 0.14734882 0.13162766 0.078210495 -0.041266844 -0.07969396
0.09003831 -0.08310585 0.093755566 0.005134788 0.054299407 -0.029264534 -0.10269104 0.011098286
0.0034574815 -0.07102339 0.12862445 -0.03976014 0.11969464 0.054321676 0.035224777 0.054530714
-0.014856858 -0.07714294 0.041332193 -0.029567944 -0.013925277 0.14977214 0.12885381 -0.0918135
-0.022255821 0.078429654 0.09182903 -0.08401307 -0.078330874 0.07659802 -0.08238347 0.08835253
00000000: bde4 bf3d c408 b5bd 9f4d e93d bfc4 443e
00000010: 8822 3a3e 7ef5 cc3d 744c 613d aa04 acbd
00000020: 1aeb 9abc a8eb 763d 23f7 0cbd 6f19 553d
00000030: 07f5 32bd b337 0c3d dc20 9cbc e6c1 d03b
00000040: e26a a4bd fad7 c8bd c6cc 923c 05df d3bc
00000050: accd ea3d ed5d 383d 29fc b7bd f717 653d
00000060: 6736 ef3c 31dd babd d41b 1bbc 4fa6 ad3d
00000070: f5ba 23bd 1134 11bd a602 f23b 67df 7abd
00000080: 2e0c d03d 2771 003d 02cb d03d e970 9f3d
00000090: 7fed 9bbd c2b0 44bd 1bb6 4dbd 385c 05bd
000000a0: b102 1abd 7190 d8bb 76be ecbd c242 9a3d
000000b0: a940 a33d f9a6 a33d 1aa4 093e 85ab d13d
000000c0: 31d1 b8bd 658c 6f3c c9fc d93d bef0 f8bd
000000d0: a6d4 12be f228 b3bc 9db7 33bd 222c 86bc
000000e0: 3e1d 463c 3e1c 4a3e 4ee2 543d c24f 943d
000000f0: 86bc 123e 1014 e93d ef63 dcbd e031 1e3d
00000100: 1bde 783d b107 99bd 6402 97bd ea66 8e3c
00000110: be9c bfbd 88af e4bd 539e 83bd d048 f93c
00000120: 4502 47bd bf5b 01be 9c09 203d 68c6 c93d
00000130: 80a8 ac3d 462c 7fbd d2f7 1b3e 2547 9b3d
00000140: 564d 93bd 42c4 673c 7ab9 1e3e f1a2 133e
00000150: 1e86 b53c 350d 0c3e e364 49bd e5b6 2b3d
00000160: 9216 b53d edd5 cabd 7334 8b3d 99d7 2f3d
00000170: f39a 5ebd d2ae 9bbc 16e1 64bd c463 dfbd
00000180: 821f 0cbe 462f 9ebc 1d16 c73d 3831 723d
00000190: 064d dbbd 5cec 833d e5ce 613d 8ed4 bfbd
000001a0: 53fd 333d f885 b13d 4150 5abc cee6 493d
000001b0: f35e 7fbd 534a 1dbe 651f bdbc 4b3e c33c
000001c0: f415 553d d5e5 de3c a8eb 89bd 3476 f1bc
000001d0: 1c78 afbd 9de3 01bd 4eb4 f43d b33e b73d
000001e0: d7a2 0abc 733c 523d ae2c 093e 9849 10bc
000001f0: 8f6c d5bd 92f1 b0bd 8dec 6cbd 7813 483d
00000200: 67a9 f63d 39a0 803d 4e8a 8b3d 4a02 ccbd
00000210: af2c b53c aa22 1c3d 0f2d 45bd f815 3ebd
00000220: e650 f23c 9378 f0bd e5fe 593d 0aa6 ae3d
00000230: 55ed 02be 780a bbbd ced7 78bd 461c fcbd
00000240: 7a53 73bb a086 a73d 9d4f 183d 68f4 37bd
00000250: 8d45 09bd 308b 91bd 9da6 e6bd a762 fbbc
00000260: 4787 3b3c 670a c1bd f86b c2bd a295 193d
00000270: 1a5f 373d be0c 65b9 26bc 803d 03dc b23d
00000280: f231 35bb d0a6 d2bd 0615 003e d57c 0b3e
00000290: 9883 8d3d 1edd bb3a a4dd 7d3d 296e 293e
000002a0: a3cd 813c 3557 f83b 91eb 093a 5be6 4d3d
000002b0: 80aa 1b3d 64a5 d4bb a9ce e2bd 5ab6 bbbd
000002c0: c649 0fbd 8022 2abd ace6 b4bd ea28 0fbc
000002d0: 87c9 af3b a11c cc3d a057 46bd 9c00 ffbd
000002e0: be3e 083e 7511 cc3d 20b2 973d 3d76 8c3d
000002f0: 624e 0f3d f3e4 1abd 97f8 53bd b86b f93c
00000300: 96c6 a73d 8877 b7bd c19f 93bd 7714 d93d
00000310: 945d 043d c1fe 9e3d bab1 163e d2ac cd3d
00000320: 0e65 4e3c 8184 3dbd d613 033d e2fa d43d
00000330: 0101 d4bd 7af2 033d 51c7 febd 4962 1fbd
00000340: cf8e 803d ae4c b33d a868 0a3c 3f0e 4abc
00000350: 29d8 edbc a508 b8ba 162a 04be 70a7 cabc
00000360: a2d6 933c 920a 67bc 6633 1d3d 9ce2 163e
00000370: 67c9 063e d32c a03d 6c07 29bd 9636 a3bd
00000380: 0166 b83d 6633 aabd eb02 c03d b941 a83b
00000390: 0e69 5e3d 2dbc efbc ae4f d2bd 96d5 353c
000003a0: ea96 623b b674 91bd 21b6 033e 87db 22bd
000003b0: 7722 f53d 6880 5e3d db47 103d 995b 5f3d
000003c0: 2e6a 73bc 1efd 9dbd f24b 293d 7938 f2bc
000003d0: d826 64bc de5d 193e 41f2 033e b708 bcbd
000003e0: d751 b6bc ba9f a03d dc10 bc3d 0b0f acbd
000003f0: f06b a0bd 6cdf 9c3d aab8 a8bd 2cf2 b43d

bias f4 [16]
-0.047728658 0.074841216 -0.10955744 0.007812994 0.096312135 0.037341498 0.06689497 -0.062000886
0.00849197 -0.090702325 0.04449725 -0.0015034118 0.08761913 -0.03510496 -0.07497107 0.112404466
00000000: 207f 43bd 5a46 993d a75f e0bd 1202 003c
00000010: 4c3f c53d 66f3 183d 3b00 893d a4f4 7dbd
00000020: e721 0b3c 24c2 b9bd c042 363d 210e c5ba
00000030: a971 b33d 38ca 0fbd 6f8a 99bd 5034 e63d

weight f4 [16]
1.2069627 1.1393828 1.1620412 1.2401395 1.12778 1.1860545 1.2084495 1.2473823
1.1383901 1.1892686 1.2046613 1.2226573 1.1635699 1.173797 1.1381859 1.1921182
00000000: c17d 9a3f 4cd7 913f c4bd 943f e4bc 9e3f
00000010: 185b 903f a2d0 973f 79ae 9a3f 39aa 9f3f
00000020: c4b6 913f f439 983f 5732 9a3f 0980 9c3f
00000030: dcef 943f fb3e 963f 13b0 913f 5497 983f

bias f4 [16]
0.06790513 0.03802853 0.047587745 0.083073676 0.026783032 0.06433899 0.06955908 0.068674035
0.05293166 0.08003031 0.052955154 0.08545745 0.048944287 0.07118447 0.056505278 0.07170233
00000000: d811 8b3d cec3 1b3d 5eeb 423d 8822 aa3d
00000010: 1768 db3c 29c4 833d fe74 8e3d f9a4 8c3d
00000020: dece 583d eee6 a33d 81e7 583d 5104 af3d
00000030: ce79 483d 2ac9 913d 1472 673d acd8 923d

running_mean f4 [16]
0.0 0.0 0.0 0.0 0.0 0.0 0.0 0.0
0.0 0.0 0.0 0.0 0.0 0.0 0.0 0.0
00000000: 0000 0000 0000 0000 0000 0000 0000 0000
00000010: 0000 0000 0000 0000 0000 0000 0000 0000
00000020: 0000 0000 0000 0000 0000 0000 0000 0000
00000030: 0000 0000 0000 0000 0000 0000 0000 0000

running_var f4 [16]
1.0 1.0 1.0 1.0 1.0 1.0 1.0 1.0
1.0 1.0 1.0 1.0 1.0 1.0 1.0 1.0
00000000: 0000 803f 0000 803f 0000 803f 0000 803f
00000010: 0000 803f 0000 803f 0000 803f 0000 803f
00000020: 0000 803f 0000 803f 0000 803f 0000 803f
00000030: 0000 803f 0000 803f 0000 803f 0000 803f

weight f4 [32, 784]
0.03504603 0.018953808 -0.022597007 -0.021074207 -0.007709257 -0.030140825 0.011161443 0.023307934
0.029256681 -0.011883406 -0.028188461 -0.031122139 -0.00021495578 0.032351322 -0.0079342015 0.017946687
-0.040368296 -0.09909548 -0.047093496 -0.031238558 -0.03119873 0.0315947 -0.032984715 -0.048222046
-0.05657243 -0.064970404 -0.025838813 -0.027510611 -0.018103471 0.0043076817 0.0059531964 -0.03181828
0.042535894 0.019053822 0.012484685 -0.023747742 0.0061495802 0.014905915 0.0071879113 0.005069321
0.01656784 0.0043503335 0.019465255 -0.020651627 0.031660754 0.078992814 0.0054940097 0.005395492
-0.010050338 0.02829544 -0.023636239 0.0010977 -0.037094604 -0.04366672 0.020072725 -0.040421534
0.007793694 0.010684876 -0.0010723385 -0.03391749 -0.014797559 0.0004895392 -0.02104882 -0.008662683
0.014003446 -0.02411694 0.008836729 -0.055733863 -0.0011694524 0.020949174 0.0011149637 -0.028610144
-0.031279568 0.025887473 -0.015355377 -0.03832773 -0.004629246 -0.006044616 -0.000983981 0.017701842
0.031886633 -0.022907449 -0.037548196 -0.014453653 -0.004622156 0.00034299828 0.008641235 0.04584938
0.017886383 0.022610273 0.010486303 0.032194 -0.004956297 0.024229854 -0.0518212 0.002445294
-0.0179177 -0.028249608 -0.0030400534 0.0025917343 -0.03127407 -0.027272638 0.00475931 0.0063594244
-0.03902715 0.0018865389 -0.0032206704 0.028553793 0.036585 0.0057778 0.010006855 -0.0047251396
-0.034317385 -0.010774126 0.006127134 0.042392418 -0.020797035 -0.0026587325 0.0067209713 0.011402897
-0.002494875 0.020115472 0.008898488 0.009302856 -0.0012434727 -0.02011958 0.008745163 -0.0086921
0.013014888 -0.008087722 0.036781456 0.049669787 -0.01733116 0.0030589309 -0.04719489 -0.048452508
-0.04239443 -0.04562336 -0.038311146 -0.0028833393 0.017489968 -0.008386685 -0.0070828856 -0.017298019
-0.00045795977 0.008916445 -0.017337197 0.03289419 0.014412417 -0.034701616 0.024044394 -0.032057647
0.015526513 0.028798027 0.012626838 -0.032116972 0.0074355304 0.005862481 0.01007684 -0.0008588115
-0.03130321 -0.020448988 -0.017834429 -0.020565627 -0.0074490663 -0.025465677 -0.016761115 -0.005233602
-0.0357437 0.0076302374 -0.020995492 -0.08848073 -0.07854953 0.006591915 -0.005384378 0.013082426
0.011758248 0.025023242 -0.03476584 -0.04994244 -0.0014199744 0.03701854 -0.03261528 -0.028375996
0.10641422 0.04429666 -0.0058870274 -0.010300992 -0.0022849895 0.008794953 0.014839452 -0.010531081
0.03564439 0.04091878 0.032947812 -0.00028809145 -0.0061750724 -0.014555087 0.028305395 -0.029872276
-0.032307595 0.02610639 -0.0017601117 -0.018648725 -0.03829631 -0.0061300592 0.0054699364 -6.841656e-05
0.005937965 0.02265561 0.03375135 0.0034687545 -0.027594427 -0.079012014 -0.046124034 -0.012634506
0.009046206 0.01821287 -0.010013868 0.039963048 -0.070842706 -0.07476722 0.027729586 0.011109876
-0.018442964 0.0053684153 -0.020623194 -0.006773795 -0.035555195 0.01862008 -0.0016016585 0.02641994
0.03240012 0.04573548 -0.015421124 0.023899432 0.02785958 -0.016035674 -0.010166346 0.010171818
0.035627443 0.014146891 0.024696397 0.030003233 0.02902084 0.0006829974 0.026538275 -0.035261333
-0.03747487 0.0013660139 -0.008864764 0.012781021 0.0076883966 -0.002612605 -0.031618007 -0.015749518
00000000: 6d8c 0f3d 0445 9b3c 5c1d b9bc d1a3 acbc
00000010: ef9d fcbb e4e9 f6bc 7cde 363c 48f0 be3c
00000020: b5ab ef3c 9eb2 42bc 7deb e6bc dbf3 febc
00000030: c165 61b9 d282 043d 74fe 01bc ee04 933c
00000040: 3a59 25bd 92f2 cabd 1ce5 40bd 01e8 ffbc
00000050: 7b94 ffbc 7269 013d fb1a 07bd 7b84 45bd
00000060: 7eb8 67bd 340f 85bd ebab d3bc ef5d e1bc
00000070: bb4d 94bc 7427 8d3b 0813 c33b e353 02bd
00000080: 1e3a 2e3d c316 9c3c 908c 4c3c a08a c2bc
00000090: 6b82 c93b f037 743c 9288 eb3b 8c1c a63b
000000a0: 47b9 873c 3e8d 8e3b 9975 9f3c 9a2d a9bc
000000b0: b5ae 013d fcc6 a13d 1807 b43b abcc b03b
000000c0: 2caa 24bc d7cb e73c c9a0 c1bc b3e0 8f3a
000000d0: 83f0 17bd e0db 32bd 8e6f a43c 0d91 25bd
000000e0: 3e62 ff3b 9e0f 2f3c b68d 8cba 11ed 0abd
000000f0: 7671 72bc 6b54 003a 936e acbc eded 0dbc
00000100: b66e 653c e490 c5bc eec7 103c 3149 64bd
00000110: 5048 99ba 9a9d ab3c f923 923a d25f eabc
00000120: 011f 00bd f711 d43c 1f95 7bbc 8afd 1cbd
00000130: eeb0 97bb ea11 c6bb ecf8 80ba 7403 913c
00000140: 8f9b 023d 67a8 bbbc 23cc 19bd 04cf 6cbc
00000150: 7475 97bb 73d4 b339 f793 0d3c 8fcc 3b3d
00000160: 7786 923c 2e39 b93c bece 2b3c dbdd 033d
00000170: 6f68 a2bb b07d c63c 7742 54bd 3a41 203b
00000180: 24c8 92bc b96b e7bc a23b 47bb 16da 293b
00000190: 3d19 00bd de6a dfbc fcf3 9b3b b862 d03b
000001a0: efda 1fbd be45 f73a e211 53bb a5e9 e93c
000001b0: 27da 153d b353 bd3b cbf3 233c 58d5 9abb
000001c0: 6390 0cbd f685 30bc 20c6 c83b aca3 2d3d
000001d0: 8b5e aabc 213e 2ebb 983b dc3b 37d3 3a3c
000001e0: 0f81 23bb 34c9 a43c f7ca 113c 026b 183c
000001f0: 05fc a2ba d1d1 a4bc df47 0f3c 4f69 0ebc
00000200: 663c 553c 5d82 04bc 27a8 163d 8c72 4b3d
00000210: 14fa 8dbc 5878 483b 6e4f 41bd 2376 46bd
00000220: c8a5 2dbd 8fdf 3abd 26ec 1cbd 68f6 3cbb
00000230: 1f47 8f3c 4e68 09bc 8d17 e8bb 93b4 8dbc
00000240: 521a f0b9 4816 123c bd06 8ebc 0fbc 063d
00000250: 0f22 6c3c 4823 0ebd c0f8 c43c e14e 03bd
00000260: ea62 7e3c d7e9 eb3c cce0 4e3c 168d 03bd
00000270: c0a5 f33b 0e1a c03b 5519 253c dd21 61ba
00000280: cb37 00bd a384 a7bc 8219 92bc 3f79 a8bc
00000290: 4c17 f4bb 659d d0bc 9b4e 89bc a37e abbb
000002a0: fc67 12bd 1207 fa3b bdfe abbc 6335 b5bd
000002b0: 93de a0bd fe00 d83b 706f b0bb ac57 563c
000002c0: aba5 403c 8bfd cc3c a066 0ebd 7290 4cbd
000002d0: 6f1e baba c1a0 173d 9a97 05bd c774 e8bc
000002e0: b3ef d93d 6a70 353d f7e7 c0bb 7ec5 28bc
000002f0: c3bf 15bb b518 103c 2c21 733c 8e8a 2cbc
00000300: daff 113d 739a 273d 49f4 063d fb0a 97b9
00000310: 4358 cabb 7678 6ebc b7e0 e73c b4b6 f4bc
00000320: f854 04bd 11dd d53c 8cb3 e6ba 36c5 98bc
00000330: 97dc 1cbd aade c8bb 273d b33b dc7a 8fb8
00000340: 4393 c23b 4298 b93c db3e 0a3d 0b54 633b
00000350: b50d e2bc 0dd1 a1bd 8eec 3cbd f600 4fbc
00000360: 8a36 143c 2833 953c 3511 24bc 4bb0 233d
00000370: fb15 91bd 8e1f 99bd 2829 e33c 3306 363c
00000380: b315 97bc 88e9 af3b f9f1 a8bc b6f6 ddbb
00000390: 53a2 11bd 2389 983c beee d1ba a16e d83c
000003a0: fdb5 043d 2055 3b3d e2a8 7cbc bec8 c33c
000003b0: c639 e43c 3f5d 83bc bf90 26bc b2a7 263c
000003c0: 15ee 113d 5dc8 673c 1950 ca3c 57c9 f53c
000003d0: 1dbd ed3c 2e0b 333a cc66 d93c 306e 10bd
000003e0: 407f 19bd d20b b33a 843d 11bc 7d67 513c
000003f0: f2ee fb3b 3d38 2bbb e281 01bd 2205 81bc

bias f4 [32]
0.02203315 -0.009957907 0.018895514 -0.020854572 0.008032749 -0.0068400437 -0.0026369083 -0.031478662
-0.02397811 -0.04368176 0.006731486 0.030079333 -0.0012627889 -0.038458943 -0.036796108 -0.0035636511
-0.008761608 0.0013726308 -0.025361005 -0.013365992 -0.007218378 -0.01926501 -0.00539544 -0.019862898
0.008285305 0.020909337 -0.0016483114 -0.029998953 -1.5256779e-05 0.022939635 0.0044584787 0.0201818
00000000: dd7e b43c 7d26 23bc c4ca 9a3c 35d7 aabc
00000010: cb9b 033c 7222 e0bb fbcf 2cbb c5ef 00bd
00000020: be6d c4bc a5eb 32bd cc93 dc3b ef68 f63c
00000030: 2a84 a5ba 2087 1dbd 84b7 16bd 258c 69bb
00000040: d98c 0fbc d9e9 b33a e2c1 cfbc 09fd 5abc
00000050: 2588 ecbb a7d1 9dbc 3bcc b0bb 84b7 a2bc
00000060: 17bf 073c 0f4a ab3c 270c d8ba 5dc0 f5bc
00000070: 5ef7 7fb7 e7eb bb3c 6e18 923b 4d54 a53c

weight f4 [10, 32]
0.27988747 -0.21641812 -0.11423775 0.23498897 0.28632766 0.08084665 0.045231756 -0.11304615
-0.27228272 0.09315184 0.049172156 -0.06367138 -0.09493457 -0.110834174 -0.1331736 -0.119482286
0.15950307 0.19349116 -0.050992563 0.2022663 -0.26806307 0.28108165 0.046078365 -0.33913502
-0.33957905 0.20301189 0.02948127 0.04788704 -0.35353076 0.155535 0.118153244 -0.12495732
-0.17657104 -0.17129432 -0.19670875 -0.22352804 -0.052858427 0.052150562 -0.18677726 0.12039258
0.22144374 0.22640042 -0.29420036 -0.16872512 0.13036773 0.32184628 0.10272269 -0.09321749
-0.012025204 -0.0011091358 0.2584615 -0.23365672 0.01360611 0.23907332 0.029039903 0.084033795
-0.0783523 0.06891078 -0.019890333 0.065459535 0.2870063 -0.093590245 -0.16639279 -0.027663166
0.07087804 -0.2619546 0.08422052 -0.264506 0.08706193 0.39774314 -0.2511093 -0.022124436
-0.08547074 -0.2839176 0.18174148 0.22034034 -0.03486817 -0.25384507 -0.056058805 -0.24901898
-0.12262656 -0.09626636 0.32127884 -0.05176966 -0.14335343 0.33516833 -0.012736161 -0.060428124
0.23061655 -0.0599462 -0.012878308 0.36142606 -0.009876365 -0.18054289 0.09900576 0.022485439
-0.21585141 -0.022320943 -0.123245984 0.009074498 -0.018192166 0.100701295 -0.21133468 -0.07334037
0.0605854 -0.22555089 -0.014211895 -0.002691621 -0.28380772 -0.12793043 -0.18804978 -0.20095523
0.26043248 0.254719 -0.10795092 0.15192644 -0.06259091 -0.17302574 0.2624341 -0.028819067
0.06531452 -0.14975367 0.082339615 0.14415058 0.46634197 -0.31009367 0.12565689 0.1619623
0.33475482 0.017464444 0.29173803 0.10472283 -0.2980798 0.039482947 0.2659915 -0.068223745
0.041159626 -0.032438606 0.1694459 -0.2641016 -0.10226258 0.037913617 -0.027404837 0.3147727
-0.05154003 -0.041743375 -0.17906828 -0.05365493 0.173076 -0.010865355 0.11166575 0.28025407
0.1353833 -0.21361223 0.19229738 -0.21256593 0.08856173 -0.01312865 -0.021358099 -0.123343706
-0.29293492 -0.16661179 0.05356133 -0.0778362 0.31738707 -0.16592622 0.036509413 0.035412706
-0.084318854 -0.14727582 -0.090566464 -0.13302396 -0.28923637 -0.1993863 -0.06768162 -0.10865453
0.16410506 -0.15514845 -0.16712542 -0.0381713 -0.02467643 -0.48627087 -0.40215313 -0.035178777
-0.15712218 0.121363156 -0.020702073 -0.018090107 -0.2013764 -0.031298317 0.05672191 0.060075957
0.20072141 -0.07402369 0.13556094 -0.26149184 0.26391068 0.045646995 -0.15615894 0.0654501
-0.051827524 -0.19102766 -0.31065795 0.20077696 0.19435033 0.12546307 0.12646504 0.16431452
-0.10891019 -0.13092779 -0.13099614 0.00034980878 -0.14358862 0.04771553 0.06703159 -0.081240654
-0.2649957 -0.19474848 0.32204816 -0.2779748 -0.15339865 0.19233963 -0.081580736 0.23531727
-0.17045641 0.3224189 -0.21755642 0.22086495 -0.13083994 0.25393385 0.04674676 0.11512849
-0.14914788 0.20988742 0.14036661 0.1297969 0.10814905 -0.009426138 0.034933843 -0.1056686
0.17759363 -0.15459345 0.031154722 0.13726795 -0.0366275 -0.058494173 0.30553776 0.047736228
0.44103268 0.22411363 0.07491626 0.11970401 -0.06897557 -0.1417359 0.26763582 -0.13539027
00000000: 694d 8f3e b69c 5dbe 7bf5 e9bd f3a0 703e
00000010: 8a99 923e ee92 a53d ef44 393d bd84 e7bd
00000020: a468 8bbe 64c6 be3d be68 493d 2466 82bd
00000030: 0e6d c2bd 07fd e2bd a95e 08be 21b3 f4bd
00000040: c654 233e 8c22 463e 94dd 50bd e61e 4f3e
00000050: 903f 89be efe9 8f3e abbc 3c3d 1ba3 adbe
00000060: 4edd adbe 59e2 4f3e b482 f13c 3325 443d
00000070: fc01 b5be 9144 1f3e 54fa f13d a0e9 ffbd
00000080: 0acf 34be c767 2fbe 056e 49be 89e4 64be
00000090: 1482 58bd d49b 553d 8a42 3fbe 6390 f63d
000000a0: 26c2 623e 83d5 673e 6ea1 96be 47c6 2cbe
000000b0: 1e7f 053e 09c9 a43e 4660 d23d d0e8 bebd
000000c0: 5c05 45bc 6c60 91ba 1155 843e b543 6fbe
000000d0: 29ec 5e3c a3cf 743e 17e5 ed3c e919 ac3d
000000e0: 2c77 a0bd 1821 8d3d 0df1 a2bc a60f 863d
000000f0: 7df2 923e 3eac bfbd df62 2abe dd9d e2bc
00000100: 8128 913d ea1e 86be cf7b ac3d 556d 87be
00000110: 864d b23d fda4 cb3e 6691 80be 4e3e b5bc
00000120: 490b afbd a65d 91be 701a 3a3e e6a0 613e
00000130: edd1 0ebd fbf7 81be eb9d 65bd d5fe 7ebe
00000140: a223 fbbd 4c27 c5bd a97e a43e 6c0c 54bd
00000150: 3ecb 12be 2f9b ab3e 55ab 50bc 7b83 77bd
00000160: bf26 6c3e 268a 75bd 8aff 52bc d60c b93e
00000170: 7ad0 21bc 3ce0 38be 88c3 ca3d 6233 b83c
00000180: 2708 5dbe 69da b6bc 6468 fcbd 34ad 143c
00000190: bd07 95bc 7b3c ce3d 1e68 58be 7a33 96bd
000001a0: 6528 783d d0f6 66be 02d9 68bc e865 30bb
000001b0: 3f4f 91be 3200 03be 1f90 40be 35c7 4dbe
000001c0: 6857 853e 876a 823e 5f15 ddbd 9b92 1b3e
000001d0: aa2f 80bd a92d 31be c35d 863e f715 ecbc
000001e0: 9ec3 853d 0759 19be aca1 a83d 369c 133e
000001f0: 60c4 ee3e 99c4 9ebe 33ac 003e 72d9 253e
00000200: fc64 ab3e 9811 8f3c b05e 953e ec78 d63d
00000210: ea9d 98be dfb8 213d 0a30 883e e4b8 8bbd
00000220: ff96 283d 58de 04bd 3a83 2d3e 5338 87be
00000230: 0b6f d1bd 4f4b 1b3d 1c80 e0bc e329 a13e
00000240: a31b 53bd 1afb 2abd ad5d 37be 46c5 5bbd
00000250: d63a 313e 9a04 32bc 03b1 e43d 767d 8f3e
00000260: eba1 0a3e 2abd 5abe 9be9 443e e2aa 59be
00000270: da5f b53d 8d19 57bc 2ef7 aebc a09b fcbd
00000280: 91fb 95be 489c 2abe 2063 5b3d 9668 9fbd
00000290: 8f80 a23e 90e8 29be e58a 153d ea0c 113d
000002a0: 5daf acbd 79cf 16be e97a b9bd 6f37 08be
000002b0: ca16 94be ec2b 4cbe a99c 8abd 4486 debd
000002c0: 280b 283e 3cdf 1ebe ed22 2bbe 8259 1cbd
000002d0: 3926 cabc 7ff8 f8be 04e7 cdbe 9f17 10bd
000002e0: a3e4 20be 3f8d f83d 6597 a9bc b431 94bc
000002f0: 9d35 4ebe aa32 00bd 3c55 683d 3512 763d
00000300: ea89 4d3e bb99 97bd 7dd0 0a3e 42e2 85be
00000310: 4d1f 873e 58f8 3a3d 21e8 1fbe b40a 863d
00000320: 1949 54bd c19c 43be 8f0e 9fbe 7a98 4d3e
00000330: c603 473e 6479 003e 0d80 013e 1142 283e
00000340: 4e0c dfbd ef11 06be da23 06be 8a66 b739
00000350: e508 13be 5c71 433d dc47 893d 8061 a6bd
00000360: 84ad 87be 256c 47be 7fe3 a43e b752 8ebe
00000370: 8914 1dbe aef4 443e cd13 a7bd 03f7 703e
00000380: 208c 2ebe 1714 a53e 1cc7 5ebe 6c2a 623e
00000390: e8fa 05be 9e03 823e 8879 3f3d 7cc8 eb3d
000003a0: 39ba 18be baec 563e 44bc 0f3e 7be9 043e
000003b0: 407d dd3d 1770 1abc ca16 0f3d c768 d8bd
000003c0: 1bdb 353e bf4d 1ebe 3038 ff3c f88f 0c3e
000003d0: b806 16bd 9697 6fbd 726f 9c3e 1087 433d
000003e0: 09cf e13e 0b7e 653e b26d 993d 6027 f53d
000003f0: 1043 8dbd 3723 11be 9007 893e bfa3 0abe

bias f4 [10]
-0.12002633 -0.21253671 0.14710124 0.121289864 0.05706756 -0.023847757 -0.065937184 0.15437572
-0.113606095 0.06728334
00000000: 5dd0 f5bd 39a3 59be b5a1 163e d266 f83d
00000010: acbf 693d 5f5c c3bc 130a 87bd ab14 1e3e
00000020: 50aa e8bd d9cb 893d
