models/EMnist-alpha0.1-ratio0.1/server.pt (torch, 116143 bytes, 16 tensors)

weight f4 [6, 1, 3, 3]
00000000: f1ee 5ebd b95c 023e 97ab 98be 8c5b 7fbe
00000010: e1a7 1bbe 4710 923d dd41 043d 1e10 873e
00000020: eac6 d6bc 875a 8f3d ac8c f0bd 9ce1 b1bd
00000030: 87cd a2be ce6e 5dbe d0b1 0fbe 5346 bd3c
00000040: fb5b 083e 3574 483e 9301 87be 0441 38be
00000050: 367e ae3d 4ca0 843e ca7a 9abd 66a4 693e
00000060: dd57 83bd b5a1 283d 1a66 9a3e 48a1 9bbe
00000070: 139f 53be 0a1e a8bd 3ad7 05be 8208 943e
00000080: be6e 5cbe db59 23be 045e 70be e236 a1be
00000090: 524b 86be 5f13 7b3e 07ad 003e 3216 cb3d
000000a0: 2490 ba3a 026d 2fbe f353 93bb 9a22 a8be
000000b0: b062 83be 0150 18be 9de5 743e e543 5d3e
000000c0: 22dc 0dbe 50d8 083c d3bb 7e3e 43ef 943e
000000d0: f478 ef3d f889 803d
-0.05442709 0.12730683 -0.29818413 -0.24937266 -0.1520076 0.07132011 0.032289375 0.26379484
-0.026217896 0.069996886 -0.11745581 -0.0868561 -0.3179743 -0.216243 -0.14032674 0.023104822
0.13316338 0.1957558 -0.2636839 -0.17993551 0.085201666 0.25903547 -0.075429514 0.2281662
-0.06413243 0.04116984 0.30156022 -0.30396485 -0.20666151 -0.082088545 -0.13070384 0.2891274
-0.2152662 -0.15952246 -0.23473364 -0.31487185 -0.2622934 0.24519108 0.12566005 0.09916343
0.0014233631 -0.17131427 -0.0044960915 -0.328389 -0.2566123 -0.14874269 0.23915716 0.21607931
-0.13853505 0.008352354 0.24876337 0.29088792 0.11692992 0.062763155

bias f4 [6]
00000000: fadb 643e 55fa 48be ee6b 7e3d 9e51 84be
00000010: ce92 6cbe c953 30be
0.2234954 -0.19626744 0.06211465 -0.2584352 -0.23102877 -0.17219462

weight f4 [6]
00000000: dac9 7f3f e79b 7c3f f01e 823f 8519 833f
00000010: 08db 7c3f 0ecc 7b3f
0.99917376 0.9867539 1.0165691 1.0242163 0.98771715 0.9835824

bias f4 [6]
00000000: cf52 01bc ca82 a3bc a263 0b3d 217d 173d
00000010: 29be 55bc 6fe8 853c
-0.007893278 -0.019959826 0.034030564 0.036984567 -0.013045826 0.016346185

running_mean f4 [6]
00000000: 0000 0000 0000 0000 0000 0000 0000 0000
00000010: 0000 0000 0000 0000
0.0 0.0 0.0 0.0 0.0 0.0

running_var f4 [6]
00000000: 0000 803f 0000 803f 0000 803f 0000 803f
00000010: 0000 803f 0000 803f
1.0 1.0 1.0 1.0 1.0 1.0

weight f4 [16, 6, 3, 3]
00000000: 6369 8a3d 0af5 623d c151 9fbd 98f7 263d
00000010: a2fd 973d 5061 a2bc 07cc a93b f809 303d
00000020: b150 cc3d 0e31 063e c604 dabd 4f9d 4fbd
00000030: 25cd 4f3d bbbe dd3d 7439 e23d 4177 ea3d
00000040: 71c3 eb3c f0bc e6bd 06d0 1bbb 361c b7bd
00000050: 91e1 04be 34cc f53d 7674 f13d cdd4 08be
00000060: cd4b 393d ea27 9d3b ec46 a3bc 12ba 8abd
00000070: 5799 2c3d 99d5 a5bd 31cd bd3c d8ec 273d
00000080: 2730 b13d 39f2 bb3c bf67 20be 464c cebd
00000090: 464c 533d eac1 563c f0c9 eabd cd40 91bd
000000a0: c5c7 093e 51df d13d e193 87bd 10cd 2bbd
000000b0: 9399 01be aa20 8bbc a0f5 e4bd 5e77 ebbd
000000c0: 1a8e 38bc 8c73 bc3c 7182 43bd 2321 9f3d
000000d0: 1c70 87bd a688 ef3d 73d3 e03d b4f3 c4bd
000000e0: a73f e8bc 5bec 593c 5179 f23c bb48 7c3c
000000f0: 6049 5e3d 1c8a 143c 3879 a4bd 8391 a23d
00000100: bc16 e5bd d4dc 99bd 996c e9bc 3462 72bd
00000110: 7181 7dbd 140c e3bd 3f9a e4bc 2a41 863c
00000120: bb31 abbd 2e8e 3439 385f fa3d 7176 0ebc
00000130: d45f 153c 0e8d 2d3c 88e9 ac3c d563 aa3d
00000140: bb4d 173e 282e d53d e758 163e 4e0d 97bc
00000150: 88c3 d0bd e6f9 3bbd 6ba5 a83d 0a26 163c
00000160: 883e 83bd ca65 fdbd 2430 e8bd 0829 dcbd
00000170: 878a 09bd 7cad 9a3d f4df 903d dd3d 11be
00000180: 7fe7 c33d 33e3 d2bd cc8f 0fbd 6c27 59bd
00000190: 068a c5bc c319 57bc 13c4 eabd 8008 debd
000001a0: e24c 61bb ba8f fcba ef51 92bd 65c8 643d
000001b0: 1650 cbbd fa45 b43c d6e3 173e c563 2ebd
000001c0: 586f 0f3e 93c2 5d3d 8f0b 01be c56c 9e3d
000001d0: 14c9 f5bc ca2d 36bd 22a9 003e ebf4 afbd
000001e0: a355 c63c 2cbd c4bc 1917 c83d 6b8f 023d
000001f0: d251 4b3d 82b8 193d 8010 47bb b626 d8bc
00000200: eb12 00be 36e8 e93d 7159 023e 519f f63d
00000210: 4160 d8bd 89c2 38bd 7daf e6bd 3ef5 7ebd
00000220: 1b15 83bd 3bb0 693d 0494 9dbd 5e66 a3bb
00000230: 83cd 6abb fdd0 bd3d 0d75 cdbd fb09 d0bd
00000240: 1753 99bd 00a6 be3d bbcf 44bd 3c9c e03d
00000250: 3b07 383d 6380 1f3c c5e4 cc3c 3b5c 803a
00000260: bbd7 0e3d c5be 9fbc 5986 933b eb82 a1bc
00000270: 68c9 85bd 21be 24bd a5d6 e23d 1e2b d2bd
00000280: 6362 9abc 50e9 d63d 25b8 883d 8935 bc3c
00000290: a9c6 ddbd 65af a43d add9 b1bd 4af7 08bd
000002a0: 102b 33bd 8d84 8cbc 98c1 14bc bf09 053e
000002b0: 446a 073d 53b7 043e cf6e b93d 159e a4bd
000002c0: c438 823d aeee c1bd 6b2d 6bbd 2b47 ed3c
000002d0: f0c7 463d 0c7d d13d 65dd 49bd 99a8 303d
000002e0: 76e3 b43d b203 05be 2348 fa3d a5e6 cfbd
000002f0: ee47 67bc b58a 72bc 9298 84bd e477 9d3c
00000300: 46f9 e83d 87d1 18bd 5db1 9bbd 1a34 4cbd
00000310: dd51 0cbe ec5b 6c3d 4326 6dbd 3c46 a8bd
00000320: 0188 91bd 60a3 9a3d bb12 623d 2d91 c43d
00000330: 82a2 593d ea4b 39bd 8489 1dbd 16c3 fc3c
00000340: 809a e13d bf39 d43c d250 15bd 5618 60bd
00000350: 2392 08be 93d9 653d 87dc 73bd 4cc9 05be
00000360: 615e e33d 7d96 a9bd f5d6 7bbc 7b82 133d
00000370: 22c0 c43c 7b19 bfbd 9577 e4bd 41a3 b63d
00000380: 4d1d 783c 2c0f e33d 7ee1 38bd 39ed 2d3d
00000390: baf0 05bd 356f cf3a fe14 b2bd 96b9 1d3d
000003a0: a7f0 c73c df09 1bbc de14 61bd a569 c0bd
000003b0: a741 f53d 8d0a c2bd c16a 873d 66e3 32bc
000003c0: 25f4 41bd f70b dd3b 30a8 a0bd 1434 c53c
000003d0: fa80 aa3c 5b23 f1bd a0a7 023c 3c68 053d
000003e0: 42f7 ec3c 2f2b 05bd c88e 05be ef49 ebbc
000003f0: 107b 1d3d 5a4e 72bd 9634 213d 0b7c ab3d
0.06758382 0.05540947 -0.07779265 0.040763468 0.074214235 -0.019821793 0.0051817927 0.042978257
0.09976328 0.1310465 -0.10645442 -0.05068713 0.05073275 0.108273946 0.110461146 0.11448527
0.028779717 -0.11266506 -0.0023775115 -0.08940928 -0.12976672 0.12001839 0.11789791 -0.13362427
0.045238305 0.004796018 -0.01993128 -0.06773771 0.042138424 -0.08097381 0.023169132 0.040997356
0.086517625 0.02294265 -0.15664576 -0.10073142 0.051586412 0.013107756 -0.11464298 -0.07092438
0.13455112 0.10247672 -0.066200025 -0.04194361 -0.1265624 -0.016983349 -0.11179662 -0.11497377
-0.011264348 0.023004316 -0.04773182 0.07769992 -0.0661318 0.116959855 0.10977831 -0.09616795
-0.028350664 0.01330098 0.029598864 0.0153982 0.054269195 0.009066131 -0.08030933 0.079379104
-0.11185977 -0.07512823 -0.028494166 -0.059175685 -0.061891023 -0.11086288 -0.027905582 0.016388495
-0.08359095 0.00017219104 0.12225193 -0.008695231 0.0091170855 0.010592712 0.02110745 0.08319823
0.14775746 0.10409194 0.14682351 -0.018438961 -0.101935446 -0.04589262 0.08234676 0.009164343
-0.06408411 -0.1237293 -0.11337307 -0.107500136 -0.033579376 0.07552621 0.07073966 -0.14183755
0.09565639 -0.10297241 -0.035049245 -0.05301611 -0.024113666 -0.013128701 -0.114631794 -0.10841465
-0.00343781 -0.0019268908 -0.07144534 0.055855174 -0.099273846 0.022006024 0.14833006 -0.042575616
0.14007318 0.05414064 -0.12602066 0.0773559 -0.030003108 -0.04447726 0.12564519 -0.08591636
0.024210757 -0.024015985 0.097700305 0.031875055 0.049638577 0.037529476 -0.0030374825 -0.026385646
-0.12507217 0.11421244 0.12729432 0.12042106 -0.10565234 -0.0451074 -0.112639405 -0.0622456
-0.0640051 0.057052832 -0.07694247 -0.0049865684 -0.003582806 0.09268377 -0.10032091 -0.101581536
-0.07486551 0.09309006 -0.04804967 0.10967299 0.04492877 0.0097352 0.02501143 0.0009793112
0.034873705 -0.019500146 0.0045020995 -0.019715747 -0.06532556 -0.040220384 0.110760964 -0.1026213
-0.018845743 0.104937196 0.06675748 0.022974746 -0.10828907 0.08041266 -0.086840965 -0.03343896
-0.04374224 -0.017153049 -0.0090793595 0.12991999 0.033060327 0.12960558 0.09054338 -0.08037964
0.063584834 -0.09469353 -0.05741636 0.0289646 0.04853052 0.10228929 -0.049283404 0.043129537
0.08832447 -0.12989691 0.1222079 -0.10151414 -0.0141162705 -0.014803578 -0.06474413 0.019222207
0.1137567 -0.037309196 -0.07602189 -0.049854375 -0.13703103 0.05770485 -0.057897817 -0.08216521
-0.07106019 0.075506926 0.055193644 0.095980026 0.053133495 -0.045238413 -0.038461223 0.030854743
0.11015797 0.025906442 -0.03645403 -0.05471071 -0.13336997 0.056115698 -0.059536483 -0.1306507
0.11101986 -0.082806565 -0.015371074 0.036013108 0.024017397 -0.09331032 -0.11155621 0.08917857
0.015143705 0.11086878 -0.04513692 0.04246256 -0.032700278 0.0015825989 -0.0869541 0.038507067
0.024406744 -0.009462803 -0.05495154 -0.0939515 0.11975413 -0.09474669 0.066121586 -0.010918474
-0.047351975 0.006745811 -0.07844579 0.024072684 0.020813454 -0.11774322 0.007974535 0.03257011
0.028926495 -0.032511886 -0.13042748 -0.028721778 0.03844744 -0.059156753 0.03935679 0.08373269

bias f4 [16]
00000000: 8844 b23d 0324 fcbd 3994 533d 8b9e d9bd
00000010: 4d0f d33d b9e7 2e3d 46c9 093e 8c65 09be
00000020: d325 06be 8d6d bc3d 206f f73d 9bc0 aa3d
00000030: 5249 b93d 2dbd eabd a0b9 c93d d190 03be
0.087044775 -0.12311556 0.051655028 -0.10625943 0.10305653 0.042701457 0.13455686 -0.13417643
-0.13100366 0.09200583 0.12081742 0.08337518 0.09047188 -0.11461864 0.09849858 -0.12848212

weight f4 [16]
00000000: d0c4 7c3f 4105 7f3f 4083 7b3f 7f63 803f
00000010: 4a49 7f3f faf5 7a3f df14 7f3f f57e 7b3f
00000020: eac0 7d3f 744e 7c3f aa42 7b3f 8adc 7a3f
00000030: c989 803f a1bd 783f 96d3 793f af0b 7b3f
0.9873781 0.9961739 0.98247147 1.0030364 0.99721205 0.9803158 0.9964122 0.98240596
0.9912249 0.9855721 0.98148596 0.97992766 1.0042049 0.9716435 0.9758848 0.980647

bias f4 [16]
00000000: b7b6 3dbd 71cf a1bc cad3 34bd 3b13 8cbc
00000010: e67b b1bc 11a6 d4bc d702 b9bc 0e21 29bd
00000020: 0586 1dbd 28aa 34bc 8e48 02bd d3cb cebc
00000030: eb69 cabc 618a 5abd e74a 40bd def9 3bbd
-0.04631683 -0.019752236 -0.04414729 -0.017099014 -0.021665525 -0.025958093 -0.022584362 -0.04129129
-0.03845789 -0.011026897 -0.031807475 -0.025243675 -0.024708709 -0.053354625 -0.046946432 -0.04589259

running_mean f4 [16]
00000000: 0000 0000 0000 0000 0000 0000 0000 0000
00000010: 0000 0000 0000 0000 0000 0000 0000 0000
00000020: 0000 0000 0000 0000 0000 0000 0000 0000
00000030: 0000 0000 0000 0000 0000 0000 0000 0000
0.0 0.0 0.0 0.0 0.0 0.0 0.0 0.0
0.0 0.0 0.0 0.0 0.0 0.0 0.0 0.0

running_var f4 [16]
00000000: 0000 803f 0000 803f 0000 803f 0000 803f
00000010: 0000 803f 0000 803f 0000 803f 0000 803f
00000020: 0000 803f 0000 803f 0000 803f 0000 803f
00000030: 0000 803f 0000 803f 0000 803f 0000 803f
1.0 1.0 1.0 1.0 1.0 1.0 1.0 1.0
1.0 1.0 1.0 1.0 1.0 1.0 1.0 1.0

weight f4 [32, 784]
00000000: 6de6 433c 9af2 d3bc c75a bebc 830f 7dbc
00000010: 2b96 04bd fb37 13bb 96a5 03bd 0835 09bd
00000020: b85c 873c bfa9 73bc e80b dfbc efe5 dfbc
00000030: 2a7f bbbc b675 63bc 736f b03c d7f1 a63c
00000040: 97b0 bf3c a87a 0cbc 08d2 4a3c bb55 93ba
00000050: 0d12 90bc 3d31 023c c656 233d 0b7b a3bc
00000060: e729 f9bc 405d 423c f56b 0f3d df9d 7abc
00000070: fc86 fe3b 30da 0d3d 539b a03c cdd5 c43b
00000080: 7c01 0a3d 5af9 ea3c 7c13 0cbc fa0f 533b
00000090: 5c8b ac3c 6c75 013d cf2d 14bd 8a53 963c
000000a0: 330c 71bc c3a6 07bd f3e2 013c d0fd cebc
000000b0: 368a ed3b e39a 63bc 46c1 a7bc 273e 87bb
000000c0: 2ded 70bc 5918 c63c 155a cb3b d835 a33c
000000d0: a6ae 08bc d724 12bc 4aff 223d 325f e53b
000000e0: 1196 7f3c aea7 03bc c12d 93bc a8a9 6bbc
000000f0: 0eb8 723c f6ab e9bb 789b ed3a a33b 9abc
00000100: e979 2ebc dd1b 333c 5435 f7bb c24b 5ebc
00000110: 191f 04bb 1b24 17bc fb69 103c b75a 8dbb
00000120: f435 b23c db50 57bc 2e88 2fbc 9098 a53c
00000130: bd7a 033d 94a0 383a 0d6b cdbc ce65 2c3c
00000140: 0134 883c 75ae b6bc 4b90 acbc c559 953c
00000150: 0d01 383c a39c 02bd 7663 04bd c4bd 0a3c
00000160: 8ab9 86bc 854e e03c 69b6 ed3c 9a35 5b3c
00000170: ac16 f8ba 66e3 4fbc 7c07 04bb 63c9 dc3b
00000180: 0891 d2bc 78e3 09bc 729e ecbc 63dd bb3c
00000190: 365b c0bc 2fb8 f33c ece2 c2bb 0957 65bc
000001a0: 5b80 833c 9b83 203c cae7 bc3c eb89 cbbb
000001b0: e34d 61bd 401e f33c f14e 543c 17b2 75bc
000001c0: 9171 f33c 175f e23c 1939 2fbd 68a9 48ba
000001d0: f673 093d e5bd e53c efe7 0c3d a282 b4bb
000001e0: b2c3 2bbc fc0e 0c3d 36ca b33c e2fb 173d
000001f0: a8d9 8ebc 174c ccbc a838 d93b 5e4c a6bc
00000200: a828 733c d1f7 cd3c 9ae5 383c bf01 713b
00000210: d2b4 643c c473 78bc 256b 483d 92c5 1dbd
00000220: 8227 1cbd 9a07 9ebc af5e 0b3d db98 96ba
00000230: 35af 6b3c 51c6 cdbc b91f 893c 5d99 42bc
00000240: 02b8 7d3b bd7c 8f3c 16b0 573c 4a49 4f3a
00000250: 8a1c 6b38 59aa 9abc ee2d 29bc 50a2 c73c
00000260: 82e5 72bc 3fbf e33c 7a44 1ebc ff1f 03bc
00000270: 893a f6ba 9c22 24bd 966c 51bc ddd5 c6b9
00000280: 9a74 4f3c 8e17 85bb eb3b f53c 87e4 983c
00000290: f8e7 33bd 3ec1 f03c 9347 62bb ea6a 91bc
000002a0: b8ae 6f3c 8abf 6e3b ed0b aabc fb96 30bd
000002b0: 15c0 55bc fdaf 963c 4134 12bd bdb1 f7bc
000002c0: b6c1 033c a08a 79bb 8a16 acbc 195c 9ebc
000002d0: 1c69 9abc dc69 f1bc ba3d afbc 6057 2c3c
000002e0: eef4 20bc 80ca 40bc 38f5 08bd 3dd4 1dbd
000002f0: fe2e df3c 5f87 bebc 355d 80bc 746f 4f3c
00000300: b6e1 60bb 45a6 cd3c 26db 20bc 5c64 6bbc
00000310: c1e6 04bb 1f4f a83a 98da e73c 2a0e 19bd
00000320: 44be a5bb 9ae6 9c3c 769e 91bc 903c 8ebc
00000330: af2f 813c 701f 3cbd d28e 8ebc 1299 a7bc
00000340: a22a 1e3d cf34 c9bc a91f d03c 5588 0dbd
00000350: 3e9b 50bd 8f99 20bc 3d40 623d b0be 80bb
00000360: 2b90 30bc 4121 1a3d ae6f d1bb d879 763c
00000370: 0c80 9bbc a9a5 6cbc f012 89bc c29d f33c
00000380: 666d 823c 8431 a9bc 622d bd3c 7844 a0bb
00000390: 1e79 9ebc 7992 f8bc 8ac2 ebbb adc4 f13c
000003a0: fdb3 6abc 6555 c9bc c7ba 8cbc 450b 86bb
000003b0: c03a 503c 82ae 213b aabd 54ba 2485 b4bc
000003c0: 3cad 64bc e222 b4bc 5fa5 c63c fe70 e8bc
000003d0: dc7c c0bc 7e08 eebc 6ac8 d4bb 248d ba3c
000003e0: 0b13 8d3c c0ae 2abd 68d1 fe3b abd3 c33c
000003f0: abf1 803c 0677 003d bcc6 08bc 33bb 2abd
0.011956793 -0.025872517 -0.023236645 -0.015445593 -0.032369774 -0.0022463787 -0.032140337 -0.03349784
0.016523704 -0.014872014 -0.027227357 -0.02733132 -0.022887785 -0.013883045 0.021537518 0.02037899
0.023399634 -0.008574165 0.012379177 -0.001124076 -0.017586732 0.00794631 0.039877675 -0.019956132
-0.030415488 0.011863053 0.035015065 -0.015296428 0.0077675562 0.034631908 0.019605314 0.0060069324
0.03369282 0.028683353 -0.008549567 0.0032205568 0.021062545 0.031606123 -0.0361765 0.018350381
-0.014712381 -0.03311802 0.007927644 -0.025267512 0.007249142 -0.013891908 -0.020477902 -0.004127282
-0.014704985 0.024181532 0.006205807 0.019923136 -0.008342421 -0.008919916 0.039794244 0.0069998736
0.015599743 -0.008035583 -0.017966153 -0.014383711 0.01481439 -0.007131095 0.0018127998 -0.018827265
-0.010649183 0.010931936 -0.007544199 -0.013567867 -0.0020160137 -0.009224917 0.00881433 -0.0043137926
0.021754242 -0.013141836 -0.01071362 0.020214349 0.032099474 0.0007042971 -0.02507546 0.010522319
0.01662636 -0.022299984 -0.021064898 0.018231282 0.011230719 -0.03188766 -0.032321416 0.008468095
-0.016445894 0.027381191 0.029017644 0.013379479 -0.0018927655 -0.012688493 -0.0020146063 0.0067378744
-0.025703922 -0.008416049 -0.028884146 0.022932714 -0.023480993 0.029750912 -0.0059474614 -0.013997802
0.016052416 0.009797002 0.023059744 -0.0062115095 -0.05500592 0.02967751 0.012958274 -0.014996073
0.029717239 0.027633233 -0.042779062 -0.0007654638 0.033557855 0.02804465 0.034400877 -0.0055087367
-0.010483669 0.034193978 0.021947008 0.03710545 -0.017437771 -0.024938626 0.0066290684 -0.020300087
0.014841236 0.025142582 0.01128521 0.0036774722 0.013959127 -0.015164319 0.048930306 -0.038518496
-0.038123615 -0.019290734 0.034025844 -0.0011489646 0.014385034 -0.025118979 0.01673876 -0.011877385
0.0038714414 0.017515535 0.013164541 0.0007907344 5.6054945e-05 -0.018880056 -0.010325892 0.024369389
-0.014825227 0.027801154 -0.009659881 -0.008003234 -0.0018785755 -0.04007207 -0.012782237 -0.00037924843
0.012662077 -0.004061646 0.029935798 0.018663658 -0.043922395 0.02938902 -0.0034527525 -0.017751176
0.014629059 0.0036430084 -0.02075764 -0.043112736 -0.013046284 0.018394465 -0.035694364 -0.03023612
0.00804179 -0.0038077012 -0.021006841 -0.019331025 -0.018848948 -0.029469423 -0.021391738 0.010518879
-0.009824021 -0.01176703 -0.033436984 -0.038532484 0.027244087 -0.02325791 -0.015669445 0.01266085
-0.0034314222 0.025103698 -0.009817874 -0.014367189 -0.0020279142 0.0012840963 0.028302476 -0.037367024
-0.005058082 0.019152928 -0.017775755 -0.017362863 0.015769808 -0.04592842 -0.017402086 -0.020458732
0.038614877 -0.024561314 0.025405722 -0.034553844 -0.0509293 -0.009802236 0.055237044 -0.0039289817
-0.01077656 0.03762937 -0.006391487 0.015043698 -0.018981956 -0.014443793 -0.016732663 0.02973831
0.015921306 -0.020653494 0.02309293 -0.0048909746 -0.019344863 -0.030343281 -0.0071948217 0.029512728
-0.014325139 -0.024576852 -0.017178906 -0.004090699 0.01270932 0.0024670665 -0.00081154204 -0.022036143
-0.013957318 -0.02198929 0.024248777 -0.028374191 -0.023497038 -0.029056784 -0.006493618 0.02277238
0.017220994 -0.04167056 0.007776428 0.023904642 0.015740236 0.03136351 -0.008348163 -0.041682433

bias f4 [32]
00000000: 4657 96bc b4ee e73b d1a0 4b3c cb28 c13c
00000010: 25a1 163d a684 18bd a832 03bd 6d2b e5bc
00000020: de7f e33c e46a 87bc 33ee b6bc ee16 39bc
00000030: f331 ddbb ed9e c93b 172c 81bc 6bb5 6f3c
00000040: cc7e fd3c 45c8 4cbc f883 f3ba 3051 1d3c
00000050: 0f71 f7bb 513b 56bc 5363 e0bc 8655 e83a
00000060: d836 e3bc e1d5 25bc 4547 02bd 5068 0abd
00000070: 92b0 d73c 252c dfbc 223e c83c 3e75 01bd
-0.018352162 0.007078016 0.012428478 0.023579022 0.036774773 -0.03723588 -0.03203073 -0.027974809
0.027770933 -0.016530462 -0.02233038 -0.011296971 -0.006750339 0.0061529786 -0.015768094 0.014630656
0.03094425 -0.01249892 -0.0018578758 0.009601876 -0.0075513194 -0.013075666 -0.027391111 0.0017725683
-0.027736112 -0.0101217935 -0.03180625 -0.033790886 0.026329312 -0.02724273 0.02444369 -0.03160595

weight f4 [26, 32]
00000000: a694 b6be 807e dabe 81ef e1be aa55 babe
00000010: 7164 64be 7f6a 24be 830a a6be 7f91 01be
00000020: 51ef 44be ecfb 8bbe 55e3 b83d c024 223e
00000030: 2acf c0be 5eb8 003e 8c8b 85be 9b59 de3d
00000040: 343e 72be 5c17 9abb b763 9ebe 3938 983e
00000050: 45e7 103e c556 69bd b7d9 0e3e d77a fdbd
00000060: 2b04 c33e 4c1d 6f3e 602f c33e 4355 99be
00000070: 384e 0b3e eb8d acbd 630c 6c3e 360e babe
00000080: 06d9 a1be 2fcc 0bbe 0c38 70be a9d5 92bc
00000090: 521c 783c ede7 223e 5c7a 1fbe 6b3c 193e
000000a0: 579a 833e 31af ce3e ab71 893e ca5a d63d
000000b0: fb65 56be 6b13 6b3e f0df afbd b0be ccbc
000000c0: 6355 d6bd 77ad 9fbe f455 f3be ef5d cabe
000000d0: 12a4 2cbb 2e98 a73e eb35 6c3e 30fd 72bc
000000e0: 0fa1 36be 4ae9 983e 2e73 ae3e a91e 6b3c
000000f0: 1005 7dbe a262 483c c3c2 8bbe 8e99 d93e
00000100: 04ea d9bb 0227 abbd 6a7f b4be d2d9 893e
00000110: ff0b 92be 42d0 8d3e cc96 833e f307 8ebe
00000120: 287a 5ebd 038b 283d aa4b a0be a807 a3bc
00000130: ba60 e7be ead2 2a3e f88e e03e b613 293e
00000140: c4ab 913e 0fb6 fc3c f335 99be 5394 3c3e
00000150: 3b24 70be 7128 acbc 7b29 233e 709c 173e
00000160: 57f6 8cbe ef3a c4be 5645 243e 7cd2 54be
00000170: a0a6 4d3e 6180 52be 7f05 c43e cd52 aebe
00000180: c6e3 963e 0857 033e 148b e9bd b050 bdbe
00000190: acc4 4fbe ecb5 523d 720d 943d e260 01be
000001a0: b307 66be ad2d 9a3d 3afa 043e 7480 863e
000001b0: 64b4 b03e 6f1a df3e 1ce5 ab3e b07d e63b
000001c0: 9ca8 5ebe dba3 8dbe 29bf 593e 2dc6 f43e
000001d0: f45d c13e 089f ef3e 83ef 1b3e 1229 afbe
000001e0: 5aa7 3cbe 10f9 2a3e 5da7 e13d 9390 0ebd
000001f0: 8fe4 25be 64a2 08be 9f96 61be e4e0 823d
00000200: fc28 99be c7cf 04bf 65ff 0f3d 0afa 26bd
00000210: 25e3 a8bd 6811 333e 562e b2be 262f ecbe
00000220: 13fe b1be b65a f8bd e8e8 973e e2cb 7abe
00000230: ae49 0cbe e33f 773d 5472 873d 7002 ab3e
00000240: 660f 6d3d 45e9 1d3e a981 773e 5d4d c53d
00000250: 4631 843d 73cd 2b3e b4dd 973e 49ab eabe
00000260: fe68 6f3e 53eb e0be 1e01 68be a537 433e
00000270: 8612 033c 6319 313e ce6f 66bd 929b e53d
00000280: e9f1 00be 9b27 0ebd bda1 ba3e 8539 50be
00000290: 6a54 3abe 407a 343d c2a0 dcbe c1ec 9abe
000002a0: ef63 8b3d 248e 843e ee2d 04be 8a3b b0be
000002b0: 28de a4be 3e4b a93c 6cc3 5c3e 9a7c 643e
000002c0: 286c b4be 3af5 18be 86aa 05be 4d1f b4be
000002d0: 9e58 6cbe 024c 6b3e 44b6 71bd c993 c3be
000002e0: 35cc 3a3e 40ae 10be 7735 19bd 9e0b d7be
000002f0: 280c d73d ab52 443e 25be 0e3f 20ad 9b3e
00000300: a654 d4bd eea7 93be c300 a93d 746c 2b3e
00000310: eed3 cc3c 1d8d fe3d 65e9 2d3d 1277 133d
00000320: ebac 55be a0b7 06bf 48ad 48be 678c 533c
00000330: ba42 73be e2a9 a03e b486 a1bd f0bf fe3d
00000340: 4e1e 48be f474 f03e b926 76bd 1d0e 42bd
00000350: 9bb5 fd3e fd6d 543e 15a5 583d b710 703e
00000360: 7fab 99be b407 ec3d 28f7 b4bd 7c4e 09be
00000370: 4f7e 06be 73b8 acbe f8a3 96be 0c51 ecbe
00000380: 435c 093e 8dfa b73d 6f3e d7be e964 7bbd
00000390: fb34 353d 7345 863e 587f 543e 8095 133f
000003a0: 77c8 36be 1056 4a3e 1a38 9abe 906b 593e
000003b0: dca7 193e fb56 b33e 4b3e d23e 24cb 7cbd
000003c0: 3e54 203e 3d98 d8bd 8215 5f3e b162 ee3d
000003d0: a74a 4a3e ea4b 11be 7e90 58be 842b 053f
000003e0: 1387 dc3e ebfa 8a3d ee7c a4bd d4e9 3dbe
000003f0: 7831 193d d358 ebbc c7fb 40be ace9 a8be
-0.35660285 -0.42674637 -0.4412804 -0.36393481 -0.2230394 -0.1605625 -0.32429895 -0.12653159
-0.19231917 -0.2734064 0.09027735 0.15834332 -0.37658054 0.1257033 -0.26083028 0.10856935
-0.23656541 -0.0047024917 -0.3093545 0.29730394 0.14150722 -0.056967515 0.13950239 -0.123769455
0.38089117 0.2335102 0.38122082 -0.29947862 0.13604057 -0.08425506 0.230516 -0.36338967
-0.31610888 -0.13652109 -0.2345888 -0.017924147 0.015143471 0.15908785 -0.1557402 0.14964454
0.2570369 0.40368035 0.26844534 0.104665354 -0.2093734 0.22956626 -0.085876346 -0.02499327
-0.10465505 -0.3118703 -0.47526515 -0.3952479 -0.002634291 0.3273329 0.23067443 -0.014830872
-0.17834876 0.29865485 0.3407225 0.014350572 -0.24708962 0.012230547 -0.2729703 0.42499965
-0.0066502113 -0.083570495 -0.3525346 0.26923996 -0.28524777 0.2769795 0.25700986 -0.2774044
-0.054315716 0.041148197 -0.31307727 -0.019901112 -0.45190984 0.1668202 0.43859076 0.16511425
0.2845136 0.030848531 -0.29923972 0.18415956 -0.23451321 -0.021015378 0.15933792 0.1480577
-0.27531692 -0.38326213 0.16042075 -0.20783418 0.20083094 -0.20556785 0.38285443 -0.34047547
0.29470652 0.12826169 -0.1140348 -0.36975622 -0.20289868 0.051443025 0.07229127 -0.12634614
-0.22463875 0.07528243 0.12986079 0.26269877 0.34512627 0.43574855 0.33573234 0.007034026
-0.21744007 -0.27664074 0.21264328 0.47807446 0.37766993 0.4680102 0.15228085 -0.34211022
-0.18423215 0.16696572 0.1101825 -0.034805845 -0.1620047 -0.13343197 -0.22030114 0.06390551
-0.2991408 -0.51879543 0.035155673 -0.0407658 -0.082464494 0.17487109 -0.34800977 -0.4612972
-0.34764156 -0.12126677 0.2966988 -0.24491838 -0.13699982 0.06036366 0.06613603 0.33400297
0.057876013 0.15421017 0.24170555 0.096338965 0.06454711 0.16777591 0.29661334 -0.45833805
0.23379895 -0.43929538 -0.22656676 0.19064195 0.008000022 0.1729484 -0.05625897 0.11211313
-0.12592281 -0.03470574 0.36451522 -0.20334442 -0.18196264 0.0440619 -0.43091398 -0.30258754
0.0680617 0.25889695 -0.12908146 -0.34420425 -0.32200742 0.020665761 0.21558923 0.22313157
-0.35238767 -0.14937297 -0.13053331 -0.3518013 -0.2308068 0.22978213 -0.059011713 -0.3819869
0.18241961 -0.14128971 -0.037404504 -0.4200105 0.105003655 0.1917216 0.5575889 0.3040552
-0.10367708 -0.28839058 0.082520984 0.1674059 0.0250034 0.12429259 0.04245891 0.036002226
-0.20866744 -0.5262394 -0.19597352 0.0129118925 -0.23755923 0.3137961 -0.07887021 0.12438953
-0.1954281 0.46964228 -0.060095523 -0.04737674 0.49552616 0.20745082 0.05289181 0.23443876
-0.30013654 0.11524907 -0.08836204 -0.13408846 -0.1313412 -0.33734474 -0.29421973 -0.46155584
0.13414101 0.08983336 -0.4203982 -0.061375532 0.04423998 0.2622486 0.20751703 0.57649994
-0.17849909 0.19759393 -0.30120927 0.21232438 0.1500544 0.35027298 0.4106315 -0.061717167
0.15657136 -0.10575912 0.21785548 0.11639918 0.1975504 -0.14189115 -0.2114887 0.52019525
0.43071803 0.0678614 -0.08031641 -0.1854623 0.037400693 -0.028728878 -0.18846045 -0.32990777

bias f4 [26]
00000000: d400 32be 0934 ce3d 7242 72bd 8097 b53d
00000010: a312 1f3e 4193 4f3d 788c d1bd 1c2d 4dbd
00000020: d840 183c e190 08be d8e7 5f3d 6c14 8bbd
00000030: 3d7b b9bd a29e 3f3e c03c 7e3a 1fad 3b3e
00000040: 806e edbc cc10 973c 5eff 66bc cc17 aa3d
00000050: 6be0 c6bd 86b6 a0bd 69dd 68bd 4b4b ed3d
00000060: a140 7f3d 4e4d feba
-0.17383128 0.10068519 -0.0591454 0.08866787 0.15534453 0.05067754 -0.102318704 -0.050091848
0.009292804 -0.13336517 0.054664463 -0.067910045 -0.09056709 0.18712857 0.00096983835 0.18327759
-0.028983355 0.018440627 -0.01409897 0.0830532 -0.09710773 -0.078473136 -0.05685178 0.115866266
0.062317494 -0.0019401701
