models/Celeba-user25-agg5/server.pt (torch, 115994 bytes, 22 tensors)

weight f4 [16, 3, 3, 3]
00000000: f73c e7b9 e26b d23d 1474 22be dc96 11be
00000010: 3dd3 9abd 3db4 4f3d 0b2e 9abb 1347 1b3e
00000020: 262f 8ebc 83b6 563d a031 6ebd aa29 1bbd
00000030: 0d6d 3cbe b98f 03be 8cce a3bd 8e40 df3b
00000040: 1a3c 9b3d 6611 ed3d ec7c 04be eebb acbd
00000050: baf4 8d3d 2f31 233e cc19 28bd 7443 123e
00000060: 00ff 00bd e2b3 a13c 0a36 323e 342d 37be
00000070: b26c f8bd c032 47bd e450 99bd 2881 2a3e
00000080: 40c0 febd c195 b4bd ac2f 09be 0d04 38be
00000090: f4dc e6bd 5e53 293e e343 b03d fb1d bf3d
000000a0: 1cce 293c 3939 c9bd f332 063d a694 37be
000000b0: 5cd9 0dbe 2599 cbbd 71c7 f83d 46b1 e73d
000000c0: 5c62 aebd 9147 d6bb b946 fd3d 4b47 443e
000000d0: 9c9e 9d3d 79f3 da3c 9093 033e 50cf eabd
000000e0: 5c37 103d fc79 1abe 2786 0abe 0c6b cdbd
000000f0: 8b21 b03d a1a9 9c3d 78f3 e9bd 420c 6f3d
00000100: 671d d73d defc c6bc 70ab d43b 6a43 323d
00000110: 362e f43d 4cf8 3c3e abe1 17be bf5e 8fbd
00000120: eaf1 9b3d 4112 233e 1909 2c3e 0e6f 2d3e
00000130: 7c90 1a3d 17ef 2abe dd8e 933c f142 f5bd
00000140: e66b 36be ec2e 2f3e 81eb 153e 2468 44be
00000150: 5687 143d 12a1 03bd 01b8 00bd 6c84 b4bd
00000160: 8cc8 973d 899c e9bd 2283 903d 405f c73d
00000170: db30 0d3e 369c 933d 41ea 42be 8c88 ffbd
00000180: 7f3d c43d d675 243d 830e 1abe 54ac e2bd
00000190: 0890 393e 010d 053e ea45 abbd c42b 45bd
000001a0: ac72 3bbe d18c 68bb 8152 14be 3a16 18be
000001b0: d7f4 1cbc 7281 f93c f3aa 9ebd 67e3 eb3d
000001c0: 5dee ecbd b3e7 333e edfc 073e 79f1 24be
000001d0: e7e4 3ebd 5231 103c 94b4 ea3c c992 3c3d
000001e0: f012 9b3d 4228 463c 9ad9 bfbd f7c1 ba3d
000001f0: 13a1 3cbe 8fae e8bd 9f78 47bd 2222 c0bd
00000200: ea42 8abd c8c3 21be 0ffe 26bd 3adf 273d
00000210: abb4 00be 5237 21bc 5d30 0d3e 948e a2bc
00000220: 8490 c53b 0afb 7dbc 0bb9 1f3d 9a6b fa3d
00000230: ffd9 3a3e 1345 f93d 3b7c 3a3e 6101 6cbc
00000240: 2315 31be 5f85 b9bd 8a1c 073e 700f 75ba
00000250: b4b4 c3bd d7cb 16be 1fa4 38be 73b6 26be
00000260: 9484 21bd fb33 d73d 7bc5 d53d 7267 3dbe
00000270: 22d9 f53d 785a 1abe 3e98 26bd 3a9d a0bd
00000280: bbfe 19bd d4aa 1cbd 43a3 30be dab7 29be
00000290: e6eb f2bc 1e12 3e3b f384 b2bd 41b2 943d
000002a0: b3d9 30be cdc3 4dbc 48cc 2d3e 4dc0 9fbd
000002b0: aa8f 323e 06f9 8f3d 8324 31be 2422 fa3d
000002c0: 95ad b4bc 2fa9 aebd 23ef 1d3e def5 1ebe
000002d0: 3b6f b13c f568 21bd ba9d 0d3e ff24 613d
000002e0: f0e6 be3d 3d2e 8c3d 8938 39bd 034e 23bd
000002f0: badf 21be 1ffb d83d 5056 1e3e f253 093e
00000300: 0d5b 09be f3a4 213c b016 09be f810 d6bd
00000310: 2e2a e4bd 5e2f 883d 209a e8bd 4950 4abb
00000320: 3c33 203c 4940 003e 312a 14be 13fa 05be
00000330: 542b e3bd 0b11 0a3e db5d 8dbd 809e 263e
00000340: 9173 8f3d 1e0c cf3c a701 8dba c99b 1bbd
00000350: 300b ca3c c5d4 33bd 3eae f6ba f44e c53c
00000360: 34e1 18be 48ea cbbd d12b 213e 4974 20be
00000370: 0859 62bc ee0d 443e 9fb5 8a3d dff4 9d3b
00000380: ac32 2abe 1283 c33d c936 0cbe ebe9 5cbd
00000390: dc71 86bd fd5f eebc 9a30 293b b3c1 203e
000003a0: ca91 bf3c 4a0f 313e 3254 f03d 62d8 f9bd
000003b0: 90a9 b13d a1a5 0cbe 5282 a8bd 22b7 693d
000003c0: d5ab 7d3d e05e 133e 63cb 7abd a275 9939
000003d0: 9da5 cb3d 3288 3dbe 77fa 0d3e 4fec 22be
000003e0: 76d5 5b3b 82ab 08bd 085e cfbd 4c06 d83c
000003f0: 518c 223e e835 67bd 1629 e9bd 52ae 93bd
-0.00044105176 0.10274483 -0.15864593 -0.14217705 -0.07559822 0.050708998 -0.004705196 0.15163831
-0.017356467 0.05242015 -0.058152795 -0.03788153 -0.18400975 -0.12847795 -0.0799838 0.0068131154
0.07579823 0.11575584 -0.12938279 -0.08434282 0.069314435 0.15936731 -0.041040227 0.14283544
-0.031493187 0.019739095 0.17403427 -0.17888337 -0.12130107 -0.048632383 -0.07486132 0.16650832
-0.124390125 -0.08817626 -0.13397092 -0.17970295 -0.11272612 0.16535708 0.08606698 0.0933189
0.010364082 -0.098253675 0.032763433 -0.17927799 -0.13852447 -0.099413194 0.121474154 0.11313109
-0.08514854 -0.006539293 0.12367005 0.19167821 0.07696268 0.026727425 0.1284926 -0.11465323
0.035209045 -0.15085596 -0.13527738 -0.10030183 0.08600148 0.07649542 -0.11423391 0.0583613
0.10503655 -0.024290498 0.0064901635 0.043521322 0.119228765 0.18454093 -0.14832179 -0.07000493
0.07614501 0.15924932 0.16800345 0.16936895 0.037735447 -0.16692768 0.018012458 -0.11975659
-0.17814597 0.17107743 0.14640619 -0.19180351 0.03626188 -0.03213603 -0.03142548 -0.0881432
0.07411298 -0.1140681 0.070562616 0.09734964 0.13788168 0.07207529 -0.19034673 -0.12477216
0.09582042 0.04015144 -0.15044598 -0.11068025 0.1812135 0.12993242 -0.083629444 -0.04813744
-0.18305463 -0.0035484324 -0.14484598 -0.14852229 -0.009579859 0.030457232 -0.0774745 0.11517983
-0.11568902 0.17568855 0.13280077 -0.1610774 -0.046605017 0.008800821 0.02865056 0.046038423
0.075719714 0.012094559 -0.09367676 0.09119027 -0.1842082 -0.113614194 -0.048699018 -0.0938151
-0.06751044 -0.15797341 -0.040769633 0.04098437 -0.1256892 -0.00983985 0.1378798 -0.019843377
0.0060291905 -0.015501747 0.03899483 0.122275546 0.18247221 0.12171378 0.18211453 -0.014404626
-0.1729322 -0.09058642 0.1319448 -0.00093483087 -0.09555951 -0.14726196 -0.18031357 -0.16280536
-0.039433077 0.10507961 0.10438057 -0.18496493 0.120043054 -0.15073574 -0.040672533 -0.078424886
-0.037596446 -0.038248852 -0.1724978 -0.1657404 -0.0296535 0.0029002498 -0.08716764 0.07260562
-0.17270546 -0.01255889 0.16972458 -0.0780035 0.17437616 0.07029919 -0.17299084 0.12213543
-0.022055427 -0.08528363 0.15423255 -0.15523478 0.021659484 -0.039406735 0.13829699 0.054966923
0.093213916 0.06844757 -0.04521993 -0.03986932 -0.15808001 0.105947725 0.15462613 0.13410929
-0.1341364 0.009865987 -0.13387561 -0.10452455 -0.11140858 0.066496596 -0.11357522 -0.0030870608
0.00977784 0.12524523 -0.1446922 -0.13083677 -0.110922486 0.13483064 -0.06902667 0.162714
0.070044644 0.025274333 -0.0010757939 -0.037990365 0.024663538 -0.043904085 -0.0018820239 0.0240855
-0.14929658 -0.09956795 0.15739371 -0.1566936 -0.013815172 0.19145939 0.06772923 0.0048204507
-0.16620892 0.09546484 -0.13692774 -0.05393402 -0.06564686 -0.029098505 0.0025816322 0.1569889
0.023384947 0.17290989 0.11734809 -0.12199475 0.086749196 -0.13735057 -0.082279816 0.057059415
0.06193145 0.1439166 -0.06122912 0.00029270077 0.099436976 -0.18508986 0.13865076 -0.15910457
0.003354398 -0.033366688 -0.10125357 0.02637019 0.15873839 -0.056447893 -0.1138479 -0.07210983

bias f4 [16]
00000000: 8c44 273e 90ce 4e3c 1058 03be b136 8dbd
00000010: 8f21 2c3d ac3a 16be cecf c33d b1e9 32be
00000020: e570 3dbe ed7b 3fbe 89e9 1fbd ff83 043e
00000030: 8485 3abe 18cd 233e 04aa 9dbd 98df 663d
0.16334742 0.0126224905 -0.12826562 -0.06895197 0.04202419 -0.14670819 0.0956112 -0.17471959
-0.18500097 -0.18699618 -0.039041076 0.12940978 -0.18214995 0.15996206 -0.076984435 0.05636558

weight f4 [16]
00000000: 1a05 803f c816 803f 869a 7f3f 9802 803f
00000010: 81e4 7f3f 5405 803f e907 803f f81b 803f
00000020: 2f0f 803f 91fd 7f3f 0312 803f d8ce 7f3f
00000030: 24e8 7f3f c1f1 7f3f c0e7 7f3f 0910 803f
1.0001557 1.0006952 0.9984516 1.0000792 0.99958044 1.0001626 1.0002414 1.0008535
1.0004634 0.99996287 1.0005497 0.99924994 0.99963593 0.9997826 0.99963 1.0004894

bias f4 [16]
00000000: 668f 3539 a4b1 e139 a941 dfb9 736b 6a39
00000010: 0642 78b9 09d9 c6b8 3aef 9e38 64ab 50b9
00000020: 83af dc38 6093 0238 3e7e 083a 5c63 7cb8
00000030: fc4b 6537 a05f cab9 381a 3639 04be 8039
0.00017314925 0.00043047697 -0.00042582795 0.00022356007 -0.00023675719 -9.481802e-05 7.5785865e-05 -0.00019900274
0.00010523109 3.113167e-05 0.00052068 -6.0174018e-05 1.3667155e-05 -0.0003859969 0.0001736664 0.00024555635

running_mean f4 [16]
00000000: 0000 0000 0000 0000 0000 0000 0000 0000
00000010: 0000 0000 0000 0000 0000 0000 0000 0000
00000020: 0000 0000 0000 0000 0000 0000 0000 0000
00000030: 0000 0000 0000 0000 0000 0000 0000 0000
0.0 0.0 0.0 0.0 0.0 0.0 0.0 0.0
0.0 0.0 0.0 0.0 0.0 0.0 0.0 0.0

running_var f4 [16]
00000000: 0000 803f 0000 803f 0000 803f 0000 803f
00000010: 0000 803f 0000 803f 0000 803f 0000 803f
00000020: 0000 803f 0000 803f 0000 803f 0000 803f
00000030: 0000 803f 0000 803f 0000 803f 0000 803f
1.0 1.0 1.0 1.0 1.0 1.0 1.0 1.0
1.0 1.0 1.0 1.0 1.0 1.0 1.0 1.0

weight f4 [32, 16, 3, 3]
00000000: 3933 953b 4b6a 9abd ac5b 8e3d 5c69 333d
00000010: 997b a93d 38eb 2f3d 90f6 5ebd b9c8 8e3d
00000020: 22c3 b43b ac34 213d 6805 89bd 3ef1 c9bc
00000030: 04af a8bd c69b 04bd 3aa0 8c3c 5641 85bd
00000040: 31f4 d83c c120 353d b937 433c f23b 61bd
00000050: 50e6 83bd 32cc c4bc 5757 193d f063 a83d
00000060: 3925 463d 26f1 0ebc bb27 f13c 5c6d a7bd
00000070: 4fa2 90bd 883d 1e3d 66db 3dbd db60 263d
00000080: 90c7 72bd 3b0c 24bd 59ff 8bbd e37c 303d
00000090: 7d64 09bc 301b 843d 92f0 503d 71ac 3d3d
000000a0: 7ca4 463b eb4f d6bc 64e7 8dbc a652 383c
000000b0: 27ca 273d 1287 6fbd 01fe 8e3d 8eed 17bc
000000c0: f5d7 8ebd b083 38bd 4f55 973d a46b 9d3d
000000d0: b804 9ebd eac1 723d a945 2a3d 15b8 483d
000000e0: 52f0 903d c83a 3abd 5e7a d33c cfd4 0b3d
000000f0: bc95 c8bc 6476 e53c 65ce c6bc 7ea2 4e3d
00000100: 9712 bebc d3ff fbbc fde1 b03c f9dd f13c
00000110: 0469 25bd 64d8 0d3c 7ad8 463d b21f 06bc
00000120: 297a dd3c e4fa 9cbc dd9c f93c 401e 7fbd
00000130: 39ca 44bd 5951 2abd 8db5 9e3d b7cd b4bc
00000140: 1ad5 6c3a 270f 26bd b6ba aa3d 0bbc a53d
00000150: c026 80bd f29d 89bd ddd8 82bd 89e0 8938
00000160: d9d8 abbc 4116 62bd 5622 f1bc 0804 7f3c
00000170: 8df8 35bd 6101 953c 320e 9abc 9792 28bd
00000180: 5c44 413c 59eb 8c3d f4a7 69bd c707 7e3b
00000190: 6887 fabc 8f75 a53d d8d8 a2bd d662 a3bd
000001a0: 1bf4 a53d 7aa7 55bd b729 833c e58f 03bc
000001b0: 89db 8bbc 26de 97bc 7c12 5b3d 43be b43b
000001c0: 522c a5bd b43c 46bd ad71 e5bc b281 2d3d
000001d0: 0c51 5bbd 99a6 a33d 2716 95bc 1949 7ebc
000001e0: 7916 853d e841 2d3d 1ba7 8f3d 28dc 483d
000001f0: 2da9 cdbc 47e6 61bd 5867 bfbb d2e5 8c3d
00000200: a4f5 e0bc 609a 9bbd ba9f 0c3d 5287 a73d
00000210: d91e bfbc c7eb 8cbd 7ee7 99bd 1950 ab3c
00000220: acab c6bb bd33 2bbd e2ec 863c e6bb 013d
00000230: 5385 883d 1aa6 843d 75d7 46bc b70d 95bd
00000240: 55bb 99bd f8bd 9f3d db63 183d 1db9 113d
00000250: 7846 96bd 17a3 9b3d e534 a13d 2490 993d
00000260: b3ba 8fbd b13b 01bd c753 6ebd 7163 a03d
00000270: 1b68 12bd ea23 1fbd a824 323d f8c1 1dbd
00000280: 531b 2abd a751 ecbb 780b ffbb ac80 85bd
00000290: 92db 8c3d 18c0 18bd 34e5 ef3c 17ed 953d
000002a0: 3ac8 283d fd3b 403c 5661 913d 2824 413c
000002b0: edd8 1cbd 3264 a03d 4a67 a03c 4892 a6bd
000002c0: 08ee bcbc ba1f 69bd d894 963d 0ebe 4fbc
000002d0: 1a01 9bbd 6c6c aebb 06b3 553d db84 b33c
000002e0: d71c d63c fde2 023c 4a23 003d c6b1 a3bc
000002f0: 4268 04bd 1927 9fbd 3518 80bd 3aa8 143d
00000300: 53d4 49bd 2f71 463c 4d89 dd3c 5b76 bf3b
00000310: 11a5 5bbd c4f8 a43d 0fc2 46bd 4817 8b3d
00000320: a09a 88bd e2ad a3bc 04a8 363d 5695 0bbd
00000330: fd7d 8f3d ea57 6dbd 10e3 8ebd 5326 18bd
00000340: ba48 603c a230 9d3d 6153 22bd e504 f43c
00000350: 23db a6bc 8bd1 96bc 5384 7c3d 07ac 83bd
00000360: 4963 193c 7ace a23d bd99 29bc 02d2 833d
00000370: 9abc d8bc f323 883d 60ac a5bd bcfd 48bc
00000380: 0c7d 6bbc 1a18 dd3c b645 043d 9b75 813d
00000390: f607 4bbc 4d53 80bb b705 6a3d ce46 bbbc
000003a0: 5cd5 943d 3865 61bd b3bc 0fbc d9f3 a0bb
000003b0: a675 163d bf63 6a3d 5ac9 60bc a2af 8ebd
000003c0: f5b4 293d f0e9 cb3c 4665 0a3d 5759 51bd
000003d0: e695 593d 83d3 9f3d 1457 f23b 249d a0bd
000003e0: 31ab 6e3d 6385 7dbd e003 9d3c f12c 4e3c
000003f0: cf8c 1ebd cae2 ed3c 5c5e 98bd 0d95 9d3c
0.0045532254 -0.07539805 0.06951079 0.04380165 0.082755275 0.04294893 -0.05443436 0.069718786
0.0055164257 0.039356872 -0.06690484 -0.024651166 -0.082365066 -0.03237512 0.017166246 -0.065066025
0.026483627 0.04422069 0.011915141 -0.05498881 -0.06440413 -0.02402315 0.03743681 0.082221866
0.048375342 -0.008724486 0.02943789 -0.081751555 -0.07062208 0.0386329 -0.046351813 0.040619712
-0.05927235 -0.040050726 -0.06835813 0.04308785 -0.008385775 0.06450498 0.051010676 0.04630703
0.0030310443 -0.026161155 -0.01732225 0.011250174 0.040964272 -0.058478422 0.06982041 -0.009272946
-0.06974784 -0.045047462 0.07389318 0.076865464 -0.07715744 0.059266962 0.04157034 0.04900368
0.070770875 -0.045466214 0.025815185 0.034138497 -0.024485461 0.028010555 -0.024268338 0.050447933
-0.023202224 -0.030761635 0.021592135 0.02952479 -0.040383354 0.008657549 0.048546292 -0.008186268
0.02703579 -0.019162603 0.030470306 -0.062284708 -0.048044417 -0.041581485 0.07749472 -0.022070749
0.000903444 -0.040541794 0.083363935 0.08092507 -0.06257391 -0.06719579 -0.0638902 6.574492e-05
-0.020977424 -0.055197004 -0.029435318 0.015564926 -0.04442649 0.018189134 -0.018805597 -0.041155424
0.011796083 0.068808265 -0.05704494 0.003876196 -0.030582145 0.08079063 -0.07951516 -0.07977836
0.081032 -0.05216167 0.016011102 -0.008029913 -0.017072456 -0.018538546 0.053484425 0.005515845
-0.08065094 -0.048397735 -0.028008306 0.042360015 -0.05354409 0.0799076 -0.01819904 -0.0155203575
0.06498427 0.04229918 0.07014295 0.049038082 -0.025105083 -0.05515125 -0.005841177 0.06879772
-0.02746088 -0.07597804 0.034332015 0.08180107 -0.023330139 -0.068809085 -0.07514857 0.020912217
-0.0060629454 -0.04179739 0.016470376 0.031673335 0.066660546 0.06476994 -0.01213633 -0.072780065
-0.07506434 0.077999055 0.037204605 0.03557693 -0.073376596 0.07599466 0.07871417 0.07498196
-0.07018032 -0.031551067 -0.058185365 0.07831467 -0.035743814 -0.03885261 0.04349199 -0.03851506
-0.041529965 -0.007211882 -0.0077833496 -0.06518683 0.06877817 -0.03729257 0.029284097 0.07320612
0.041206576 0.011733052 0.070986435 0.0117884055 -0.038292814 0.07831611 0.019580502 -0.0813337
-0.02306272 -0.056915022 0.073526084 -0.01267959 -0.075685695 -0.0053229835 0.052172683 0.021913936
0.026136799 0.007988689 0.031283654 -0.01998223 -0.03232599 -0.07771129 -0.06254617 0.036293246
-0.049274754 0.012111946 0.02704301 0.0058429665 -0.053624216 0.08055261 -0.048524912 0.0679155
-0.066701174 -0.019980375 0.044593826 -0.034077965 0.07006452 -0.05794517 -0.069769025 -0.037145924
0.013689214 0.076752916 -0.039630298 0.02978749 -0.020368164 -0.018410465 0.06164963 -0.06429296
0.00936205 0.079495385 -0.0103515955 0.0643654 -0.02645712 0.06647482 -0.080895185 -0.012267526
-0.014373075 0.026989032 0.032293044 0.063212596 -0.012392035 -0.00391618 0.057134356 -0.02286091
0.072672576 -0.05502817 -0.008773017 -0.0049118814 0.036733292 0.05722403 -0.013719881 -0.06967093
0.04143234 0.024891824 0.033787988 -0.05111059 0.05312147 0.078040145 0.0073956344 -0.07842472
0.05826873 -0.061894786 0.019166887 0.012583957 -0.038708504 0.029038806 -0.074398726 0.019236112

bias f4 [32]
00000000: ab22 0d3d 6009 a73d 091f 9a3d 7d7f 9f3d
00000010: 1dd6 983d 6bb2 8a3d f5b6 b23c 6fae e4bb
00000020: e1b0 4f3b bbd9 0dbd ca60 203d e037 1e3b
00000030: 0f0f a13c 7bde 5bbd 9085 00bd 06e6 7f3d
00000040: 58cb 043c 2c95 eb3c 47fe 94bd f82a 12bd
00000050: 80fe 0abb a145 0fbc 6de3 593d b604 cebc
00000060: 1d70 8e3d 7408 84bc e0c2 043d e84e 70bd
00000070: 1fbe 673c a663 a6bd 186e 92bd 8474 5abd
0.03445689 0.08156085 0.07525451 0.07787988 0.07462714 0.06772312 0.021815756 -0.006978802
0.0031691121 -0.034631472 0.039154805 0.002414219 0.0196605 -0.05367897 -0.031377375 0.062475227
0.008105122 0.028757654 -0.07275062 -0.03568551 -0.0021208823 -0.008744628 0.053195406 -0.02514873
0.06954978 -0.016117312 0.03241241 -0.058669 0.0141444495 -0.08124475 -0.07149905 -0.053333774

weight f4 [32]
00000000: 050e 803f b0f4 7f3f da06 803f 27de 7f3f
00000010: 9c00 803f c0ff 7f3f fa0a 803f 5c0b 803f
00000020: acef 7f3f 0bf2 7f3f a205 803f f001 803f
00000030: 28fe 7f3f b0f6 7f3f f306 803f 2df0 7f3f
00000040: 6ff5 7f3f d600 803f 92e5 7f3f b4f1 7f3f
00000050: b7fa 7f3f bc05 803f e909 803f 6c04 803f
00000060: ad18 803f 59f8 7f3f e513 803f f803 803f
00000070: 5ad2 7f3f 1705 803f ece0 7f3f 3be9 7f3f
1.0004278 0.9998274 1.0002091 0.9994835 1.0000186 0.9999962 1.000335 1.0003467
0.99975085 0.99978703 1.0001719 1.0000591 0.99997187 0.9998579 1.0002121 0.99975854
0.99983877 1.0000255 0.9995967 0.99978185 0.99991935 1.000175 1.0003024 1.000135
1.000753 0.99988323 1.0006071 1.0001211 0.99930346 1.0001553 0.9995258 0.99965256

bias f4 [32]
00000000: 60b9 eb37 d842 31b9 e892 d537 ac87 7ab8
00000010: b384 4ab9 df0c 1db8 c2b7 e338 5238 89b8
00000020: 4989 4bb9 311e a8b9 d92d 95b9 e718 76b8
00000030: 0412 38b9 e3a2 22b9 68d0 6eb7 5f83 36b9
00000040: b227 fcb8 92b7 82b8 857a 97b9 f1f2 4338
00000050: f780 2ab9 7c74 8c39 35f3 8039 77f2 9ab9
00000060: 432c d739 9553 37b8 197f 9039 b85f 76b7
00000070: 32dd 73b9 40a0 b539 f42d 0dba 120e dab9
2.8100505e-05 -0.00016904937 2.5459987e-05 -5.9731e-05 -0.00019313656 -3.7443704e-05 0.00010858431 -6.5431595e-05
-0.00019410731 -0.0003206595 -0.00028453654 -5.8674163e-05 -0.00017554319 -0.00015510204 -1.4234429e-05 -0.00017405812
-0.0001202369 -6.233076e-05 -0.00028892249 4.671788e-05 -0.00016260507 0.00026789668 0.00024595266 -0.0002955382
0.00041040973 -4.370844e-05 0.00027560515 -1.4685029e-05 -0.00023256688 0.00034642406 -0.00053855707 -0.00041590683

running_mean f4 [32]
00000000: 0000 0000 0000 0000 0000 0000 0000 0000
00000010: 0000 0000 0000 0000 0000 0000 0000 0000
00000020: 0000 0000 0000 0000 0000 0000 0000 0000
00000030: 0000 0000 0000 0000 0000 0000 0000 0000
00000040: 0000 0000 0000 0000 0000 0000 0000 0000
00000050: 0000 0000 0000 0000 0000 0000 0000 0000
00000060: 0000 0000 0000 0000 0000 0000 0000 0000
00000070: 0000 0000 0000 0000 0000 0000 0000 0000
0.0 0.0 0.0 0.0 0.0 0.0 0.0 0.0
0.0 0.0 0.0 0.0 0.0 0.0 0.0 0.0
0.0 0.0 0.0 0.0 0.0 0.0 0.0 0.0
0.0 0.0 0.0 0.0 0.0 0.0 0.0 0.0

running_var f4 [32]
00000000: 0000 803f 0000 803f 0000 803f 0000 803f
00000010: 0000 803f 0000 803f 0000 803f 0000 803f
00000020: 0000 803f 0000 803f 0000 803f 0000 803f
00000030: 0000 803f 0000 803f 0000 803f 0000 803f
00000040: 0000 803f 0000 803f 0000 803f 0000 803f
00000050: 0000 803f 0000 803f 0000 803f 0000 803f
00000060: 0000 803f 0000 803f 0000 803f 0000 803f
00000070: 0000 803f 0000 803f 0000 803f 0000 803f
1.0 1.0 1.0 1.0 1.0 1.0 1.0 1.0
1.0 1.0 1.0 1.0 1.0 1.0 1.0 1.0
1.0 1.0 1.0 1.0 1.0 1.0 1.0 1.0
1.0 1.0 1.0 1.0 1.0 1.0 1.0 1.0

weight f4 [64, 32, 3, 3]
00000000: dbc9 883c daad 853b 212f af3b a01e c9bb
00000010: 132a 4b3d e2e6 6b3d f4f0 d03c b526 3f3d
00000020: a6c0 15bb 3d31 b1bc dbe1 353c e89a 1a3d
00000030: 951f 09bc 00d5 38bd ae21 9c3c 8349 64bc
00000040: ca0f f0bc f6a4 153d af59 ebba 6f7d 09bd
00000050: 916d 11bd 2c39 643d 629c 1d3d ad95 2bbd
00000060: e888 253a 3c88 a5ba 8075 e13c b46e 4fbd
00000070: 5ce7 5c3a 575a 993c 74b4 fb3c 5df2 dd3b
00000080: efea efbc c35b 64bd 86f5 fe3c a44e 573d
00000090: 64d7 90bc d301 58bd 3592 8a3c b71c 28bd
000000a0: dc0d 1dbd 7c4e 833c a0cd b3bb 8438 89bb
000000b0: cf10 563d 71f4 28bc 4a85 133d 0ab2 97bc
000000c0: 7069 353d 5016 9a3c 8194 563d fecb ad3c
000000d0: df8f abbc 028e cd3c 6a0e 4e3d fb4a 383c
000000e0: a0dd da3c 124e 29bd 5dc6 033d 6f09 64bd
000000f0: b978 583d 46ca c73c fabf 6d3b 9a69 61bd
00000100: c25f 5c3d 8682 1a3d 309b 603d f5a3 ca3c
00000110: 2c72 a83c 7d3c 70bc 7a0e ccbc 7281 b73c
00000120: 9930 a73c ad27 edba 2a92 153c 6ed5 a83c
00000130: d4c0 69bd 06bf 58bd 6e59 78bc 522e 273d
00000140: e2f0 e73c 4512 65bd 861f 90bc 3f28 cabb
00000150: 9978 a33c 7559 4a3d c001 df3a 2109 38bd
00000160: 4b9b 7c3b d027 b5bc dd50 12bd c64a 063d
00000170: 6c33 02bc a10b e93c 79cd 3e3d 666e ce3b
00000180: 45bd 083d 96b2 e5bc fc61 043d 09f0 1c3b
00000190: 7014 213d 9245 643d 9200 35bd b0c6 643d
000001a0: 0cf8 363d 60bb 3fbd f7a6 883c 736f 46bd
000001b0: a5b1 9c3c 3ab9 0e3c cf0a 6abd 8056 b43c
000001c0: b513 80bc 2aa1 713d 235c 6b3d 3ddc a73c
000001d0: 8687 3b3d e8ed ad3c 0dae 623d b752 b9bb
000001e0: fb4f 763c 8c27 24bc 3548 c4ba 55da 90bc
000001f0: dd22 bfbc b259 0a3d 4326 d13c 255c d5bc
00000200: 04a9 54bd 2f54 ed3c d043 5ebd 66b8 4abb
00000210: 7f28 4ebd 586d 4d3d d570 473d 8708 46bd
00000220: c362 61bd 9b58 0fbd f862 823c 742e f4bc
00000230: 69cb 69bc 1f2b 72bc a67c 313c 4af4 e3bc
00000240: 0a23 dc3c 67d3 2dbd 101b bdbb d08b 4e3d
00000250: 14b4 01bd f00f 3a3d f28e 013d 3df9 a2bc
00000260: 56a9 a03c 0512 22bd f3d2 a43b a278 873c
00000270: e9e9 533d 6acc 01bd 05d1 07bd 4505 eabc
00000280: d8e6 6fbd 3efd 343c b2b1 47bd de8b 84bc
00000290: 1844 dbbc cdb0 543b fa8d 913c db26 31bd
000002a0: dd7c 8bbc ff9e c0bb d862 0cbd fbb2 633c
000002b0: e6eb b13c 2abe 2bbd 5eba 403d 63b9 2c3d
000002c0: 53d7 8ebc edac 143c 284c eb3b a3ac 11bc
000002d0: 81d5 21bd 129f 443d da1d e63c 0c39 47bd
000002e0: 6d87 3cbd 7b0d 663d 6d6d 173c 12af 68bc
000002f0: 1f9d 1e3d a4ed 8a3c 7682 ac3c 15b0 3e3d
00000300: ba3f 8abb 9544 673d 2c4d 2abd c105 12bd
00000310: 2de8 333c 194d e3bb 4647 0a3d 40b5 82bc
00000320: 07c2 153c 1b4e 42bc 97a4 353d afdb 7ebb
00000330: 85f7 413a 7741 303d 9f11 693d 91ef 663d
00000340: b705 6bbd 0160 08bd a03d 42bc 6a1b 38bc
00000350: d9b5 0c3d a868 de3c 942b 97bb 6b40 6639
00000360: fffd 513c 4cb7 4d3d 0355 f63c 2e61 f1bc
00000370: d9ed f6bc 1641 993c b3d1 bcbb cb65 1cbd
00000380: 49cc 69bd 3b9a 0d3c 1c47 8ebc a3ef 0cbd
00000390: 4361 383c c663 6c3d 7dab 463d e8d7 073d
000003a0: 6fa5 37bd 042f 083d f48f fb3c 9a37 a13c
000003b0: 0e1b 74bc b6d8 c1b9 38f1 febc 57c1 57bc
000003c0: 513d 16bc 798a 15bc e218 74bd 91a2 ab3c
000003d0: bbd3 45bd 8497 35bd d7f8 c23c 39ea 44bd
000003e0: 7622 623d 6908 663d 500a 9ebc 2249 2dbc
000003f0: 7c1a 38bd 5cf3 603b 4fae 2e3c 2f68 01bd
0.016697815 0.0040795626 0.0053461944 -0.006137684 0.049600672 0.057593234 0.02550552 0.046667773
-0.0022850423 -0.021629924 0.011101211 0.037745386 -0.008369346 -0.045125008 0.019059028 -0.013933542
-0.029304404 0.036534272 -0.0017955805 -0.03356689 -0.03550488 0.055718586 0.038479216 -0.04189079
0.0006314651 -0.0012629102 0.027521849 -0.050642684 0.0008426809 0.018719835 0.030725695 0.0067732767
-0.02928683 -0.055751573 0.031122934 0.052565232 -0.017680831 -0.052736115 0.01691542 -0.04104301
-0.038343295 0.016028635 -0.005487159 -0.0041876454 0.052262124 -0.010312186 0.036015786 -0.018517513
0.044290006 0.018809468 0.052387718 0.021215435 -0.020942627 0.025092129 0.050306715 0.0112483455
0.026717007 -0.04133422 0.032171596 -0.05567306 0.052849505 0.024388444 0.0036277757 -0.05503235
0.05380226 0.037722133 0.0548355 0.024736384 0.020562254 -0.014662859 -0.024909247 0.022400592
0.020408915 -0.0018093489 0.0091290865 0.020609584 -0.05706866 -0.05291655 -0.01515804 0.04081566
0.028313104 -0.055925626 -0.017593157 -0.0061693485 0.019954966 0.04940172 0.0017014071 -0.04493058
0.003854471 -0.02211371 -0.03572165 0.032786153 -0.00794683 0.028447928 0.046582673 0.0062997816
0.033383626 -0.028039258 0.032320008 0.0023946783 0.03932613 0.05573041 -0.044189997 0.055853546
0.04467015 -0.046809554 0.016681178 -0.04844613 0.019127676 0.008711154 -0.057139214 0.022013903
-0.015634397 0.05899159 0.057460915 0.02049076 0.045783542 0.021231607 0.05534177 -0.0056556123
0.015033717 -0.010019194 -0.0014975133 -0.017682234 -0.023332054 0.033776946 0.02553094 -0.026044914
-0.051919 0.028970806 -0.05426389 -0.0030932664 -0.05033159 0.050153106 0.04869159 -0.048347976
-0.055025827 -0.03499661 0.015916333 -0.029807307 -0.014269688 -0.014780789 0.010832941 -0.027826447
0.026872177 -0.042437937 -0.0057710484 0.050426304 -0.031665877 0.045425355 0.031630464 -0.019894237
0.019611996 -0.039567966 0.00503003 0.016537014 0.051736746 -0.031689085 -0.03315832 -0.028566966
-0.05856976 0.011046706 -0.048753448 -0.016179975 -0.026765868 0.0032454014 0.017767895 -0.043249946
-0.017027313 -0.005878329 -0.034273952 0.013897653 0.02171893 -0.0419294 0.047052734 0.042168986
-0.017436659 0.009074432 0.0071807094 -0.008891257 -0.039510254 0.048003264 0.028090406 -0.04863839
-0.04602759 0.0561652 0.009242398 -0.014201896 0.03872406 0.016959019 0.021058302 0.046554644
-0.0042190226 0.05646189 -0.041577503 -0.03565002 0.010980648 -0.006936681 0.033759378 -0.015955567
0.009140498 -0.011859442 0.04434642 -0.0038888266 0.0007399249 0.043031182 0.05690157 0.056380812
-0.057378497 -0.03329468 -0.011855513 -0.011237005 0.03435311 0.027149513 -0.004613349 0.00021958507
0.012816905 0.050223634 0.030069834 -0.029465284 -0.030142711 0.018707793 -0.005762303 -0.038183015
-0.057079587 0.008642728 -0.017367892 -0.034408223 0.011253658 0.05771234 0.048503388 0.03316489
-0.044835504 0.033247963 0.03070829 0.019679833 -0.014899028 -0.0003697329 -0.031120881 -0.013168654
-0.009169892 -0.009127253 -0.059594043 0.020951541 -0.048297625 -0.04433395 0.023800297 -0.048074935
0.055208646 0.056160364 -0.019292027 -0.010576518 -0.044947132 0.003432474 0.010661676 -0.031593498

bias f4 [64]
00000000: b3dd 003d cf8c 38bd 7685 9b3c 0ac3 18bd
00000010: 8a8f 543d b4e8 2ebd 3aa2 5a3d dfed f13c
00000020: 680f 24bc e5f5 6a3d 2cec e2bc 201d 60bb
00000030: 55d2 7e3c 37ba 0b3d b6c1 393d e931 61bd
00000040: 6355 573c b2ba 2a3d 3225 a1bc 7cdb 6f3c
00000050: fec7 6638 1052 8bbb a854 a7bb e6b1 5fbd
00000060: b9d9 19bd f59d 2c3d 19d5 673d e0cf 04bc
00000070: 1af0 443d d104 0ebd bddc 423d 83b7 043d
00000080: 7e3d 933c 50e9 50bb b1b4 bdbb 7714 e33c
00000090: dca2 15bc a9c8 1abd b90d 173d 3347 1abd
000000a0: 5e92 e3bc 7043 6b3d c3df 963c 99a1 da3c
000000b0: fd38 333d 0253 bbbc 7be0 6a3d bb3a 22bd
000000c0: 90af 743b 3612 2ebd 086a 3fbd 08a6 df3b
000000d0: 81ab fd39 b9bb 1b3d 899d 36bd e6e4 a83c
000000e0: ecfb 12bc e4df 4b3c 6c38 35bc acde 543c
000000f0: fffa 3f39 0201 52bd 99b3 55bd 5c21 71bc
0.03146143 -0.04505616 0.018984538 -0.03729538 0.051894702 -0.04270239 0.053377368 0.029532371
-0.010013439 0.05736341 -0.027700506 -0.0034197047 0.015553077 0.034113135 0.045350753 -0.05497924
0.013142916 0.041681953 -0.019671056 0.0146397315 5.502253e-05 -0.004251726 -0.0051065274 -0.054613017
-0.037561152 0.042142827 0.05659971 -0.008106202 0.04808054 -0.034672562 0.047573794 0.032401573
0.017973658 -0.0031877346 -0.0057893624 0.02771972 -0.009133067 -0.03778902 0.03687832 -0.037665557
-0.027779754 0.05743736 0.018417245 0.026688384 0.04375552 -0.02286673 0.057342988 -0.03960679
0.0037336089 -0.042497836 -0.04673198 0.0068252124 0.000483837 0.038020823 -0.04458383 0.02061696
-0.008971196 0.012443516 -0.011060815 0.012992542 0.00018308683 -0.051270492 -0.05217323 -0.014717426

weight f4 [64]
00000000: 62e8 7f3f 3cfc 7f3f 12fd 7f3f 1dfc 7f3f
00000010: bafd 7f3f b119 803f 0513 803f 8609 803f
00000020: 3300 803f 31e9 7f3f c100 803f 35f1 7f3f
00000030: fa25 803f 49e6 7f3f 3fff 7f3f 33f8 7f3f
00000040: 3ef3 7f3f 8a19 803f 7ff5 7f3f 85d5 7f3f
00000050: 1309 803f 34f6 7f3f 0705 803f 280a 803f
00000060: eedd 7f3f 0aff 7f3f 3a2c 803f ccf1 7f3f
00000070: 2506 803f 8c10 803f 6500 803f 4f10 803f
00000080: b800 803f 9efd 7f3f dc03 803f 77c4 7f3f
00000090: f202 803f 5009 803f 3e0c 803f 54ff 7f3f
000000a0: 3340 803f 2eff 7f3f 8b08 803f 0505 803f
000000b0: d3fd 7f3f 2f1d 803f 9a17 803f 2815 803f
000000c0: f518 803f 7cf1 7f3f b5f8 7f3f b9ff 7f3f
000000d0: 0cfd 7f3f 2d09 803f 7d02 803f 8803 803f
000000e0: a007 803f d805 803f ee1a 803f 4402 803f
000000f0: 78f2 7f3f 0403 803f 7d0c 803f a1d2 7f3f
0.99963963 0.99994254 0.9999553 0.9999407 0.9999653 1.000784 1.0005804 1.0002906
1.0000061 0.99965197 1.000023 0.9997743 1.001159 0.9996076 0.9999885 0.99988097
0.99980533 1.0007794 0.9998397 0.9993518 1.0002769 0.9998505 1.0001534 1.00031
0.9994801 0.99998534 1.0013497 0.9997833 1.0001875 1.000505 1.000012 1.0004977
1.0000219 0.99996364 1.0001178 0.99909157 1.0000899 1.0002842 1.0003736 0.99998975
1.0019592 0.9999875 1.0002607 1.0001532 0.9999668 1.0008906 1.0007203 1.0006456
1.0007616 0.9997785 0.9998887 0.99999577 0.99995494 1.00028 1.0000759 1.0001078
1.0002327 1.0001783 1.0008218 1.0000691 0.9997935 1.000092 1.0003811 0.9993077

bias f4 [64]
00000000: 01fa 04ba 88e8 11b8 a154 7ab8 cc94 7db9
00000010: 9c07 cdb8 8bcc 1d3a 7029 c939 65ce b039
00000020: 9482 0aba 7366 adb9 86fa 4c37 4609 7aba
00000030: ae6e 513a cef1 02ba 0c80 83b8 3f37 3db9
00000040: 6f01 cbb9 671f 0c3a 83a5 d2b9 3b1f 04ba
00000050: 8d75 8239 7dc3 00ba 2c89 b0b9 2831 2c39
00000060: 0447 e4b9 634b 36b8 96c3 263a 8a8b 94b9
00000070: 371a c638 0b9b 8a39 2504 df37 49ef 9839
00000080: 9289 a337 ee6a 83b8 54a6 6839 6060 63ba
00000090: 7882 22b9 ff84 7339 91c0 5e39 0b1a 82b8
000000a0: 683e 503a 6d0c 0d38 6047 0b39 eba1 0539
000000b0: a492 5aba b8c3 163a d232 513a 2476 233a
000000c0: 2a1c e639 88cc c0b9 698d 46b9 fe4d 83b5
000000d0: 022a 45b8 13b3 6539 66a0 23b8 3ab1 3839
000000e0: 893d 0539 7e70 70b9 d89a 013a 56e8 3e38
000000f0: 4c11 b4b9 b42d 9938 fcc9 cc39 4c26 8fba
-0.0005072654 -3.4787256e-05 -5.968346e-05 -0.00024183391 -9.776579e-05 0.0006019554 0.0003836858 0.00033723112
-0.000528374 -0.00033073462 1.2217677e-05 -0.0009538125 0.000798921 -0.0004995138 -6.270417e-05 -0.00018045025
-0.00038720245 0.00053452555 -0.00040177637 -0.0005040054 0.00024883114 -0.00049119425 -0.00033671537 0.0001642151
-0.0004354046 -4.346239e-05 0.0006361542 -0.00028332724 9.4462586e-05 0.00026436927 2.6585602e-05 0.0002916998
1.9495175e-05 -6.266484e-05 0.00022187206 -0.0008673724 -0.00015498127 0.00023223831 0.00021243306 -6.203734e-05
0.00079438696 3.3628592e-05 0.00013282662 0.00012744188 -0.0008337891 0.000575121 0.000798029 0.0006235561
0.00043890002 -0.0003677348 -0.00018935431 -9.782959e-07 -4.7007583e-05 0.00021905852 -3.901161e-05 0.0001761363
0.00012706792 -0.0002293009 0.0004944033 4.551591e-05 -0.00034345163 7.3041214e-05 0.00039060402 -0.0010921448

running_mean f4 [64]
00000000: 0000 0000 0000 0000 0000 0000 0000 0000
00000010: 0000 0000 0000 0000 0000 0000 0000 0000
00000020: 0000 0000 0000 0000 0000 0000 0000 0000
00000030: 0000 0000 0000 0000 0000 0000 0000 0000
00000040: 0000 0000 0000 0000 0000 0000 0000 0000
00000050: 0000 0000 0000 0000 0000 0000 0000 0000
00000060: 0000 0000 0000 0000 0000 0000 0000 0000
00000070: 0000 0000 0000 0000 0000 0000 0000 0000
00000080: 0000 0000 0000 0000 0000 0000 0000 0000
00000090: 0000 0000 0000 0000 0000 0000 0000 0000
000000a0: 0000 0000 0000 0000 0000 0000 0000 0000
000000b0: 0000 0000 0000 0000 0000 0000 0000 0000
000000c0: 0000 0000 0000 0000 0000 0000 0000 0000
000000d0: 0000 0000 0000 0000 0000 0000 0000 0000
000000e0: 0000 0000 0000 0000 0000 0000 0000 0000
000000f0: 0000 0000 0000 0000 0000 0000 0000 0000
0.0 0.0 0.0 0.0 0.0 0.0 0.0 0.0
0.0 0.0 0.0 0.0 0.0 0.0 0.0 0.0
0.0 0.0 0.0 0.0 0.0 0.0 0.0 0.0
0.0 0.0 0.0 0.0 0.0 0.0 0.0 0.0
0.0 0.0 0.0 0.0 0.0 0.0 0.0 0.0
0.0 0.0 0.0 0.0 0.0 0.0 0.0 0.0
0.0 0.0 0.0 0.0 0.0 0.0 0.0 0.0
0.0 0.0 0.0 0.0 0.0 0.0 0.0 0.0

running_var f4 [64]
00000000: 0000 803f 0000 803f 0000 803f 0000 803f
00000010: 0000 803f 0000 803f 0000 803f 0000 803f
00000020: 0000 803f 0000 803f 0000 803f 0000 803f
00000030: 0000 803f 0000 803f 0000 803f 0000 803f
00000040: 0000 803f 0000 803f 0000 803f 0000 803f
00000050: 0000 803f 0000 803f 0000 803f 0000 803f
00000060: 0000 803f 0000 803f 0000 803f 0000 803f
00000070: 0000 803f 0000 803f 0000 803f 0000 803f
00000080: 0000 803f 0000 803f 0000 803f 0000 803f
00000090: 0000 803f 0000 803f 0000 803f 0000 803f
000000a0: 0000 803f 0000 803f 0000 803f 0000 803f
000000b0: 0000 803f 0000 803f 0000 803f 0000 803f
000000c0: 0000 803f 0000 803f 0000 803f 0000 803f
000000d0: 0000 803f 0000 803f 0000 803f 0000 803f
000000e0: 0000 803f 0000 803f 0000 803f 0000 803f
000000f0: 0000 803f 0000 803f 0000 803f 0000 803f
1.0 1.0 1.0 1.0 1.0 1.0 1.0 1.0
1.0 1.0 1.0 1.0 1.0 1.0 1.0 1.0
1.0 1.0 1.0 1.0 1.0 1.0 1.0 1.0
1.0 1.0 1.0 1.0 1.0 1.0 1.0 1.0
1.0 1.0 1.0 1.0 1.0 1.0 1.0 1.0
1.0 1.0 1.0 1.0 1.0 1.0 1.0 1.0
1.0 1.0 1.0 1.0 1.0 1.0 1.0 1.0
1.0 1.0 1.0 1.0 1.0 1.0 1.0 1.0

weight f4 [32, 64]
00000000: c7d2 ffbd 434e f3bc 6fe6 813d 8fe4 bc3d
00000010: 4953 683c b8af c23c db7f 8c3d 68be 6bbc
00000020: 4003 063a d521 21bc 2329 8e3d fadc e63d
00000030: fd58 89bc b49a e33d c011 7f3d 849c c43d
00000040: cbef 013d 6879 5bbc c2be c43d 1d7c 0a3d
00000050: a4f7 a438 e24b f43d 7c01 27bd fbb5 2e3d
00000060: adee 43bc 7bcd 10bd c294 b1bd c7c5 d93d
00000070: 41e9 febd e0ee 003d 251c 923d ace3 fbbd
00000080: 7eac fa3d 6afb b8bd e79a 783d 0c15 5e3d
00000090: cca8 6d3b adfc 0b3d 8704 673d 70b6 af3d
000000a0: 367d 22bc f75e 753c 3846 123c cdd8 3e3d
000000b0: 219c 283d f507 5c3d adfe 0dbd fa10 323d
000000c0: c48d d9bc 1ab3 f63d c63b 00be 56ff adbc
000000d0: 1651 abbc 814a 4b3d 9b47 ed3d 0c34 9cbd
000000e0: df30 a53d 9386 01bc 2077 7abd a79d 72ba
000000f0: 1bb6 b83c 4348 33bc 0f74 75bd b187 8e3d
00000100: 552d 4f3d eade 3e3d 8f2d b2bb 806c f83c
00000110: 471c 35bd 8279 abbd 155d b0bd 6163 c73d
00000120: 0a4b 3cbd 0e17 a0bd a2c4 9dbd 7354 fb3d
00000130: 018c 03bd 27f2 9abd 1774 76bd fa72 e43d
00000140: b716 9dbb 19dd 8a3d 3311 853d e42d 5c3d
00000150: 4ecb b43d 636a d5bd 37ae 903d 44b5 b93d
00000160: 00d6 803d 1921 82bd 9623 71bd d532 fcbd
00000170: 7644 e9bd 0230 f13b a400 133d a0fc 793d
00000180: 1149 d03b b885 89bd ba61 9cbb ac99 533c
00000190: c463 ec3d 4371 333d 7939 823c 3279 7ebc
000001a0: eccd 6c3d f916 bb3d 91d9 6a3c 4fa9 c4bd
000001b0: bee3 f13d 06ad bebc f029 e7bd 2c14 c2bd
000001c0: 67fd e5bd 50f3 2e3d 7acd c53d c821 b4bd
000001d0: 604a 5ebd 7c7c ab3a 1015 e23d 9d63 26bd
000001e0: 0a7c 6e3d 6d15 a73d 09b4 53bd f1d2 acbd
000001f0: f8d5 4fbd 4970 d13d 2f61 9f3d 893d a43d
00000200: b8a6 0b3c 9aa2 763d 4f3e b6bc f190 a43d
00000210: 69b9 dabd 5aaf fd3d cd8f 203d 889c cb3c
00000220: 688d 4fbd ff3a b2bd 4c3b eaba b08c b8bd
00000230: ceea 6b3c 28e5 563d 24fa de3d 9fe2 d5bd
00000240: cb27 8bbd 623f 8a3d 641d ef3d 002e 5f3d
00000250: fc51 90bd c776 2fbd 012c 9ebd e863 963d
00000260: 5d5d debd 617a d6bd 76c8 dd3d 2670 d7bd
00000270: 41c5 6cbd 7408 01bd 1663 983d cb7f f83d
00000280: 8148 98bd 3dc1 bfbd 1626 f03c f0c2 143d
00000290: 1a63 963d fc7a 933d 5382 a0bd 07b0 d13c
000002a0: a186 9cbd 9018 b23d b1aa 773c 6d11 aa3d
000002b0: 7b56 20bd c41f 2ebd 8d66 bbbd 9685 eebd
000002c0: f4e7 a43d 40ca aa3d dbc7 bb3d 48fe d8bd
000002d0: 9990 7e3d d92e febd 312a 4c3d a067 df3d
000002e0: 030f b0bd 2734 c2bd c5c1 c0bd e02f 193b
000002f0: 37f8 0c3c cd11 573d 5884 99bc 6ed4 6b3d
00000300: 8768 67bd 0270 a4bd 3598 dabb c192 eb3d
00000310: 798a 6f3d 3b2b dfbd 6e41 3ebc 05e5 fc3a
00000320: 8917 debc c9fd 143b 5c73 1d3c d4ad 39bd
00000330: 518d 223d ab06 f13d 9cc0 7f3d 65f0 c9bd
00000340: 3455 8abc 0051 3cbd e96a 2abc cc60 913d
00000350: c6d0 3f3d 3c4a 4e3c cb3b 023d d407 f93c
00000360: 035d dcbd d728 e2bc c1ce 883c b494 c7bd
00000370: 6f27 e9bc 8f3b 8c3d 14fc a9bd 9b43 dc3d
00000380: d2fb 563d d572 c3bd 287d ff3d 2c0f 23bd
00000390: 8f4b b33d 8182 543d e8cc 96bd da39 9fbd
000003a0: e61b 2b3d 1fa0 da3d 11c0 fbbc d7ae 883d
000003b0: c215 ec3d 8522 15bd 49bf f73d 2599 34bd
000003c0: 84f2 d239 43ac bb3d 520d 84bd 74da 983d
000003d0: a169 89bb 2cdb 033d f021 b3bd cd5d b3bc
000003e0: 1fc7 50bd 76e0 e53d 5dc5 abbd 2b89 bd3d
000003f0: 01f6 303d 4d0a b43d 7dca 90bd 0a7d 39bd
-0.124913745 -0.029700404 0.0634278 0.092232816 0.014180013 0.02376543 0.06860324 -0.014388658
0.00051121786 -0.009834726 0.0694144 0.11272617 -0.016766066 0.11113492 0.062272787 0.096001655
0.031722825 -0.013395645 0.09606697 0.03380977 7.866256e-05 0.11928536 -0.0407729 0.04265402
-0.01195876 -0.03535221 -0.086709514 0.10633426 -0.124468334 0.03147781 0.071342744 -0.12299284
0.122399315 -0.090323284 0.0606946 0.05421929 0.003626394 0.034176517 0.056400802 0.08579719
-0.009917548 0.014976255 0.008927874 0.046593476 0.04116452 0.053718526 -0.034666706 0.04347322
-0.026556857 0.1204588 -0.12522802 -0.021239918 -0.020912688 0.0496316 0.11585923 -0.07627115
0.08065962 -0.00790562 -0.061148763 -0.00092550594 0.022547772 -0.0109425215 -0.059925135 0.06959475
0.05058034 0.046599306 -0.00543756 0.030325174 -0.04421642 -0.08372785 -0.08611504 0.09735752
-0.04597 -0.07816897 -0.0770352 0.12271967 -0.03211594 -0.07565718 -0.060169306 0.111547425
-0.0047939676 0.06780452 0.06497421 0.053754702 0.0882784 -0.10420682 0.07064479 0.09067777
0.06290817 -0.06353969 -0.058871828 -0.12314383 -0.11390011 0.0073604593 0.035889283 0.061031938
0.0063563664 -0.06714958 -0.004772392 0.012915056 0.11542466 0.043809187 0.015896546 -0.015531825
0.05781357 0.09135241 0.014334098 -0.096026056 0.118110165 -0.023275863 -0.11287296 -0.09476504
-0.11229973 0.04271251 0.09658332 -0.08795506 -0.05427015 0.0013083364 0.110391736 -0.040622342
0.05822376 0.081583835 -0.051685367 -0.084386714 -0.050741166 0.10226495 0.07782208 0.080195494
0.008523636 0.060213663 -0.022246508 0.08035458 -0.106798954 0.12386961 0.03919964 0.024854913
-0.050671965 -0.08702659 -0.0017870455 -0.09011209 0.0143992435 0.052464634 0.10887554 -0.10443615
-0.06794699 0.067503706 0.11675528 0.05448723 -0.07046887 -0.042837884 -0.07723237 0.07343274
-0.108576514 -0.10472561 0.108292505 -0.105194375 -0.057805303 -0.031502202 0.07440774 0.121337496
-0.07435704 -0.09363029 0.029315036 0.03631872 0.07343121 0.07201192 -0.07837357 0.025596632
-0.07642866 0.08696091 0.01511638 0.08304105 -0.039144974 -0.042510763 -0.091504194 -0.11646573
0.08052054 0.083393574 0.09168979 -0.10595375 0.062149618 -0.12411279 0.049844924 0.10908437
-0.08596613 -0.094826035 -0.094119586 0.0023374483 0.008604101 0.05250721 -0.018739864 0.057575636
-0.05649617 -0.08029176 -0.0066709765 0.115026005 0.058481667 -0.108969174 -0.011612279 0.0019294327
-0.027110832 0.0022734276 0.009610023 -0.04533179 0.03968555 0.1176885 0.062439546 -0.09860305
-0.016886331 -0.045975685 -0.010401466 0.07098541 0.04682996 0.012590941 0.031795304 0.03039924
-0.10759928 -0.027607365 0.01670015 -0.0974516 -0.028461186 0.068472974 -0.08300033 0.10755082
0.05248625 -0.09543387 0.124750435 -0.03980939 0.08754646 0.05188227 -0.073633015 -0.07774706
0.041774653 0.10675072 -0.030731233 0.06673973 0.115275875 -0.036409874 0.120970316 -0.044091363
0.0004023501 0.09163716 -0.06447853 0.074635416 -0.0041935 0.03219144 -0.087467074 -0.021895314
-0.050971147 0.11224453 -0.083872534 0.09254678 0.043203358 0.08791027 -0.070698716 -0.045285262

bias f4 [32]
00000000: e00f 3cbd 24dd ca3d 836a 85bd 98bf c2bd
00000010: fa6a 03bd 7d4a 89bd 9582 203d 1c8f e73b
00000020: cc0b f23c 3138 bbbd 9e37 813d 8c5a d23d
00000030: 780c 81bc 2536 ef3d da0e 953d 37f1 bcbd
00000040: 30ed 88bc b04f 46bd 7a64 bb3c f615 9b3d
00000050: daf6 cebd 3610 fa3d 34b3 96bd a0b3 dfbd
00000060: ea22 c6bb d510 423d 159a ef3d 55e7 043d
00000070: 8f4c c53c 09c3 dabd dace d0bd 845d 813d
-0.045913577 0.099054605 -0.06514456 -0.095092 -0.032084443 -0.06703661 0.039187033 0.0070666205
0.02954664 -0.09141577 0.06309436 0.10271177 -0.015753016 0.11680249 0.07278223 -0.092256956
-0.016714662 -0.04841584 0.02287506 0.07572548 -0.10105677 0.12210123 -0.07358399 -0.109229326
-0.0060466425 0.047379334 0.11699311 0.032447178 0.024084358 -0.10681731 -0.10195704 0.06316665

weight f4 [2, 32]
00000000: 1487 f2bd 6c2b adbd de3f 523d 00c7 14be
00000010: 066d a13d b2cd 613d b3e4 003e 0c69 a93d
00000020: a00c 05be ff40 8b3d 5a51 233e ef6d 7d3d
00000030: 94bf d63d fa06 10be a061 483d c81e 303e
00000040: 1689 53bd 6e2b a03d a981 863d 027c 063d
00000050: c596 e43d ace3 483d e4e0 2ebe f08d bfbc
00000060: 1570 babd 86da c93d 67c6 bebd 1f42 a6bd
00000070: d404 753d 7457 963b 2d38 2ebd c279 d7bd
00000080: 3747 5e3b 5f51 ca3d 3707 273b 8a2c 93bd
00000090: ae06 23be 10ff c3bd f923 a9bd 05c5 283e
000000a0: 4eb3 c7bd 8222 babc c7b8 4abd f463 babd
000000b0: fddb 1e3e da2b 97bc d38e 00be 2cab 0ebd
000000c0: 01d2 133e 4434 0cbd 345e 24be 2f2e e1bd
000000d0: 2b43 e9bc f359 943d 38da b83c 196c 993d
000000e0: 8e60 edbd df3f 6b3d c9ae 723d c78f eebd
000000f0: 325d 293c 8df6 fd3d 45aa ed3c 3dbf 9fbc
-0.1184217 -0.08455548 0.05133044 -0.14529037 0.07882123 0.055127807 0.12587242 0.08271989
-0.12993097 0.067995064 0.15949002 0.06187242 0.104857594 -0.14065161 0.048921227 0.17199242
-0.051644407 0.078207836 0.065676995 0.032833107 0.111615695 0.04904525 -0.17077976 -0.02338311
-0.09103409 0.09856133 -0.09315186 -0.0811808 0.059819058 0.004588062 -0.042534042 -0.1052127
0.003391696 0.098788016 0.0025486478 -0.071862295 -0.15920517 -0.09570134 -0.08258814 0.16481407
-0.097509965 -0.022721533 -0.049492624 -0.09101096 0.15513606 -0.018453527 -0.12554483 -0.03483121
0.14435579 -0.034229532 -0.1605156 -0.10995137 -0.028474411 0.07243719 0.022564992 0.07491321
-0.11590682 0.05743396 0.05924872 -0.11648517 0.010337161 0.124005415 0.029011855 -0.01950037

bias f4 [2]
00000000: 74c0 dd3d 41a2 143e
0.10827723 0.1451502
