models/EMnist-alpha0.5-ratio0.5/server.pt (torch, 116143 bytes, 16 tensors)

weight f4 [6, 1, 3, 3]
000000 7c 8f ec 3d 91 a7 8a 3e db c3 af 3e d0 67 d2 be
       0.11550805 0.27080968 0.34329113 -0.41094828
000010 02 85 26 3e 15 f2 98 3e b0 83 1d bf 82 f3 bf be
       0.16261676 0.29872194 -0.61529064 -0.3749047
000020 0a 36 b6 3e e4 3f e9 be 96 ce c7 bd 1a 3d 45 bd
       0.35588104 -0.45556557 -0.097562 -0.048153974
000030 37 53 cf bc ab 8a 96 3e 40 9f bc bd af 84 d9 3e
       -0.025308235 0.2940267 -0.09210062 0.42484042
000040 ff d7 7a 3e 93 6f ad be 34 51 f1 be 98 3b 94 3e
       0.24496458 -0.33874187 -0.47132266 0.28951716
000050 5a ae 6b bd 16 32 17 be 7a cc 51 3d 55 bb 9b 3e
       -0.05753932 -0.147652 0.051220395 0.3041636
000060 fb a4 95 3d 48 34 94 3e ec 18 57 3e 3a ff ac be
       0.07306858 0.28946137 0.210056 -0.33788472
000070 2d 84 e5 bd 9e 28 9a bd bc af 3d be c1 16 f9 bd
       -0.11206851 -0.07527278 -0.18524069 -0.12162543
000080 61 94 b1 3d 60 08 63 3e 1b 3e b1 bd f0 43 d7 be
       0.08670879 0.22171164 -0.08654424 -0.4204402
000090 06 8d 9a bd 5a 6a 37 be 86 2d 0b be 1f 72 ad be
       -0.07546429 -0.17911664 -0.13591585 -0.3387613
0000a0 79 e4 00 be c7 de c0 be a2 c4 a8 bd fd 25 94 3d
       -0.12587155 -0.37669966 -0.0824063 0.07233808
0000b0 5c af c4 bd 63 69 10 3d cc 9f 51 3d 66 fd 94 3d
       -0.0960376 0.035256755 0.051177785 0.072748944
0000c0 e1 61 b0 3d 0f b0 de 3d 17 46 a1 3e a7 54 46 3e
       0.08612419 0.10873424 0.31498787 0.1936823
0000d0 21 b3 59 3e 4f ff 86 3e
       0.21259739 0.2636666

bias f4 [6]
000000 f6 6f a6 bd 34 1e 73 bc 6c bb 8a bd 89 90 46 3e
       -0.081268236 -0.014838744 -0.06774029 0.19391073
000010 8a a1 17 3d 51 f5 9d 3e
       0.03701929 0.30851224

weight f4 [6]
000000 c8 d2 93 3f 73 31 41 3f 85 bc 53 3f 0b 4a a0 3f
       1.15487 0.7546608 0.8270953 1.2522596
000010 7b 8b 98 3f 3f 72 49 3f
       1.1917566 0.7868995

bias f4 [6]
000000 c7 d9 8f 3c db 00 1e bd 61 62 f2 3d a1 cb e5 3c
       0.017559899 -0.038575035 0.118351705 0.0280512
000010 cc 66 1b 3e 0f 21 e6 bc
       0.15175933 -0.028091935

running_mean f4 [6]
000000 00 00 00 00 00 00 00 00 00 00 00 00 00 00 00 00
       0.0 0.0 0.0 0.0
000010 00 00 00 00 00 00 00 00
       0.0 0.0

running_var f4 [6]
000000 00 00 80 3f 00 00 80 3f 00 00 80 3f 00 00 80 3f
       1.0 1.0 1.0 1.0
000010 00 00 80 3f 00 00 80 3f
       1.0 1.0

weight f4 [16, 6, 3, 3]
000000 c7 97 96 bc 0a 6c 29 be ff df 62 bd 64 6a d6 3d
       -0.01838292 -0.1654512 -0.0553894 0.10469511
000010 55 68 e4 3d d0 1d 13 bd e5 8f 09 bd 02 39 3c be
       0.11152712 -0.035917103 -0.033584494 -0.18381122
000020 20 54 2a be 12 27 3d 3d d8 39 5b 3d b3 2a 63 3e
       -0.16633654 0.04617984 0.05352196 0.22184257
000030 13 46 04 be 16 8e 27 bd e3 74 21 bd 8a 71 51 bd
       -0.12917356 -0.040906988 -0.039418112 -0.05113367
000040 ba 1e e6 bc a8 f0 8f bd b6 d0 a5 3b 5d 02 f3 3c
       -0.028090823 -0.070283234 0.0050602807 0.029664213
000050 a4 a7 1d 3e 3e d8 1d be 1a 40 4e be b6 8f 13 3b
       0.15395981 -0.15414521 -0.2014164 0.0022516078
000060 b6 84 6f bd ba ca 99 bd 95 73 2f bd b2 76 80 3d
       -0.058476172 -0.0750937 -0.042834837 0.06272639
000070 67 28 48 bd ed a4 b7 bd 8c d5 c3 bc a3 7f fb bd
       -0.048866656 -0.08967004 -0.023905538 -0.12280204
000080 62 a9 0c 3d 53 aa a5 3c d0 01 ca 3d 32 d3 05 3e
       0.034341224 0.020222818 0.09863627 0.13068846
000090 00 f7 a3 bd e4 68 2c bd 4e 7f 8d bd 79 c3 33 bd
       -0.08006096 -0.04209222 -0.06909047 -0.04388759
0000a0 41 e3 95 bd ff b2 bf 3c 7c 57 e1 bd a1 5f 77 3d
       -0.07318736 0.023400782 -0.110030144 0.060393933
0000b0 b4 53 1c 3e 1d 63 40 3e b9 fe 87 3e 1e c3 2a 3e
       0.15266305 0.18787809 0.26561525 0.16675994
0000c0 3e e8 19 be d2 c6 95 b9 db 1d ab 3d 39 b2 0f be
       -0.1503 -0.00028567627 0.08355304 -0.1403283
0000d0 32 95 a4 bd 49 b6 45 bd b8 86 b5 bd 3e 22 26 3d
       -0.08036269 -0.048269544 -0.08863586 0.04056
0000e0 16 2c 2d 3e 79 30 ad 3e 06 e2 14 3e f3 8c 38 3e
       0.16911349 0.33826044 0.14539346 0.18022518
0000f0 f6 6d 59 3e f9 80 35 3e 95 45 b9 bd fe 80 b6 3d
       0.21233353 0.1772498 -0.09046475 0.08911322
000100 17 cd 92 3d 82 dd 03 be fe ea dc 3d 77 0f 5a 3c
       0.07168024 -0.12877467 0.10787009 0.013309351
000110 43 d7 52 be 24 a7 4e 3b 3e fc ae bb 9b 17 2f 3d
       -0.20589928 0.003153273 -0.005340128 0.04274712
000120 a3 a5 22 be d0 42 56 be a9 16 5e 3c 1b b8 60 3d
       -0.15883498 -0.20923924 0.013555207 0.054863077
000130 3c 79 9d bd 1d 0b aa bd a7 f6 16 3e d1 63 8b 3a
       -0.07689139 -0.08302901 0.14742528 0.0010634606
000140 21 00 e5 bd bc aa aa 3a be 58 87 3e 68 1b f3 3d
       -0.11181665 0.0013020854 0.26434892 0.11870462
000150 86 ce 45 bc ad 2c a0 3e 6c c5 36 3b b2 c4 a0 bd
       -0.012073165 0.31284085 0.0027888669 -0.07850017
000160 12 e0 12 3e 87 ea d1 bd b8 2f e4 3b a9 95 df 3d
       0.14343289 -0.10249811 0.0069636963 0.10917217
000170 20 80 7a bd e4 da 63 be b4 58 9b bd 7a 4e 43 be
       -0.061157346 -0.22251469 -0.07585278 -0.19072905
000180 82 74 a1 be cd f0 f8 bc 34 ec 02 3d 98 ae 2a bc
       -0.315342 -0.03038826 0.031963542 -0.010417603
000190 7c af 84 be 52 b7 b1 bc 06 db 9e 3d db 7e 79 be
       -0.25915134 -0.02169386 0.07756619 -0.24364798
0001a0 af e9 5b bd f9 a0 d8 3d 62 cb dc bd a6 3c 5c bd
       -0.053689655 0.10577578 -0.1078098 -0.053768776
0001b0 9c 6c 63 be d6 c3 69 be 30 33 b1 bd 91 ba 93 bd
       -0.222094 -0.22828612 -0.08652341 -0.07213319
0001c0 c7 61 65 bd 0c cf 03 be 4f d8 ef bd 17 01 05 be
       -0.05600145 -0.12871951 -0.117111795 -0.12988697
0001d0 72 e5 24 be b2 2a ae bd 70 3c f9 3d 3a 09 b8 3d
       -0.16103151 -0.08504237 0.12169731 0.08986135
0001e0 b9 f7 97 3d e7 bf 87 3d 03 c6 43 3e 5c b3 14 3c
       0.07420296 0.06628399 0.19118504 0.009075966
0001f0 ea 1d a7 bd d5 65 18 be 77 a5 fb bc 40 d3 df 3d
       -0.081600025 -0.14882596 -0.030718548 0.109289646
000200 c5 a0 96 3d f2 5f e9 3d 30 f9 e2 3d 93 a4 82 3c
       0.07354883 0.11395253 0.11082685 0.015947616
000210 ab 5e d7 bb 44 5f 1f bd c4 d7 00 be 2e 49 18 bd
       -0.0065725646 -0.03890921 -0.12582308 -0.037179165
000220 85 ae 66 bd 60 67 80 be cc db 40 bd 5e 0c fb bd
       -0.05631878 -0.2507887 -0.047084615 -0.12258218
000230 d1 00 98 be c5 f1 06 be 73 d9 02 be f1 9b 17 be
       -0.29688123 -0.13178165 -0.12778263 -0.1480558
000240 09 ea 69 3d 4a f8 3a 3d 75 43 3b bd 70 9b 32 bc
       0.05710796 0.045646943 -0.04571863 -0.010901317
000250 dc 30 11 be 78 be 18 be 1a 77 ae bd a3 bc 67 bd
       -0.14178795 -0.14916408 -0.085188106 -0.056576382
000260 89 55 0b 3d b0 2e 12 be 3b 0a 4a bd f5 1a ce 3d
       0.03401712 -0.14275622 -0.049326163 0.100637354
000270 d1 e4 a5 3c 5a f5 01 bd 2d 9f 4d 3d 54 39 ae bc
       0.02025071 -0.031728126 0.05020063 -0.02126757
000280 69 da bc bd 6a 3f 65 be ac 9c 8f 3d 47 5e 84 3e
       -0.09221346 -0.22387472 0.07012305 0.25853178
000290 b2 9a d4 3c 68 9f 74 bd 5d 9c 70 3e 93 5d 8f 3e
       0.02595267 -0.059722334 0.23497148 0.2800108
0002a0 66 32 23 bd a5 8f 92 3c 41 83 f6 3d 45 03 81 bd
       -0.039842986 0.01789076 0.120367534 -0.06299452
0002b0 38 6c 89 3d 47 d5 2e 3d 3f 9a e0 bd 7c 12 a1 bd
       0.06710094 0.042683866 -0.1096692 -0.07864854
0002c0 07 26 83 3c 79 d2 99 bd ad dc 2f be de cb e0 bd
       0.016009344 -0.075108476 -0.17174025 -0.109763846
0002d0 2f d8 a8 bd 98 7c 0d 3e f8 ab 07 be e0 34 2b be
       -0.08244359 0.1381706 -0.13249195 -0.16719389
0002e0 8b ff 1c 3e 26 aa 9c 3d 7a 40 f0 38 1f 54 7d 3c
       0.15331857 0.07649641 0.000114561015 0.015461951
0002f0 2a de b9 bd d7 d9 d7 3c 39 e0 e8 bd c1 f8 16 3d
       -0.090755776 0.026348991 -0.11370892 0.036858324
000300 f0 06 2c 3e e1 86 ac bd 26 36 e4 bd b3 ab 3d 3e
       0.16799521 -0.084241636 -0.111431405 0.1852253
000310 54 c4 8a 3d 00 5b a4 3d 0e 6f 4a 3e c2 2d a1 3c
       0.06775728 0.080251694 0.19768927 0.01967514
000320 f2 bb 8a bc cb bf c6 bc 81 14 58 bc 48 61 10 3d
       -0.016935322 -0.024261376 -0.013188482 0.035249025
000330 24 09 4b bd cc 45 0a 3d 5d e2 02 be a2 7b 5f be
       -0.049569264 0.03375797 -0.12781663 -0.21824506
000340 f3 84 25 3d 55 fb 29 3d 67 bb 8c bd 14 36 fe 3c
       0.040409993 0.041499455 -0.06871682 0.031031646
000350 01 14 38 3d a6 6a 7e bd d9 bd 2c be 87 5e 99 bd
       0.044940952 -0.062113427 -0.16869296 -0.07488733
000360 05 b4 53 be e8 a6 41 bd 56 c9 54 3d 18 a8 d4 bd
       -0.20674141 -0.047278315 0.05194982 -0.10383624
000370 6a 18 f1 3c 93 c6 1a 3d e8 10 9f bd 9f 0c 8d 3c
       0.029430587 0.03778703 -0.077668965 0.017217932
000380 7b c0 da 3d 29 a0 f6 bc 1a 31 7e bc 04 a9 37 3d
       0.10681244 -0.030105667 -0.015514636 0.04483892
000390 c9 a3 21 3d 2c 07 8f bd d0 30 cd 3c 06 23 97 bb
       0.03946284 -0.0698379 0.02504769 -0.0046123294
0003a0 51 53 1e bd 31 83 07 bd 8c f1 2c 3d 25 1a ec bd
       -0.038653675 -0.0330841 0.042222545 -0.11528424
0003b0 8d 1b 5d 3e a7 28 9d 3a 86 0b 2a bc 60 36 25 3e
       0.21592541 0.0011990265 -0.010378724 0.16134024
0003c0 1f 7a b5 bd 78 3b 37 be d7 5e 2a 3e c3 e0 2d 3d
       -0.088611834 -0.1789378 0.16637741 0.042450678
0003d0 ae b6 1e 3b 1c b7 d2 3d 59 7a 35 3e 6c 25 67 bd
       0.0024217772 0.102888316 0.17722453 -0.056432173
0003e0 59 bd 59 bd 39 7b 0c 3e 56 2a de 3d 0a 20 26 be
       -0.05315909 0.1371888 0.10847919 -0.1622316
0003f0 f5 a0 25 bd 12 c0 b4 3d 08 80 d7 bd 50 23 0a 3e
       -0.040436704 0.08825697 -0.10522467 0.13490033

bias f4 [16]
000000 11 7f 43 bd 4c 46 99 3d a7 5f e0 bd 14 02 00 3c
       -0.0477286 0.07484111 -0.10955744 0.007812995
000010 4d 3f c5 3d 5a f3 18 3d 37 00 89 3d a0 f4 7d bd
       0.09631214 0.037341453 0.06689494 -0.06200087
000020 dd 21 0b 3c 27 c2 b9 bd bc 42 36 3d 0b 0e c5 ba
       0.00849196 -0.09070235 0.044497237 -0.0015034092
000030 a5 71 b3 3d 35 ca 0f bd 6a 8a 99 bd 60 34 e6 3d
       0.0876191 -0.03510495 -0.074971035 0.112404585

weight f4 [16]
000000 28 95 99 3f 53 59 a8 3f 19 9e 92 3f 85 51 9e 3f
       1.1998644 1.315226 1.1454498 1.2368628
000010 44 b3 97 3f 15 af 63 3f 7d b2 92 3f 6a f1 a6 3f
       1.1851583 0.8893903 1.146072 1.3042424
000020 ea 4b 9c 3f 14 74 50 3f b1 f1 8b 3f 63 d2 90 3f
       1.2210667 0.8142712 1.0933133 1.1314205
000030 0c 5c a7 3f 70 29 85 3f 44 27 8a 3f ea 7a 6f 3f
       1.3074965 1.0403271 1.0793233 0.93546927

bias f4 [16]
000000 39 f6 ae be 74 47 bb bd 97 8a 7e be f9 25 8c be
       -0.34172228 -0.09144488 -0.24857555 -0.2737272
000010 f9 7e 8e be 9a 80 a2 be dc b5 3b be b4 1c c1 be
       -0.27831247 -0.3173874 -0.18331093 -0.3771721
000020 ae 56 94 be 90 95 84 be 15 8c 85 be b5 d3 a2 be
       -0.2897238 -0.25895357 -0.26083437 -0.31802145
000030 af 6a 3b be 4d 6e 7e be 55 22 d5 be 27 11 83 be
       -0.18302415 -0.24846764 -0.41627756 -0.25599024

running_mean f4 [16]
000000 00 00 00 00 00 00 00 00 00 00 00 00 00 00 00 00
       0.0 0.0 0.0 0.0
000010 00 00 00 00 00 00 00 00 00 00 00 00 00 00 00 00
       0.0 0.0 0.0 0.0
000020 00 00 00 00 00 00 00 00 00 00 00 00 00 00 00 00
       0.0 0.0 0.0 0.0
000030 00 00 00 00 00 00 00 00 00 00 00 00 00 00 00 00
       0.0 0.0 0.0 0.0

running_var f4 [16]
000000 00 00 80 3f 00 00 80 3f 00 00 80 3f 00 00 80 3f
       1.0 1.0 1.0 1.0
000010 00 00 80 3f 00 00 80 3f 00 00 80 3f 00 00 80 3f
       1.0 1.0 1.0 1.0
000020 00 00 80 3f 00 00 80 3f 00 00 80 3f 00 00 80 3f
       1.0 1.0 1.0 1.0
000030 00 00 80 3f 00 00 80 3f 00 00 80 3f 00 00 80 3f
       1.0 1.0 1.0 1.0

weight f4 [32, 784]
000000 dc e5 78 3d 90 61 40 3d 4a 82 c4 bb 90 6c 91 bc
       0.060766086 0.046968043 -0.005996977 -0.017751962
000010 42 2d c5 3b 50 ba 26 ba ad 7d 1f 3d 49 b6 fd 3c
       0.006017358 -0.000636016 0.038938213 0.03097071
000020 74 4e 82 3c a5 13 6b bc d4 a1 22 bc 50 f1 ae bc
       0.01590655 -0.014347945 -0.009926278 -0.021355301
000030 86 60 cd bc f7 8f 86 3c 3a ef 08 bc 5a e6 67 3c
       -0.02507044 0.01642607 -0.008357817 0.014154041
000040 05 64 83 bb f4 7d 62 bd bd 02 bb bc 25 34 d1 bd
       -0.004009726 -0.0552959 -0.022828454 -0.10215024
000050 16 d6 2e bd be 81 e3 3c 8e bb af bb 8f 01 50 bd
       -0.042684637 0.027771827 -0.0053629344 -0.050782736
000060 e0 93 f5 3b c1 33 85 bd 56 2d 8b bd a7 a1 5b bd
       0.0074944347 -0.06504012 -0.067957565 -0.05362096
000070 84 d3 ce bc e4 52 4e 3c 18 92 18 3d ec 38 2b 3d
       -0.025247343 0.012593005 0.0372487 0.04180233
000080 c9 4a fd 3c 16 c0 3c bc b9 1c 2b bb e6 f9 36 bd
       0.03091945 -0.011520406 -0.002610965 -0.044671915
000090 ad f7 99 3a ed 01 df bc 2c a6 b4 3c 52 78 34 bd
       0.0011746787 -0.027222598 0.022051893 -0.04406006
0000a0 72 e8 bb ba e9 c6 16 3b 7d 36 83 3c c0 b8 f5 bc
       -0.0014336242 0.0023006743 0.016017193 -0.029995322
0000b0 c4 c2 37 3c 51 ba eb bc 85 b8 b4 bd b0 18 29 bb
       0.011215869 -0.028775366 -0.08824257 -0.0025802068
0000c0 5c b8 75 bc e2 82 5e 3d ad d1 6d 3d e7 8d 84 3d
       -0.014997568 0.05432404 0.05806129 0.06472378
0000d0 26 e9 28 3d ae ca 90 3d d7 86 c6 3d b1 8c e2 3c
       0.041237973 0.07069908 0.096936874 0.027654978
0000e0 ef c3 cb 3c 10 9d 41 bb b2 0b 9a bb 01 d5 43 3c
       0.024873702 -0.002954308 -0.004701101 0.01195264
0000f0 cc d9 c9 3d 76 e1 8a 3d 51 a2 86 3c c1 4b ee 3b
       0.098559946 0.067812845 0.01643482 0.007272214
000100 c9 c1 02 bb 67 94 2d bc 19 35 f9 3c 8d 96 76 3d
       -0.001995193 -0.010594464 0.030420827 0.06020217
000110 32 8c c0 3c b1 83 77 3d f9 8c 86 3c bb 94 bf bd
       0.02350435 0.060428325 0.016424643 -0.0935454
000120 0b 02 3c bd 20 44 6a bb 73 91 55 3c ca 7a d4 bd
       -0.045900386 -0.0035746172 0.013035166 -0.10374983
000130 7b d6 90 bd 09 e7 75 bc cb 1f 78 bd f9 9e 8d bd
       -0.07072159 -0.015008696 -0.060577195 -0.06915087
000140 3e 1b 97 bd 5d 04 8e bd cf 14 08 be 6e c9 d3 bd
       -0.07378243 -0.06934426 -0.13289188 -0.10341154
000150 33 95 4c ba bc d2 41 bd 31 78 75 bd ff 17 71 bd
       -0.0007804215 -0.047320113 -0.059929077 -0.058860775
000160 8a d0 83 bd 0d 93 b7 bd c3 97 8e bd ef 5b 4b 3d
       -0.0643626 -0.089635946 -0.0696254 0.04964822
000170 16 01 84 3b e0 54 04 3d 59 dd e1 bc cc 12 5b 3c
       0.0040284498 0.032307506 -0.027571367 0.013371181
000180 13 95 8e bd 3a 62 44 bd e3 95 7c bb 4c 8d 8d 39
       -0.069620274 -0.04794524 -0.0038541488 0.0002699889
000190 d2 92 04 bd fc 9a fc bc 56 08 7e 3a da de 36 3b
       -0.03236658 -0.030835621 0.0009690573 0.0027903826
0001a0 9f 92 4e bd 2e f3 9b bc 65 a4 b9 3a e7 ff ee 3d
       -0.050432798 -0.019036856 0.0014163373 0.11669903
0001b0 cf 33 cf 3d dc 79 b3 bd 53 99 19 be 45 32 ad ba
       0.101173036 -0.08763477 -0.14999895 -0.0013213834
0001c0 70 72 73 bd eb e3 14 3d ae 81 3a 3e 72 1a 97 3d
       -0.059435308 0.036350172 0.18213531 0.07378091
0001d0 91 83 5e bd 1c cd 20 bd bc 59 0d bb bd 23 ae bb
       -0.05432469 -0.039258108 -0.0021568378 -0.005314319
0001e0 e7 3f 2a 3b 01 f5 8e 3d 42 1e a7 3d a9 0b 8b 3d
       0.002597803 0.069803245 0.08160068 0.067893334
0001f0 e1 44 d1 3c c0 d5 1d 3c b0 22 3e bc e4 5f 81 bd
       0.02554554 0.0096334815 -0.01160495 -0.06317118
000200 73 e8 0d bc 53 d8 fd 3b c3 4a 16 3c f1 23 ad 3d
       -0.008661377 0.007746735 0.009173098 0.08454121
000210 62 3f a3 bb 75 cb e8 bc 7b b2 59 bd 6b 57 a2 bd
       -0.004981921 -0.028417328 -0.053148728 -0.0792683
000220 59 8c 8b 3c ed 08 22 bd cf 97 af 3b b8 d7 4e 3c
       0.017034696 -0.039559294 0.005358673 0.012624674
000230 07 eb 13 bc 1f 33 10 ba 3b de ca ba 8b cb 37 bc
       -0.009028203 -0.00055007817 -0.0015477607 -0.011217962
000240 17 aa 62 bc 14 b2 0e bc 0e 0c a9 bc fe f2 92 3b
       -0.013834498 -0.008709449 -0.020635631 0.0044845333
000250 69 93 ad 3c 71 d9 ef bc 78 bf ef 3c 51 9a a5 bc
       0.021188455 -0.029278489 0.029266104 -0.020215185
000260 c3 76 1e 3d ad f5 29 3d e8 8c b2 3b 80 58 7b bd
       0.03868748 0.04149406 0.0054489262 -0.061363697
000270 c4 57 70 3b 9e 2e c9 3c ce 08 27 3d dd 3f 6e 3c
       0.0036673406 0.024558362 0.04077988 0.014541593
000280 75 99 19 bd 3b 82 b8 bc 2c af bf bc 43 c8 6a bd
       -0.037499864 -0.022523036 -0.023398958 -0.05731989
000290 49 43 1d 3d 49 f4 6f 3d c8 9b c1 3d 10 c8 27 3c
       0.038394246 0.058582578 0.09453541 0.01024057
0002a0 15 c5 53 bd fd 45 a1 3d bf 6d 98 bd 0a 92 df bd
       -0.051701624 0.07874677 -0.074428074 -0.109165266
0002b0 a7 85 60 bd 24 49 ee 3d bb f2 1b 3d af f1 09 bc
       -0.05481496 0.11635044 0.038073283 -0.008419438
0002c0 a6 a3 89 bc 57 09 8d 3d 47 4f cb bc 98 d1 c6 bd
       -0.016801666 0.06886547 -0.024818076 -0.097079456
0002d0 63 f8 0d 3d 3b 24 09 3d 14 5c 3b bd a3 b7 43 bd
       0.03466071 0.033481818 -0.04574211 -0.04778255
0002e0 4c 48 05 bd 74 dc a0 bd 6c 6c a0 bd 35 fd 32 bd
       -0.03253965 -0.07854548 -0.0783318 -0.04369851
0002f0 87 f0 dd bc 9a 39 4f bb 81 8e dd bc b3 c9 59 bd
       -0.027092231 -0.0031620027 -0.02704549 -0.05317087
000300 87 68 af bd 0e 8e d1 bb 79 e7 bf 3c e1 1d 3f bc
       -0.08564859 -0.006395108 0.023425804 -0.0116648385
000310 07 7d 4e bc 01 5c bb bc 41 d6 2a 3d 8d 30 01 bc
       -0.012603051 -0.02287102 0.041708235 -0.007885111
000320 fc 4c 1d bd d6 8a 8d 3c 98 3f 41 3a 26 6f 12 bd
       -0.038403496 0.017278116 0.0007371842 -0.03575053
000330 47 30 2d bd 8b 02 46 3d bf 42 a9 bc 87 15 91 3b
       -0.04228237 0.04834227 -0.02066171 0.004427615
000340 de 5f 46 3d 66 bb ca 3c 2a 1e 8b 3c e9 01 f1 3b
       0.04843127 0.024747562 0.016982157 0.007354964
000350 8f 2e 5e bd f7 ff 90 3b 7d 45 18 ba fb eb 0b 3e
       -0.05424362 0.0044250446 -0.00058086944 0.13664238
000360 ff ce 9c 3c 54 71 8b bc 02 e3 88 bc 8c eb 12 bc
       0.019141672 -0.017021812 -0.016709808 -0.008967292
000370 b2 93 f4 bb 38 a5 31 3d 9a 26 35 3e df 2b c7 3b
       -0.0074638957 0.043370456 0.17690507 0.006078228
000380 54 4e 56 bd dd 80 38 bd e0 77 1b be 12 04 f5 3b
       -0.052320793 -0.04504477 -0.15182447 0.007477292
000390 8f 06 d4 3c d3 4d 95 3d b9 6d 85 bc 49 66 9c 3c
       0.025882034 0.072902344 -0.016287671 0.019091742
0003a0 5b 14 e4 3c a4 d6 02 bd 02 d2 0e 3b 3b cd 96 3d
       0.027841737 -0.03194298 0.0021792655 0.07363363
0003b0 cb b6 a2 3b e9 73 87 bc c2 08 1f bc a5 28 8f 3c
       0.0049656383 -0.016534762 -0.009706678 0.017475436
0003c0 c4 07 c5 3c bd 1c 9e bc be ac 5c 3c 4c b7 e1 3b
       0.024051555 -0.019300813 0.013468919 0.006888306
0003d0 56 dd c4 3c 4c 72 20 3c 93 ba 27 3d 6c f7 ba bc
       0.024031322 0.0097928755 0.040949415 -0.022823058
0003e0 bc ac cf bc 7f 93 38 3b da 01 8c 3b 80 ef 09 3d
       -0.02535092 0.0028164086 0.0042726817 0.03367567
0003f0 9d 0a 8e bb 6b 36 77 bc bd 2e 6a bc ba 2b 86 3c
       -0.0043347613 -0.015088658 -0.01429337 0.016378272

bias f4 [32]
000000 86 24 48 3d e5 b2 2c 3d 3e 09 28 bc 91 8a c8 3c
       0.048862956 0.042162795 -0.01025611 0.024480136
000010 52 de 5a bd 09 26 61 bc 36 1d 07 bd a7 97 01 3c
       -0.053434677 -0.013741978 -0.032986842 0.007909692
000020 13 d2 a0 3c ad fa 0f bd 75 d0 92 3c 1f 03 41 bc
       0.019631421 -0.035151172 0.017921666 -0.011780529
000030 a6 f3 89 3b a9 c7 2e 3c 52 87 e2 bc 0e 37 c1 bb
       0.0042099534 0.01066772 -0.027652416 -0.0058964556
000040 21 08 eb 3c 21 f9 8d 3c 78 a3 a5 bc 1e be 23 bd
       0.0286904 0.017330708 -0.02021955 -0.03997623
000050 23 f4 60 bc 3d 38 00 bd 68 38 37 bc 45 56 1e bc
       -0.013730082 -0.031303633 -0.011182882 -0.009664123
000060 ae 8c 3b 3b 68 60 0b 3d c2 93 5b bd af b6 2b 3b
       0.0028617787 0.034027487 -0.05360771 0.0026201417
000070 b2 f2 6b 3d ba 46 ab bc fc 76 e2 bc 29 46 fa bb
       0.0576045 -0.020907748 -0.027644627 -0.0076377583

weight f4 [26, 32]
000000 4d 1f e1 bc 2e 8f 63 3a d7 7f 05 be c9 68 21 bd
       -0.027480746 0.0008680698 -0.13037048 -0.03940657
000010 d3 e2 03 3f a4 6f fd 3d e4 64 19 3e dd 4c a6 bd
       0.5151798 0.123748094 0.14979893 -0.08120129
000020 eb 37 4c be b8 7a 57 bd be c1 82 bc 85 6f fc 3c
       -0.19943206 -0.052607268 -0.015961524 0.030814895
000030 08 6c 45 bd b6 fd 6e be 87 5c 9d 3c e9 6d c6 bd
       -0.04819873 -0.2333897 0.01920916 -0.096889324
000040 5d 37 c5 bd 6a d2 05 bd 06 d7 e9 bd b7 25 e4 3c
       -0.096297 -0.03267137 -0.114179656 0.027850015
000050 9e 73 f7 bd 53 09 f0 3d 96 6e 8c 3e 05 8d 11 be
       -0.12082599 0.117205285 0.2742812 -0.14213951
000060 15 43 5b 3d dc d9 d7 3d 6e cb b6 3d 02 86 33 3e
       0.05353077 0.105396 0.0892552 0.17531589
000070 c8 a4 d2 be 03 31 40 3e f4 7d 53 3e 4b 81 9c bd
       -0.41141343 0.18768696 0.20653516 -0.07641848
000080 9c 31 1f be 3b a4 1b be f9 70 68 be e7 c8 88 bd
       -0.15546268 -0.15199368 -0.22699346 -0.06678944
000090 3d 47 0b 3e 99 48 a4 3c 7a 5c 14 bf f5 12 e2 3d
       0.13601394 0.020054149 -0.5795361 0.11038772
0000a0 1d bd 14 3e 60 ae 3d 3e 35 7e e6 be 94 94 f0 bc
       0.14525266 0.1852355 -0.45018163 -0.029367723
0000b0 a5 11 ec 3d eb ae 99 3e ff df 19 3e ff 99 55 3e
       0.11526803 0.30016264 0.15026854 0.20859526
0000c0 6f a2 42 3e 50 a3 f3 ba 34 41 22 3e a5 73 3a be
       0.19007276 -0.00185881 0.15845186 -0.18208177
0000d0 78 ad 48 bb a2 5f b7 3e 6d b5 40 bd 48 07 62 bd
       -0.0030620974 0.3581515 -0.04704802 -0.055182725
0000e0 23 6f 1f be 06 84 96 bd b2 1c 48 3e 52 2b 61 3e
       -0.15569739 -0.073494 0.19542196 0.21989182
0000f0 ed dc 82 3e 90 36 53 bd 3a 31 ed 3d 39 86 cf bd
       0.25559178 -0.051565707 0.11581655 -0.10133023
000100 a1 89 9b 3e 80 f5 ee bd 76 82 00 3e 81 c6 dc be
       0.3037844 -0.11667919 0.12549767 -0.43120196
000110 f0 27 03 bd 0f 20 c4 3d 0d f6 d5 be dc b4 66 bd
       -0.03202051 0.09576427 -0.41789284 -0.056324825
000120 ed 1e 9a be aa 72 14 bf ef a5 21 3d 4b 22 a0 bd
       -0.3010172 -0.57987463 0.039464887 -0.07819041
000130 60 1f 28 3e e6 70 d9 bc de 97 d5 bc 27 f8 d8 bd
       0.16418219 -0.026543092 -0.026073392 -0.10594206
000140 09 79 25 bd 2b 64 4c bd b6 62 9b 3d 51 f4 c3 bd
       -0.04039863 -0.049900215 0.07587187 -0.09568084
000150 b6 d6 75 3c b1 b0 92 3e c2 55 3e bd 78 ec 10 3c
       0.015004804 0.2865043 -0.046468504 0.008845441
000160 2a e1 f2 3d 73 19 29 be bf e9 9d bd 59 01 01 bd
       0.11859353 -0.16513614 -0.07710599 -0.031495426
000170 8e e5 d8 bd 12 1c 8e bd 59 11 20 be cf 8f 19 3e
       -0.10590659 -0.06938948 -0.15631618 0.14996265
000180 72 03 26 be c1 1e c3 3d d2 a0 37 be 6d fd 9d 3e
       -0.16212252 0.0952735 -0.17932442 0.3085741
000190 4e 53 48 3e 1d 39 13 3d 66 47 a5 be 92 56 21 be
       0.19563028 0.03594314 -0.32281035 -0.1575568
0001a0 34 64 de 3d b8 f6 f7 bd b0 7b 6a bd 92 40 da 3d
       0.10858956 -0.12107605 -0.057246864 0.10656847
0001b0 e1 39 38 bd a8 1b 8a be b8 0f e3 bd 7b 87 04 be
       -0.044977073 -0.26974225 -0.110869825 -0.12942307
0001c0 6c f0 77 3d 74 b2 b7 3e 36 09 fb 3d de 64 05 3e
       0.06053202 0.35878336 0.12257616 0.13026759
0001d0 df 11 45 3e 31 f6 dd bd 41 31 19 3e df 82 af 3d
       0.19245099 -0.10837973 0.14960195 0.085698836
0001e0 ee 10 05 be 5f 79 30 be 1b 74 22 3e 33 f8 91 3e
       -0.1299474 -0.172338 0.15864603 0.28509673
0001f0 a9 23 4a bd e0 5b c5 bd 21 82 a3 3e 89 50 c6 3d
       -0.049350414 -0.096366644 0.31935218 0.096833296
000200 38 50 86 3e 81 3b d2 be 7d 1c 96 3d a8 df 09 bf
       0.26233077 -0.41061023 0.073296525 -0.538569
000210 e3 10 ac 3e 1b 38 a8 3e 41 7b f9 3d 1d b9 97 be
       0.33606634 0.32855305 0.12181712 -0.29633418
000220 7b da 53 be a9 b2 2a be 49 3e 0a 3e fc 36 fd 3d
       -0.20688812 -0.16669716 0.13500322 0.12364003
000230 49 7c 97 bd c7 9e 82 bd 0d c2 c1 bd c0 e2 02 3e
       -0.073967524 -0.063779406 -0.094608404 0.12781811
000240 89 23 df bc 98 a9 1f 3b ed cf 95 bd 6d 4f 2f bd
       -0.027238624 0.002436256 -0.07315049 -0.042800356
000250 fa 4c 0f 3e 00 9c 58 3e 69 32 06 be 81 4c 82 3d
       0.13994208 0.2115326 -0.13105167 0.06362248
000260 b1 d2 d9 3e 14 2e 20 be 89 24 44 3e 2b 31 7e 3e
       0.42543557 -0.15642577 0.19154562 0.24823444
000270 b9 07 e2 3d 3a b2 31 3e 38 d5 6c 3e df da 06 3e
       0.11036629 0.17353144 0.23128211 0.1316943
000280 cc b3 51 be 91 15 25 3e f6 ff f5 3d 25 3f 66 be
       -0.20478743 0.16121508 0.12011711 -0.22485025
000290 6e 2a ce bd a6 c7 f0 3e f7 b7 5b 3d 84 ab de 3d
       -0.100666866 0.4702732 0.05364224 0.10872558
0002a0 b8 3d 6a 3e c9 39 b8 bd 29 0d 09 3e f0 b1 8b bd
       0.22875106 -0.08995397 0.13383926 -0.06821048
0002b0 5c dd 37 bd 98 52 0a 3e 6a 6e cc 3e e3 bb 41 3e
       -0.04488884 0.1350807 0.3992799 0.1891933
0002c0 a0 08 c0 3b 7f de 37 be dc 19 3c be 6c 7c 1b be
       0.005860403 -0.1795597 -0.1836924 -0.15184182
0002d0 4f d6 02 bf 3d 6e ac be 90 0d e4 bd 76 02 36 3e
       -0.5110826 -0.33677855 -0.11135399 0.17774376
0002e0 9b 64 27 be 51 50 f9 3e e9 32 0e be ba 5a 13 3e
       -0.16346972 0.4869409 -0.13886608 0.14390078
0002f0 48 d9 b7 3d 35 6a 2e bd 24 61 f6 3d 4b 60 8a 3d
       0.0897699 -0.042581756 0.12030247 0.06756648
000300 91 f6 8a 3e 4c b0 43 be 08 d1 9f 3e 75 5d 1e 3e
       0.2714124 -0.1911022 0.31214166 0.15465339
000310 47 77 3b 3d 5d 27 9c 3e 70 10 07 bd 44 58 1e 3e
       0.04576805 0.30498782 -0.03297466 0.15463358
000320 1a b0 73 3d 37 5f 5a bc d1 cb 2c 3e 44 d2 28 3e
       0.059494115 -0.013328365 0.16874625 0.1648646
000330 b4 eb 72 3e 83 44 80 bc 6d 4c 6b 3e b9 67 03 3e
       0.23722726 -0.015657669 0.22978373 0.12832536
000340 a8 37 75 be c2 c9 f3 ba 87 88 d8 3d 12 e6 2b 3d
       -0.23947012 -0.0018599557 0.105729155 0.04196746
000350 22 55 68 be 0c dd a2 3e 7d f2 a0 3e 79 46 10 3e
       -0.22688726 0.3180927 0.31435004 0.14089383
000360 13 b8 9f 3d ea bc 68 bd 96 d1 c4 3e 6c 46 03 3e
       0.07798781 -0.056820787 0.3844115 0.12819833
000370 81 b7 0c be d9 f2 b3 3d 76 02 0e bc 51 81 3a 3e
       -0.13741876 0.08786554 -0.008667579 0.18213393
000380 3f 47 1c be 9a b5 a1 3e a8 87 b9 be 64 96 2e 3e
       -0.15261553 0.31583863 -0.3623631 0.17049557
000390 5b cf 41 3e cc 0e b4 3c eb 2b 59 be 5d 31 30 3e
       0.18926756 0.021979712 -0.2120816 0.1720633
0003a0 90 6c ca 3c f3 ee 4d 3e 7b 12 0d be 1c a6 8a 3e
       0.02470997 0.20110683 -0.13776581 0.27079856
0003b0 77 44 5e be 83 61 d7 bd 72 47 8f be 19 37 26 be
       -0.21705805 -0.10516646 -0.27984196 -0.16231956
0003c0 24 95 19 3f 73 bf 5b be 6b 58 1d 3e c6 4a 0f 3e
       0.59993196 -0.21459751 0.1536576 0.13993368
0003d0 06 8d 3a be e0 b7 cb bd 1e a1 1c 3c d9 81 0c bd
       -0.18217859 -0.09947181 0.009559898 -0.03430352
0003e0 3a a8 8e 3e 10 8c d9 bd c0 2b 07 be 3e ff 0f 3e
       0.27862722 -0.10622418 -0.13200283 0.14062211
0003f0 e9 7a 32 3e 75 a0 b3 bd 7e 16 12 3e 30 07 47 be
       0.17429699 -0.08770839 0.14266393 -0.19436336

bias f4 [26]
000000 5a cf 68 3c b7 03 92 3d c0 64 7b be c0 2d ed bd
       0.014209593 0.07129615 -0.24550152 -0.11580992
000010 0f 7c 4f be 7c 6a 46 3e bc 64 18 3e d0 4c 1b 3d
       -0.20262168 0.19376558 0.14882177 0.03791505
000020 ef 19 60 bd 73 92 31 3e 90 65 fe 3d 2e 36 d3 3d
       -0.054712232 0.17341022 0.12421715 0.10313068
000030 c8 1c 0c be c6 98 b7 bc 04 ef 94 bd b4 0f af bd
       -0.13682854 -0.022411715 -0.07272151 -0.08547917
000040 47 31 8f 3e bc cf 16 be 47 be fd bd f3 56 a0 3e
       0.27967283 -0.14727682 -0.12389808 0.31316337
000050 e7 c1 78 be c1 f8 6a bc 8e 8c 94 3d 23 15 fe bd
       -0.24292718 -0.014341534 0.07253371 -0.12406375
000060 1b e0 41 bd bf 38 d4 bd
       -0.047332864 -0.10362386
