models/EMnist-alpha10-ratio0.5/server.pt (torch, 116143 bytes, 16 tensors)

weight f4 [6, 1, 3, 3]
00000000: 6e2f 3f3d 18a8 a23e aa96 cb3e be0e ccbe
00000010: 56ad 913e 0f43 eb3e a355 35bf 6e9b d7be
00000020: 655d b43e 3cf1 e0be b079 77bd f547 2b3e
00000030: 6554 0fbd 2aa1 933e d280 c53d d5d9 c13e
00000040: aef3 893e 04da 27be 1b29 0fbf 7e4b 6f3d
00000050: 3367 cdbd 51a6 a8be 31a3 4ebe 6971 b53e
00000060: 4ca3 7dbd d2f9 513e 1278 b03e 8d06 b6be
00000070: d5e0 9cbd 3ba3 d6bd 2d00 31be c7f8 04be
00000080: 471a 193d 4876 823e 44f6 90bc dec4 e6be
00000090: 2fc5 e43c 3044 f3bd d103 5ebe d30f bcbe
000000a0: a5a9 02be 43ce c2be b433 13be 56d5 543d
000000b0: f601 d2bd 09df be3d 7fed 833d 304f 97bd
000000c0: 688b 153d e335 733d 7136 723e 3f02 193e
000000d0: 6c28 893e 7ce1 b93e
0.04667609 0.3176887 0.39763385 -0.39854997 0.28452557 0.459496 -0.70833796 -0.4211077
0.35227504 -0.43934047 -0.060418785 0.16726668 -0.034992594 0.28833896 0.09643711 0.37861505
0.26943725 -0.1639176 -0.55922097 0.058421604 -0.10029449 -0.3293939 -0.2017944 0.35438088
-0.06192331 0.20505455 0.34466606 -0.35551873 -0.07660071 -0.104803525 -0.17285223 -0.12985526
0.037378576 0.25480866 -0.017695554 -0.45072073 0.027926056 -0.1187824 -0.21681143 -0.36730823
-0.12760027 -0.3804799 -0.14375192 0.051961266 -0.1025428 0.09319884 0.06441783 -0.07388151
0.0365099 0.059377562 0.2365358 0.14942263 0.26788652 0.36304843

bias f4 [6]
00000000: c36f a6bd fe21 73bc 60bc 8abd 8290 463e
00000010: 8aa1 173d 4cf5 9d3e
-0.081267856 -0.014839647 -0.06774211 0.19391063 0.03701929 0.3085121

weight f4 [6]
00000000: c701 873f ef08 3b3f 23d0 663f db93 9f3f
00000010: 9afe a53f bae2 473f
1.0547417 0.73060507 0.9016134 1.2466997 1.2968323 0.7808033

bias f4 [6]
00000000: 625e 4d3c 25fb b9bd 655e 09bd 4b3e 52bc
00000010: 6c17 3b3e e71e e1bd
0.01253471 -0.09081105 -0.033537287 -0.012832235 0.18270653 -0.10992222

running_mean f4 [6]
00000000: 0000 0000 0000 0000 0000 0000 0000 0000
00000010: 0000 0000 0000 0000
0.0 0.0 0.0 0.0 0.0 0.0

running_var f4 [6]
00000000: 0000 803f 0000 803f 0000 803f 0000 803f
00000010: 0000 803f 0000 803f
1.0 1.0 1.0 1.0 1.0 1.0

weight f4 [16, 6, 3, 3]
00000000: cf43 8cbc 54e9 f1bd ae01 2ebd 1f0d 023e
00000010: eadf 2e3e d81d f23b 6d50 21bd bec8 55be
00000020: d3f2 0bbe 0d93 cf3c e053 073e 5511 9b3e
00000030: d914 0dbe d3cf 02bc 816e ca3c fd52 14bd
00000040: 2bd8 6bbd 4655 c1bd f9dd c1bd cb0f c03c
00000050: 9882 293e 03e2 3bbe a30c 60be b8d1 b43c
00000060: 9509 99bd 1834 abbd 9d18 5cbd 8dcf a33d
00000070: 8b20 e8bb 4e21 a9bd 796b 733c af75 acbd
00000080: a8ec 813c 48f3 063d e758 0b3e 439b d83d
00000090: beeb 8cbd e56e 6abd 6988 99bd 7ab4 5bbd
000000a0: 0977 dfbd 4ccb 8f3c c5f0 a5bd 7643 b33d
000000b0: 7772 393e cdf9 2d3e 0902 893e 32d0 3d3e
000000c0: fb08 e4bd eddd 87bb 1873 e93d 7c6d 24be
000000d0: 0b92 19be 9ad2 c7bd ebf7 01be 72e2 20be
000000e0: f4b5 1ebe b482 493e 2486 343e 5610 453e
000000f0: 350e 393d 7b85 943d ac58 3ebd 6bbe aabb
00000100: 31f3 5e3d 9d9e 9f3b 239c 23bd 6f0a ac3d
00000110: 0672 ffbc a523 59be 59c2 2fbe f065 093b
00000120: 71cf c3bd 1333 d9bd d470 2a3e 5685 033c
00000130: 7dd9 7e3b 1b35 12be a370 54bd 253c eebd
00000140: 0eb7 2fbe 566e c33c 2118 073e 99b0 a63d
00000150: 567c 47bc 3ed8 c03d 9526 33be 88c7 0b3d
00000160: f4dc f03d 3553 c9bd ced8 883d ba9c 143d
00000170: 3a82 a3bd a6e2 abbd 648c 0cbe 15a2 36be
00000180: 466b 0cbe 5b7d 683c 74a5 273e b5a1 253c
00000190: 4029 aebd 3010 123e b3a8 803d c2d7 a9bd
000001a0: a3e2 a33d 8610 7cbc 09cd 61be 2ed1 fdbd
000001b0: 259d 82be 21db 9abe c5a2 05be ff18 bebd
000001c0: 3fb5 0dbe 0868 c0bd 787e 02be eb03 37be
000001d0: 2c33 41be 6b08 3fbd 78ab 613e e8eb 473e
000001e0: 7553 c43d babe 623d bb6e 7e3e eeaa 933d
000001f0: 4b4f c6bc f829 6fbd b5da 723d 9f8a b23d
00000200: 3d7b 623d 7748 b23d a272 103e 0d95 713d
00000210: 5a7d 0f3d 0295 853b 5878 d2bd f615 21bd
00000220: d8ec be3a 4991 42be fa23 fabc 53ae dabd
00000230: cd9c 8cbe 6c68 31be 96e8 f9bd 7e72 43be
00000240: af70 353d d3ea 943d 8d91 b7bc 06fa 8b3a
00000250: b349 73bd 2714 23be d508 b5bd a829 523b
00000260: 51fc 243d 6d3a e5bd 3cbf 0fbd b1ec e63d
00000270: cef5 cf3d 93d5 32bc 0ece 223d cb7b 223b
00000280: d1fa c6bc f257 33be da63 a13d 06ee 203e
00000290: a12f 423c c80c 33bb e8db 3d3e bc68 803e
000002a0: 49f1 cbbd 2e1c 8dbd cc70 063e 3aab a0bd
000002b0: c171 56bc 0135 82bd 5dc8 24be 2633 acbc
000002c0: dcee 933c 007b 09be 6158 3cbe c789 15be
000002d0: df55 dfbc 3463 d93d c064 1dbe 313f ccbd
000002e0: c0de 1b3e b377 053b 9381 5abb fa62 8ebc
000002f0: 9c47 06be 1c52 05bc 756c d4bd 6353 3a3d
00000300: 15ba 143e 3a23 cdbd a111 08be edd2 1b3e
00000310: 4e0a 213d 0972 273d 4689 403e a967 603c
00000320: b4ba 02bd bfd7 8fbd 3b0f 72bd 86fa 2fbd
00000330: 0b3d adbd 8c9e bcbb 130f 2fbe d8ec 67be
00000340: f176 523c 2211 9fbc 614c cdbd 3cc3 913d
00000350: 5ad0 863d a978 0dbe 2984 71be 4ef7 10be
00000360: 7f19 70be 70fa e039 c7ac 8b3d 81cc 31be
00000370: 9e7d 883d 6924 92bc 6770 00be 6336 a43d
00000380: 65d0 a93d 298a c43b 9280 973d 1e35 363e
00000390: 26f4 253d 96c4 5bbd dc97 f83d 53f0 73bd
000003a0: 6e13 9bbd fd34 543d 4593 fc3d 7c95 493d
000003b0: 50dc fe3d 5d74 603d 5326 fe3d 32e9 013e
000003c0: ac5e f7bd 7727 d8bd 5ed4 003e 46d1 e5bc
000003d0: f38c 35bd 7ecc 2f3d 170c 203e ad87 9ebd
000003e0: 7288 aebd 5762 3c3e d655 1b3e 7bb8 3cbe
000003f0: 8ac2 63bd 945c 9a3d 4b2c 09be fd87 1a3e
-0.017122177 -0.11812082 -0.04248207 0.12700318 0.17077604 0.0073888116 -0.03938334 -0.20877358
-0.13666849 0.025338674 0.1321559 0.3028666 -0.13777484 -0.0079841195 0.024710895 -0.036211956
-0.0575792 -0.09440093 -0.09466166 0.02344503 0.16553724 -0.18347935 -0.2187982 0.022072658
-0.07472531 -0.083595455 -0.05373441 0.079985715 -0.0070839575 -0.082583055 0.014857166 -0.08420884
0.015859917 0.032946855 0.13608132 0.10576489 -0.06880902 -0.057234664 -0.07496721 -0.053638913
-0.10911376 0.017552994 -0.08102564 0.087531015 0.18110071 0.16989823 0.26759365 0.18536451
-0.111345254 -0.0041463287 0.113989055 -0.1605739 -0.14997117 -0.09756966 -0.1269223 -0.15711382
-0.15499097 0.19678766 0.17629296 0.19244513 0.045179565 0.07252022 -0.046471283 -0.005210688
0.054431144 0.004871203 -0.039943825 0.084004276 -0.0311823 -0.21205004 -0.17163981 0.00209653
-0.09561051 -0.10605445 0.16644603 0.008027395 0.0038886957 -0.1427807 -0.05186523 -0.116325654
-0.17159674 0.023856323 0.13192798 0.08139152 -0.01217564 0.09416245 -0.17495187 0.034125835
0.117608935 -0.098303236 0.06681977 0.03628228 -0.07983823 -0.08392839 -0.1372543 -0.17835267
-0.13712797 0.014190043 0.16371709 0.010109355 -0.085039616 0.14263988 0.06282177 -0.08293106
0.08002212 -0.015384799 -0.22050871 -0.123934135 -0.25510517 -0.30245307 -0.13050373 -0.092821114
-0.13838671 -0.093948424 -0.12743556 -0.17872588 -0.18867177 -0.046638887 0.22038066 0.19523585
0.09586231 0.055357672 0.24846928 0.072103366 -0.024207732 -0.058389634 0.059290607 0.08717846
0.05529331 0.08705228 0.14106229 0.058980037 0.035031654 0.004076601 -0.1027686 -0.039327584
0.0014566435 -0.19000734 -0.030534733 -0.10677781 -0.2746338 -0.1732499 -0.12202565 -0.19086644
0.044296917 0.07271352 -0.022408271 0.0010679371 -0.059396457 -0.15925656 -0.08839575 0.0032068286
0.04027969 -0.111927845 -0.035094485 0.11275614 0.101543054 -0.010915178 0.03974729 0.0024793025
-0.02428952 -0.17514017 0.07880373 0.15715799 0.011852176 -0.002732085 0.18540919 0.25079906
-0.09958131 -0.068901405 0.13128966 -0.07845159 -0.0130886445 -0.06357766 -0.16092058 -0.021020483
0.018058233 -0.13425827 -0.18393089 -0.14603339 -0.027262626 0.106146246 -0.15370464 -0.0997299
0.15221691 0.0020365536 -0.0033341392 -0.01738118 -0.13113254 -0.008137252 -0.10372249 0.04548968
0.1452411 -0.100164846 -0.13287975 0.1521718 0.039316468 0.040880237 0.18802366 0.0136965895
-0.031916335 -0.07023572 -0.059096556 -0.042963527 -0.08458909 -0.005756205 -0.17095594 -0.22648942
0.012845741 -0.01941735 -0.10024334 0.07117316 0.06582709 -0.1381556 -0.23585571 -0.14156839
-0.23447226 0.000429112 0.06820064 -0.17363168 0.066645846 -0.017839627 -0.12542878 0.08018186
0.08291701 0.0059979153 0.0739757 0.177937 0.04051604 -0.053654276 0.1213834 -0.059555363
-0.07572065 0.051808346 0.12332777 0.049214825 0.12444365 0.054798473 0.124096535 0.12686613
-0.12078604 -0.10554402 0.12581012 -0.02805389 -0.044323873 0.04291963 0.15629612 -0.07740722
-0.08522119 0.18396889 0.15169463 -0.18429749 -0.05560545 0.07537189 -0.13395803 0.15090938

bias f4 [16]
00000000: 2a7f 43bd 5846 993d 965f e0bd d701 003c
00000010: 4a3f c53d 67f3 183d 4c00 893d aaf4 7dbd
00000020: c021 0b3c 22c2 b9bd c942 363d eb0b c5ba
00000030: a271 b33d 1fca 0fbd 648a 99bd 5e34 e63d
-0.047728695 0.0748412 -0.109557316 0.007812939 0.09631212 0.0373415 0.0668951 -0.062000908
0.008491933 -0.09070231 0.044497285 -0.0015033459 0.08761908 -0.035104867 -0.07497099 0.11240457

weight f4 [16]
00000000: c796 973f 44c1 7b3f 74a4 963f 9936 8e3f
00000010: a8f6 9a3f bbaf 613f afb0 933f 7702 a23f
00000020: 49f7 a13f 5fe5 893f 0344 943f 6302 a23f
00000030: 54d9 983f fe3a a33f 8567 883f 896a 863f
1.1842889 0.98341775 1.1768937 1.1110412 1.2106524 0.8815877 1.1538295 1.2657002
1.265359 1.0773124 1.1583256 1.2656978 1.1941323 1.2752378 1.0656592 1.0501262

bias f4 [16]
00000000: 3741 c5be 6865 a3be 3ce6 bfbe ab74 76be
00000010: c905 8abe c031 9bbe 0ada 9bbe c72f d0be
00000020: 1eee bcbe 27b6 5ebe d92f 92be d247 dabe
00000030: a5e0 77be c628 89be 665b f0be 35ab b0be
-0.38526317 -0.31913304 -0.37480342 -0.24067943 -0.2695754 -0.30311394 -0.30439788 -0.4066145
-0.3690042 -0.21749173 -0.2855213 -0.4263292 -0.24206789 -0.2678892 -0.4694473 -0.3450562

running_mean f4 [16]
00000000: 0000 0000 0000 0000 0000 0000 0000 0000
00000010: 0000 0000 0000 0000 0000 0000 0000 0000
00000020: 0000 0000 0000 0000 0000 0000 0000 0000
00000030: 0000 0000 0000 0000 0000 0000 0000 0000
0.0 0.0 0.0 0.0 0.0 0.0 0.0 0.0
0.0 0.0 0.0 0.0 0.0 0.0 0.0 0.0

running_var f4 [16]
00000000: 0000 803f 0000 803f 0000 803f 0000 803f
00000010: 0000 803f 0000 803f 0000 803f 0000 803f
00000020: 0000 803f 0000 803f 0000 803f 0000 803f
00000030: 0000 803f 0000 803f 0000 803f 0000 803f
1.0 1.0 1.0 1.0 1.0 1.0 1.0 1.0
1.0 1.0 1.0 1.0 1.0 1.0 1.0 1.0

weight f4 [32, 784]
00000000: f940 c53d b37d 9b3d 885e 6d3c f615 573b
00000010: 8e42 ba3c 7f59 ae3c 4672 973d 416e ec3c
00000020: da42 b53b 485a e0bc 536a 0c3c 1d22 bf3c
00000030: 9f59 5fbb 543b e63c c684 81bc 5ff4 2cbd
00000040: e8ed 9fbd 83d2 debd df80 e8bc 433d f8bd
00000050: a31b 43bd 6b0a 253d 37a8 5fbd c327 33bd
00000060: 7662 693c c7d2 d6bd 9fb6 17be 4f70 93bd
00000070: 6296 39bc ce64 7bbb 45f6 933d 0ef3 173d
00000080: 5e7a 4d3d d899 e23c 5fa8 4a3b 6e01 babc
00000090: 946e 3b3c 2839 aa3b c637 4c3d 729e 44bc
000000a0: 7b71 813d 2c44 9f3c 6c30 203d 0c39 283c
000000b0: ea4f ca3c 2d86 18bc ba41 bbba 9400 9c3d
000000c0: c215 2e3b 115e b73d 2250 fc3c df9f 153d
000000d0: b33f 80bc 8c86 98bc 7915 733d 52b2 7c3c
000000e0: f35c e03a 4c40 27bc fe94 08bb 6ecc 913c
000000f0: 0272 c63c df23 02bd 8ff3 c3bc 3cc4 b7bc
00000100: 5403 1abd 3b44 afbd 3ce3 38bd e04c afbd
00000110: ac80 91bd 44f3 903c c08b b7ba e909 86bd
00000120: c85c 47bd 3ec8 04bd 6aa8 8abd 7f0b cfbd
00000130: 1ec9 94bd d651 64bc a919 b43b bb19 8e3d
00000140: dc2f 6d3d c811 20bd 0296 11bd d595 0cbd
00000150: 35d7 af3a bd55 553b 7432 4c3c f7ab 293d
00000160: 39d2 c93c c7f0 1b3d 59a5 ebbb 38c0 3f3d
00000170: 6166 82b9 677f e139 1df8 46bd b12c 2d3d
00000180: ff17 aabb e42c f8bc f244 56bb 6a95 903c
00000190: 5438 83bc 5beb 14bc e2cb 8e3c b75c 863c
000001a0: 93f1 10bd 2852 27bc 6fe4 d63c a56e 463e
000001b0: 634b 5e3e 5fcc 02bd ed2b e6bd 5da9 193b
000001c0: 4490 73bd f189 2e3d fd59 533e f67c d53d
000001d0: f42e 473c 0409 9bbd 14e1 e3bc eebf 17ba
000001e0: 12bb 083d 106a 1c3e fc5e 0a3e c8df ab3d
000001f0: 9503 b43c 11d7 c4bc 8c97 51bc ca4a 84bd
00000200: 61a5 643d 3896 8f3d 1455 0d3d d122 473d
00000210: 84d1 f5bb ecd8 0dbd c36c 57bd f6b5 0abe
00000220: f57b 84bd eb8f bebd 56f6 68ba 1d0a 5e3c
00000230: 3ee7 d83b 7bb1 51bb 2a99 17bd 8163 7abc
00000240: 43dc 60bb 2190 263c cc74 0fbc fe64 8d3c
00000250: 72a4 26bb 7efc 6bbd 5fce 533b 2c76 4ebd
00000260: 6607 203c d4a8 9d3c b8bf 4d3b 54fc 78bd
00000270: 719d e6bb 9ded cb3c f9c5 f23c 8b5b c03c
00000280: 20c0 11bd b6e7 c6bc 1a91 9fbd 0bc1 9fbd
00000290: f943 d9bb 8f5a 3fbc fbf8 c13d c330 433c
000002a0: a998 8bbd c960 673d f31e 80bd 165a 03be
000002b0: 9941 1abe 2563 db3d c9b3 023d 75be 76bc
000002c0: 6847 1dbd ff27 573c f336 4e3c e41f 00be
000002d0: bff7 073c 2840 e53c 0c40 76bc cc0e 8ebd
000002e0: 2363 f1bc c355 b73d b474 c7bc 671d 35bd
000002f0: 70a3 80bc 1071 ed3b 7ce6 84bc 4553 c7bd
00000300: 2b7c 52bc 4ce2 883d dbf2 313d 7d80 62bc
00000310: df84 dfbb d05a aeba 450d 8e3d e814 003c
00000320: 414a 2abd 4a84 da3c 8a62 0c3c 6e63 4fbd
00000330: f1a7 9dbc 56fc b43d c79d 443c 3776 f33b
00000340: fb74 ac3d 58c3 ba3c 10cf d9bb 9168 cd3c
00000350: 11f6 1abd 1a84 fc3c db3a 103c 8ae7 2b3e
00000360: c4ed be3c bda1 b5bd d07e f9bc 2020 a2bd
00000370: d66c 1cbd ba3e 4d3c 0b9a 2e3e abfc 173c
00000380: 22b0 cabd ed97 aabd 4be1 57be 5462 2d3d
00000390: 12bf c4bc f000 753d 603b 99bc 6858 063c
000003a0: 0c2f 933c e4fb a7bc 4df8 be3d f1af a73d
000003b0: 02de 09bc a8fb afbc 2669 aabb 75e3 0cb9
000003c0: 2a4a 943c 7cc2 463c 1660 103d bf5d be3a
000003d0: 9da5 ba3c 453a 303d d7c7 a43d c505 b33b
000003e0: 7a61 3839 f7c1 103d 3cb9 003d b907 703d
000003f0: 79a1 c5bb 2005 bebc aa81 65bd 39c2 c53a
0.09631533 0.075923346 0.01448787 0.0032819486 0.022736814 0.02128291 0.07394843 0.028861167
0.005531651 -0.0273868 0.008570272 0.023331696 -0.0034080518 0.028104462 -0.015810382 -0.042225238
-0.07809049 -0.10879996 -0.028381763 -0.1212106 -0.04763378 0.04029314 -0.05460378 -0.04373909
0.014244666 -0.10489421 -0.14815758 -0.071991555 -0.011327358 -0.0038359645 0.072247066 0.03709703
0.050165527 0.027661249 0.003092311 -0.02270576 0.011439938 0.005194802 0.049857877 -0.012000667
0.06320473 0.019441687 0.03910868 0.010267507 0.02469631 -0.009309334 -0.0014286556 0.07617298
0.0026563262 0.089534886 0.030799929 0.036529418 -0.015655374 -0.018618844 0.05934665 0.015423374
0.0017117545 -0.010208201 -0.002084076 0.017797675 0.024224285 -0.03177249 -0.023919849 -0.022432439
-0.03760083 -0.08557936 -0.045138583 -0.085595846 -0.0710462 0.017694123 -0.0014003441 -0.06544859
-0.048672467 -0.03241753 -0.06770404 -0.101096146 -0.072649226 -0.013935527 0.005496223 0.069385014
0.05790697 -0.039079458 -0.03554345 -0.03432258 0.0013415577 0.0032552325 0.012463201 0.041423764
0.024636375 0.03807142 -0.007191342 0.046814173 -0.0002487181 0.00043010266 -0.048576463 0.04227895
-0.005190849 -0.030294843 -0.0032694903 0.017649371 -0.01601807 -0.009089316 0.017431203 0.016401632
-0.035386633 -0.010212459 0.026231973 0.19378145 0.21708445 -0.031933185 -0.11238847 0.0023446896
-0.059463754 0.04261202 0.20639797 0.10424225 0.012157191 -0.07570079 -0.027817287 -0.00057887926
0.03338153 0.15274835 0.13512796 0.08392292 0.021974364 -0.024028333 -0.012792479 -0.064595774
0.05582178 0.07011074 0.034504965 0.048617188 -0.007501783 -0.0346307 -0.052593958 -0.13545975
-0.064689554 -0.09304794 -0.00088868046 0.013552216 0.006619363 -0.0031996656 -0.037011303 -0.015282513
-0.0034310974 0.010166199 -0.008755874 0.01726007 -0.0025427607 -0.057613842 0.0032319052 -0.050405666
0.009767389 0.019245543 0.003139479 -0.060787514 -0.0070378114 0.024893576 0.029635416 0.023481151
-0.035583615 -0.02428041 -0.07791348 -0.07800492 -0.0066304174 -0.011679306 0.094713174 0.011913481
-0.06816227 0.056488786 -0.06255903 -0.12827334 -0.15064086 0.1071227 0.031909738 -0.015060057
-0.038398176 0.013132094 0.012586343 -0.12512165 0.008298813 0.027984694 -0.015029918 -0.06936416
-0.029466217 0.089519046 -0.02434764 -0.044217493 -0.015702933 0.007246144 -0.016223185 -0.09732679
-0.012846987 0.06683788 0.043444496 -0.013824579 -0.0068212594 -0.0013302211 0.06936125 0.007817484
-0.04157472 0.026674408 0.008568415 -0.050631933 -0.01924512 0.08837192 0.012000508 0.007429864
0.0842075 0.022798225 -0.006646998 0.025074275 -0.037832323 0.03082471 0.008803095 0.16787544
0.023306735 -0.0886874 -0.030455977 -0.079162836 -0.03818973 0.012527162 0.1705095 0.009276549
-0.09896876 -0.08329759 -0.21082036 0.0423301 -0.02401689 0.059815347 -0.01870507 0.008199789
0.01796677 -0.020505853 0.09324703 0.08187855 -0.008414747 -0.021482304 -0.005200523 -0.00013436175
0.01810177 0.01213133 0.035247885 0.0014523788 0.022784049 0.04302432 0.08045929 0.0054633343
0.0001758392 0.03534123 0.031426653 0.058601115 -0.006031212 -0.023195803 -0.05603186 0.001508779

bias f4 [32]
00000000: 4f24 463c 58fb 6e3d b423 8e3b 9944 293d
00000010: f390 cfbc b1fb 73bd 4bf1 89bd effa a53c
00000020: fa49 8e3d 0e19 25bb 123e 313c 6b84 06bd
00000030: 7cad 263d ac74 f33b 155c 98bc 071d d5bc
00000040: b039 243d cb2b babc 59b2 05bd 421b c1bc
00000050: d48b bbbc e4d5 08bd c2fb a9bc 94d0 753c
00000060: 959d 00bd 11b0 953c 2481 4cbd dcdf 10bd
00000070: 960e ef3c 6094 a8bc 1b05 9cbd 1a23 cc3c
0.012093618 0.05834517 0.0043377522 0.041325185 -0.025337672 -0.059566204 -0.06735476 0.020261256
0.06947704 -0.0025191936 0.010818021 -0.032841127 0.04069279 0.00742968 -0.018598596 -0.026014818
0.040094078 -0.02272596 -0.03264079 -0.023572568 -0.022893824 -0.033407107 -0.02074993 0.015003342
-0.031400282 0.018272432 -0.049927846 -0.03536974 0.02918176 -0.020578563 -0.07618161 0.024919081

weight f4 [26, 32]
00000000: 1f1a 7f3e 01b0 1bbd 2414 fcbd 4cd4 16bd
00000010: ce48 d53e 5fa2 9e3e 2335 573e 66a6 053d
00000020: 4c94 92be 774e 24bc b1f5 72bd 8667 073e
00000030: 2589 22bd eaac 26be 99db c7bd 359c b8bd
00000040: 9e2d b8bd 23ea d5bd d7ae c8bd 68ee 8abb
00000050: dfe1 c9bd 85fc 4a3d b14b 993e 928c 22bd
00000060: 77b1 3d3e 983e 343d 886d 673e e07e 1a3e
00000070: e8e2 8bbe 468d 1e3e 4a01 8b3e 5b0d 73bd
00000080: 6020 4fbd a5a5 d23c f640 e3bd dcdd 98bc
00000090: fe95 903d fbd1 06bd 99c2 01bf 838f b73d
000000a0: 9e6f 893e cffa ba3d 2933 70bd 443c 72bd
000000b0: e2ea 8ebd 59d1 913e 158f 563e d57e d63e
000000c0: 59eb d63c 1298 873d fd8f a83d 9c89 54be
000000d0: caf5 9fbd 6bd1 5f3e 1e55 85be f348 f03d
000000e0: 03fb 2bbd 50d4 58bd bdac ad3e 2272 f23e
000000f0: a44d 053e 203a 05be 2193 853e 038f b9be
00000100: 22c2 9e3e 2a72 c4bd 27b8 563d 9149 adbe
00000110: 7147 c23c 6662 a13d 8ba0 00bf 4172 35be
00000120: f1b0 95be 8950 17bf 1f4c ef3c 6926 96be
00000130: 00e4 4a3e db00 5fbe 83d4 f6bd 01b5 bebd
00000140: 50aa 443e 60b4 cd3d 1c47 f13c c15b a5bd
00000150: 8d08 de3d fdbd 833e c67f aabb 5271 823e
00000160: 8eee 0fbd 52ba 6ebe 2f00 3ebe d185 933d
00000170: 0611 28be 1cde 22bd 6de6 e1bc c574 5f3e
00000180: 6f25 22be 1fd1 ef3c b17b 36be 9855 c53e
00000190: b7c6 a73e 0f8a 763e 8935 31be 2617 de3b
000001a0: 7f0e e53d 85b3 6cbd 718c 853d df83 3a3e
000001b0: 4865 28be 9440 febe 7315 ccbd 4872 abbe
000001c0: ca9d 4b3e b2e5 943e 27bd 553e 5df6 923e
000001d0: bd3c 093e 2d85 88be 2056 403e a12c 043e
000001e0: 823d 8abc 6986 53bd a123 2a3e 355f 023f
000001f0: 9bd3 31bd 822a 2abb 076e 813e 9789 9bbb
00000200: d0c8 da3e c343 e4be 9fbb 1f3d 77a1 0fbf
00000210: 787f ae3d 926e 9f3e 6817 883d bada 8fbc
00000220: ae0a acbe bcf0 00bf 198c e1bb 16ee c3bd
00000230: 6635 223d 4488 afbd 29c5 4f3e 3792 293e
00000240: 68ad 49be 30b6 d63d 565a 02be fbae b5be
00000250: a109 5b3e b672 283e 4851 133e a13b d63c
00000260: 7d9b cf3e 2470 acbd 9a17 c8bc 11bc ac3e
00000270: 6be9 383e 8a4f db3b 81fb a43d 4efd 233e
00000280: e1b9 8f3c 89e1 2b3d 8d5d 413e 0ae7 23ba
00000290: 2804 0abd 8108 a33e 8596 e03d 1fd8 903c
000002a0: b2f9 ac3e aac9 4dbd d680 36be 3a77 3dbe
000002b0: 06db e23d 7b21 683e 8a41 0f3e edc4 2b3c
000002c0: e22a 0a3e f2bd 89be e95f d1be 363c e5bc
000002d0: 56a7 eabe b5ee 95be 032f 47be 85d1 b93d
000002e0: 50e6 90bd a485 213f a42f c8bd 0f77 2c3d
000002f0: 7226 2e3e 6e56 943d 418a 443e fd14 8b3e
00000300: 782c 193f 29ab ffbd 5e72 c33d 9c9a 29bc
00000310: 7906 2a3c daf1 3f3e 2194 a0be 79a6 d7bd
00000320: 8d2e 5a3e 94fd 663d a550 c73c ff89 0d3e
00000330: b882 db3e 07a6 023d 44b7 43bc c899 ac3e
00000340: 4090 cfbd 1a38 edbd 974a e4bd 401a ff3d
00000350: 9691 5bbe b704 2d3e 94c3 a3bd 5083 15be
00000360: b9ea 823e deb1 2fbe 6de6 363e 9e7d 5fbc
00000370: e726 a6bd 0dc4 913e 6f2e 843e c837 e53e
00000380: d169 f0be 73b8 5a3e d195 bfbe 35cf 5b3e
00000390: 150b cfbd 576e 73bc f473 8fbd e12d 463e
000003a0: 1267 3d3e e416 9f3e a6fb 37bd 1c80 eb3d
000003b0: f705 8bbe c9fd c03c 1dd6 34be d9e1 34be
000003c0: 81f3 653e 0bd5 53be 5f33 833e 4d89 34be
000003d0: 8d32 14be 8971 9e3e 67dd b93d 858a 073c
000003e0: 8412 913e 17e7 ebbd acab d6bd c4e8 df3d
000003f0: f41a d63e 887f 2cbe 7b09 e73d d26c 00bf
0.24912308 -0.038009647 -0.12308529 -0.036823556 0.41657108 0.30983254 0.21016364 0.032629393
-0.28628767 -0.010028473 -0.05931634 0.13223085 -0.039681572 -0.16276899 -0.09758682 -0.09014169
-0.08993076 -0.10445049 -0.09798973 -0.004239846 -0.098575346 0.049557228 0.2994056 -0.03968484
0.18524729 0.044005007 0.22600377 0.15087461 -0.27321553 0.15483579 0.2714942 -0.05933891
-0.050567985 0.025713751 -0.11096375 -0.018660478 0.07059859 -0.032915097 -0.5068756 0.089629196
0.2684297 0.09129869 -0.05864254 -0.059139505 -0.06978394 0.28480032 0.20953019 0.4189364
0.02623527 0.06620802 0.082305886 -0.20755619 -0.078105524 0.2185723 -0.26041502 0.11732664
-0.04198743 -0.052936852 0.3392085 0.473527 0.13017899 -0.13010454 0.26088813 -0.36241922
0.31007487 -0.095920876 0.052421715 -0.3384519 0.023715707 0.07880096 -0.5024497 -0.17719366
-0.29236558 -0.5910726 0.029211102 -0.2932618 0.19813538 -0.2177767 -0.12052252 -0.093118675
0.19205594 0.100441694 0.029452853 -0.08074141 0.10841475 0.25730887 -0.00520322 0.25477082
-0.035139613 -0.23313263 -0.18554758 0.07203258 -0.16412744 -0.0397626 -0.027575696 0.21821888
-0.15834592 0.029274521 -0.17820622 0.38541865 0.32768795 0.24076103 -0.17305578 0.006777662
0.111844055 -0.05778839 0.06520928 0.18214367 -0.16444886 -0.49658644 -0.099650286 -0.33485627
0.1988441 0.29081494 0.20872937 0.28703585 0.13402076 -0.26664105 0.18782854 0.1290765
-0.016875032 -0.051641855 0.16615154 0.50926524 -0.043414693 -0.0025965278 0.25279257 -0.0047466266
0.42731333 -0.44582948 0.03899729 -0.5610575 0.085204065 0.31139046 0.066450894 -0.017560352
-0.33601898 -0.5036733 -0.006883156 -0.09566896 0.039601706 -0.085709125 0.20290054 0.16559683
-0.19695055 0.10483968 -0.12729773 -0.35485062 0.21390392 0.16450009 0.14386475 0.02615148
0.40548316 -0.084198266 -0.024425317 0.33737233 0.18057792 0.0066928314 0.08055783 0.16014597
0.017544689 0.041963134 0.18883343 -0.0006252384 -0.03369537 0.31842425 0.10966209 0.01768118
0.33784252 -0.05024115 -0.17822585 -0.18502513 0.11076932 0.22669022 0.13989845 0.0104839625
0.13492921 -0.2690273 -0.40893486 -0.027982812 -0.45830792 -0.29283682 -0.19451527 0.09073166
-0.070751786 0.63094544 -0.09774712 0.04210573 0.17006853 0.07243048 0.19193365 0.2716445
0.5983348 -0.12483818 0.09543298 -0.010351803 0.01037752 0.18744603 -0.31363013 -0.10529799
0.2130682 0.056394175 0.024330446 0.13822173 0.42873168 0.031896617 -0.011945549 0.33711076
-0.101349354 -0.11582966 -0.111470394 0.12456179 -0.21442255 0.1689633 -0.07996288 -0.14600873
0.25569704 -0.17157695 0.17861338 -0.013640789 -0.08112889 0.28469887 0.25816676 0.4476912
-0.46955732 0.21359424 -0.37418988 0.21465762 -0.101095356 -0.01485785 -0.07004538 0.19353439
0.1849635 0.31072152 -0.044917725 0.11499044 -0.27152988 0.023558514 -0.17659803 -0.17664279
0.2245617 -0.20686738 0.2562513 -0.17630501 -0.14472409 0.30945995 0.09075432 0.008272772
0.2833444 -0.11518686 -0.104819626 0.109330684 0.4181744 -0.16845524 0.11281105 -0.50166047

bias f4 [26]
00000000: 3e80 1bbd a2dc 553d ce34 1fbe c24b 14be
00000010: a92e 82be ba56 3a3e 6aa7 493e 1828 a13d
00000020: 04d6 acbc 356f 623e f588 a73d b58a e33c
00000030: 980d 4ebe 87f9 8fbb a2e3 c5bd a641 23be
00000040: 5517 bc3e e419 1fbe cdca d1bd 6d8f e83e
00000050: b2dc 7abe c180 eabc 8975 c33d eb8d 55be
00000060: b938 9dbd 9556 95bd
-0.0379641 0.052212365 -0.15547487 -0.14482024 -0.25426224 0.18197146 0.1969277 0.078689754
-0.021098144 0.22112735 0.08180419 0.027776102 -0.20122373 -0.0043937596 -0.09662558 -0.15943012
0.3673655 -0.1553722 -0.10243759 0.45421925 -0.24498251 -0.028625848 0.095439024 -0.20854919
-0.076768346 -0.07291905
