models/CelebA-user25-agg10/server.pt (torch, 115738 bytes, 22 tensors)

weight f4 [16, 3, 3, 3]
00000000: 0efc 853d 3a5e cdbc 5a74 883d d4c5 833b
00000010: 730d bf3d f831 113d dc3a 11bd 65de 24be
00000020: 4311 e43c 9ed0 20be abbc 173d b79b 293c
00000030: f8a1 ccbc 9445 313e 638b bf38 8724 573d
00000040: 976e 9a3d f9c0 03be 6f62 7fbd b068 3f3e
00000050: ce98 41be 0009 763b c861 a5bb 4632 053e
00000060: e626 fbbc 7312 5f3d 4b76 97bb 7443 c2bd
00000070: c9e0 f5bd 6549 c9bd b92f 39be 59ba 05be
00000080: 9454 6d3d d993 e93d beac 043c b6a4 90bd
00000090: 6d69 df3d 7a50 a1bd fc33 34bd 9471 c8bd
000000a0: 6075 69bd 8a1c 26be 7d7e 9b3d 68ce a33d
000000b0: 56e6 773d 4103 ed3d aee3 983d 1495 6c3b
000000c0: 5c3a 913c b586 443c 2e1b e53d 85f1 ef3d
000000d0: c2f9 0b3e 0a10 fe3d c54d 38bd 9966 28bc
000000e0: 562e c7bc 70f7 023e 8a13 0a3d 510f 423e
000000f0: 1955 c63d 2f94 30be 3827 0d3d 2303 403e
00000100: 77af 303e 05e2 443c 7a00 773d 0bc3 3dbe
00000110: 6e60 86bd 4058 803d 8e4d 5cbe 0a07 f43d
00000120: 2864 e1bd 7f21 9b3d 0828 be3c 264c 533d
00000130: a546 2d3d 88d2 1abe 8e91 3abd 3fa3 f9bd
00000140: 9a00 243e 4b03 acbc 80e5 4bbe 2d5e 643d
00000150: 882f e83d c59a 83bd eccc dd3b 9d20 ba3d
00000160: e881 e1bd 721e 98bd d1f7 ecbc c3c4 25be
00000170: f4eb d63d af8e d83c 27b9 e53d 1430 c13d
00000180: b5ae 1ebe 6e98 04be 6042 0abe 5747 81bd
00000190: b14f b6bd f989 24bd e9b6 2ebe 0a7d a23d
000001a0: 0595 c53d 2a25 7a3d be92 e43d d060 0b3e
000001b0: 482f 3abe 2639 243d abf0 373e 05cf fdbd
000001c0: 1d00 84bd ab9b f4bb 450d bfbd 8c7e b8bc
000001d0: 5740 07bd 5f47 2c3e b5e2 80bc 1ea5 af3d
000001e0: d8c0 153e 6300 bd3d 7619 3dbe 3696 263e
000001f0: 6e68 073e 7222 19be ffc6 92bd 9123 013e
00000200: 55e7 5abe 8ef1 26be ae40 00be 7571 183d
00000210: 7a76 77bd eb4e 2bbe f969 733d 179e a03d
00000220: dc9a bf3c ada5 36be 0f47 383e 2fd3 c9bb
00000230: b322 eebd cba2 1dbd c43c 1c3e 7c90 0f3e
00000240: d1ba 4ebc 172d 903d 1eb3 66be 1bcb 0b3e
00000250: 9b99 363e 67d3 c4bd eb0c 603d 7cb5 0bbb
00000260: 00a7 0ebe ab78 74bc c252 fabd 0ef9 54be
00000270: 1288 11be 31bb 3fbc d40a 463e 8bf7 973d
00000280: 5458 e3bd 2e31 113e b2fe 0e3d 26da 56be
00000290: 7dcf 573c 737e 0b3e 7e9a e2bd ee17 aeba
000002a0: 98b5 a4bd d2f5 06be e270 abbd 93fa 473d
000002b0: 333a e33d 662e e8bc 72f3 1ebe 9ac4 453b
000002c0: 6135 25be 90de bb3c 434c 1e3e ddbc c63d
000002d0: c91f c3bd 484d 88bd 813a 973d f47a 823d
000002e0: 6712 3abe 1992 e7bd b33e 7bbd 46a0 a33d
000002f0: 04b7 363e 7d25 b23d 284e 983d 3621 2cbe
00000300: 2bee f53d 2586 863d 8b2d 70bd edca aabd
00000310: 70da 783d acc0 c7bd ddb3 833d 6c89 0a3e
00000320: 1679 15be 6c83 f8bd 18af 99bd 8f8f 1bbe
00000330: c348 04bc 728a 0a3e edd1 b83d 49f7 89bd
00000340: 3016 d1bc 83c0 c8bd a998 1dbe 1afa 36bd
00000350: e0c6 b93c 2b89 b5bd b310 07be fb25 8b3d
00000360: 6217 363a 2457 a0bd bbb8 ea3c 422d 283e
00000370: 1ce0 4fbc ed07 27be 499c 303e 08a6 0e3e
00000380: e6e6 09bc 16c5 cbbd 08ec 9ebd 683a 333e
00000390: 3e33 b23d b330 01be 57ca bbbc 76f6 e53c
000003a0: b8b6 103d 9a51 d5bc 44a0 dabd a779 613c
000003b0: 5be2 a5bc 4f13 96bd 26c9 d7bd bf80 b8bd
000003c0: 5b4d c7bd 1777 aa3d 076f 07be c34d 25be
000003d0: 1123 3b3e da76 883d 8f6c b03d 53cb 8a3d
000003e0: 32f6 c3bd aae1 c4bd ea27 11be 0e9d f5bb
000003f0: acc2 3b3d f014 2abe 5109 11be b026 a23d
0.06542216 -0.025069345 0.06662817 0.0040213857 0.09328737 0.035448045 -0.035456523 -0.16100462
0.027840262 -0.15704581 0.037045162 0.010352067 -0.024979576 0.17311698 9.1335525e-05 0.05252507
0.075406246 -0.12866582 -0.062349733 0.18692279 -0.18905947 0.0037541986 -0.005047057 0.13007459
-0.030658197 0.054460954 -0.004622256 -0.09485522 -0.12005765 -0.09828452 -0.18084611 -0.13059367
0.057941988 0.11405153 0.008097826 -0.07062666 0.1090878 -0.07876678 -0.04399489 -0.09787288
-0.056996703 -0.16221824 0.07592485 0.07998353 0.0605224 0.11572886 0.074653015 0.00360996
0.017728023 0.011995007 0.11186825 0.11715988 0.13669494 0.12405403 -0.04499604 -0.010278367
-0.024314087 0.12789702 0.03371004 0.18951155 0.096842 -0.17244028 0.03446123 0.18751197
0.17254435 0.012016778 0.06030319 -0.18531434 -0.06561361 0.06266832 -0.2151396 0.11915405
-0.110054314 0.07574748 0.023212448 0.051586293 0.0423037 -0.15119374 -0.045548968 -0.1218934
0.16015854 -0.020997664 -0.19911766 0.055753876 0.11337191 -0.06426004 0.0067688134 0.09088252
-0.11011106 -0.07427682 -0.028926762 -0.1618834 0.10494223 0.026435224 0.11216956 0.09432998
-0.15496333 -0.12948772 -0.13501883 -0.06312435 -0.08901919 -0.040170643 -0.17061962 0.079340056
0.09647564 0.0610706 0.11160801 0.1361115 -0.18182099 0.040093563 0.17962901 -0.123930015
-0.06445334 -0.007464846 -0.09328703 -0.02252128 -0.033020344 0.16824101 -0.015733102 0.085764155
0.14624345 0.092285894 -0.18466744 0.16268238 0.1322343 -0.14954546 -0.07166862 0.12611224
-0.21377309 -0.16303083 -0.12524673 0.037217576 -0.060415722 -0.16729324 0.059427235 0.07842653
0.023389272 -0.17836638 0.17995857 -0.0061592082 -0.11627712 -0.03848533 0.15257555 0.1401996
-0.012617783 0.0703985 -0.22529265 0.13651697 0.17832033 -0.09610634 0.05469982 -0.002131789
-0.13930893 -0.014921348 -0.12222816 -0.20798132 -0.14212063 -0.011702345 0.19340068 0.07420262
-0.11100832 0.14178917 0.034910865 -0.20981655 0.013172028 0.13622455 -0.11064623 -0.0013282278
-0.08042449 -0.1317971 -0.0837114 0.04882295 0.11095085 -0.028342437 -0.15522555 0.0030176998
-0.16133644 0.022933275 0.15458779 0.097039916 -0.09527547 -0.06655365 0.073842056 0.06371108
-0.18171082 -0.11307163 -0.06133909 0.07989554 0.17843252 0.086985566 0.07436782 -0.16809544
0.120083176 0.06568555 -0.058637183 -0.08339486 0.060755193 -0.09753546 0.064307906 0.13528985
-0.14596972 -0.12134442 -0.075040996 -0.15191482 -0.008073988 0.13529375 0.09024415 -0.06736619
-0.025523275 -0.09802344 -0.15390266 -0.04467211 0.022677839 -0.08864053 -0.13189964 0.067943536
0.00069462333 -0.07829121 0.02865254 0.16423514 -0.012687709 -0.16311617 0.17247118 0.13930523
-0.008416867 -0.099497005 -0.07759863 0.17502749 0.0870118 -0.12616234 -0.022923632 0.028071623
0.035330504 -0.026039887 -0.106750995 0.013761914 -0.020249536 -0.073279016 -0.10536413 -0.09008931
-0.09731551 0.08323496 -0.13225947 -0.16142945 0.18275096 0.06663294 0.08614456 0.06777062
-0.095684424 -0.096133545 -0.14175382 -0.007495529 0.04583995 -0.1660955 -0.1416371 0.07917535

bias f4 [16]
00000000: 34a4 043e 0885 f2bc 9647 75bd 9cb7 1d3e
00000010: 08a3 9d3d f003 2fbe f943 18be 49d3 40be
00000020: 621b a6bd 2f6a 03bd bc65 903d dd1c e73d
00000030: e6bb 2fbe bb18 c93d 442e 893d 9e55 813d
0.12953264 -0.02960445 -0.059882723 0.15402073 0.07697111 -0.17091346 -0.1486968 -0.18830599
-0.081106916 -0.032083686 0.07050654 0.11284802 -0.17161521 0.0981917 0.066982776 0.06315158

weight f4 [16]
00000000: 9c31 803f 70b6 7f3f 6547 803f 7e2f 7e3f
00000010: a40f 7e3f 55a9 803f 9245 803f 26bb 7f3f
00000020: 54e5 7f3f 7229 7f3f 8f04 823f 2e36 7d3f
00000030: 9fcf 7b3f 42a2 803f ef62 823f 69d8 7e3f
1.001514 0.9988775 1.0021788 0.9929122 0.99242616 1.0051676 1.0021231 0.9989494
0.999593 0.99672616 1.0157641 0.98910797 0.9836368 1.0049517 1.0186442 0.99548966

bias f4 [16]
00000000: 02af aa3b 7525 733a e090 02bc a60b 433c
00000010: 29fc 93bc b612 35bc 6cb0 a53c 9546 90bb
00000020: c46f 9b39 1bc7 223c bfbf cc3c b6b6 7cba
00000030: 1a11 673c 7f6a f2bb a433 0b3b baad 3d3a
0.005208851 0.0009275296 -0.007969111 0.011904633 -0.018064575 -0.011051824 0.020225726 -0.0044029453
0.00029647176 0.009935166 0.024993775 -0.0009640263 0.014103198 -0.007397949 0.0021240497 0.0007235665

running_mean f4 [16]
00000000: 0000 0000 0000 0000 0000 0000 0000 0000
00000010: 0000 0000 0000 0000 0000 0000 0000 0000
00000020: 0000 0000 0000 0000 0000 0000 0000 0000
00000030: 0000 0000 0000 0000 0000 0000 0000 0000
0.0 0.0 0.0 0.0 0.0 0.0 0.0 0.0
0.0 0.0 0.0 0.0 0.0 0.0 0.0 0.0

running_var f4 [16]
00000000: 0000 803f 0000 803f 0000 803f 0000 803f
00000010: 0000 803f 0000 803f 0000 803f 0000 803f
00000020: 0000 803f 0000 803f 0000 803f 0000 803f
00000030: 0000 803f 0000 803f 0000 803f 0000 803f
1.0 1.0 1.0 1.0 1.0 1.0 1.0 1.0
1.0 1.0 1.0 1.0 1.0 1.0 1.0 1.0

weight f4 [32, 16, 3, 3]
00000000: 20a1 6fbd 0dd0 7fbd e9cf a53a 8ae0 083d
00000010: 7c52 02bd 0cf1 27bc 0835 053c bd15 e639
00000020: e19a 0bbc 7d87 d23b 76f1 49bd fb98 b13d
00000030: 16c5 cd3c 8fce 3d3d 5721 14bd 9c23 b0ba
00000040: 0a2b 523d b710 28bd 88dc 52bb bd2d 29bd
00000050: 5744 32bc e4bc 4e3c dc76 9bbd ec57 3c3d
00000060: 1c40 6b3d 21df 57bd 58af 243c 561b 69bc
00000070: c0cd a6bd fa6e 43bc dfe7 7e3d fa3c 123c
00000080: 8807 493c 956c 873d 5908 103c 89ff 703d
00000090: 8001 58bd dc30 0b3d bad3 643d 9cba 8c3c
000000a0: a86d aabc 5107 883d 4685 3abd 0b7d 943b
000000b0: 09cd d6bd 1cd7 96bd 0b9d d4bd 3323 87bd
000000c0: 0482 ecbc 8650 bebd e172 a0bd bf0d b3bc
000000d0: 7424 483d 3e70 913d 8ae5 753d fe60 2fbd
000000e0: 2ce1 19bd c5b4 033d 641c 50bd bc66 80bd
000000f0: 2624 2abd 7034 7d3d 424e 843d be70 78bd
00000100: d95f a73d 9c35 45bd ef58 0abd 3a52 8abd
00000110: f582 963d d17b 623d c06b 803d 0c9d ec3b
00000120: b856 7cbc 8c21 353d 795c 70bc 7ed8 50bd
00000130: 97b3 1dbd 26b5 2b3d e8c7 b9bd 8bc4 c0bd
00000140: a3e4 943d face 45bd b267 6e3b c7e5 a03d
00000150: 4833 803c e121 92bc a671 3f3c 394d 9f3d
00000160: 4cd8 98bd 3a12 173d e0ed 76bc 5947 39bd
00000170: 846c 8c3b ee00 883d 044d 40bd e754 4bbc
00000180: df8e 82bc a4df 203d 5e09 c23c efe6 343d
00000190: 4b65 a63d 6dd8 f03c cf8d 06bd ab93 5fbb
000001a0: 0e91 a73d e2ca 723d 9a95 aabd 2db5 e53c
000001b0: ae13 243d 98de 113d 482e 62ba c0d4 2dbd
000001c0: 9ae6 763d 0531 03bd 835c 5f3d 5bd6 babd
000001d0: 8960 71bd 0e67 28bc a2df fabb 8b52 b53c
000001e0: e458 b8bc d30e e83c 8111 9fbd e893 233d
000001f0: bb40 0e3d 5534 49bd 5605 bf3c 0821 1a3d
00000200: 1e0d 9ebc cf41 9b3c 5784 07bd 70e8 a23c
00000210: f9b7 df3c c5d6 053b 49d1 ecbc a7be 8f3b
00000220: a5a4 0b3d 2e90 50bd 62be 4d3d c9f7 1ebd
00000230: 3887 3fbd a807 8ebd e1ab ba3c 749f 3d3d
00000240: 5897 67bd f923 7e3d 7b40 fe3c 62d7 463c
00000250: 8503 4f3d 4db5 573c 3fc3 e93c f3c1 603d
00000260: 0b84 11bc 82ed 713d f28d e7bb 42a9 973d
00000270: c8c7 283c 785e 26bc 8c9a f2bb 32aa 98bd
00000280: 14a3 25bd 0928 973c a25d 91bd 342c a5bd
00000290: c2e4 913c e241 5f3c 5024 5cbd bfb5 863d
000002a0: 5367 e2bc 95c4 4cbd 7185 053c 56a2 a73c
000002b0: 28ba 37bd eb59 e33b 110a a13c 04c7 473d
000002c0: b29e 963b ed5f c1bd 88f3 a6bd eba5 6c3d
000002d0: 2081 293d 340a ab3d 0283 063d d20c 243c
000002e0: d30d 55bc 19de 0d3d a9c1 a43c 701c 7bbd
000002f0: 319f 833b 6a6b 9dbd c608 1b3d 8981 d2bc
00000300: 3f9d 83bd 5695 2c3d e4f1 35bd 7a32 81bd
00000310: 7723 95bb 8908 73bd 20e3 99bb 0cb0 c43c
00000320: 968d 1cbc e73e 9fbb e59d c9bb 8d13 623d
00000330: 1e66 493d e19d 0fbc b803 97bd ad64 133d
00000340: 2d3f 283d 52d5 e33c bd4b 29bd 92c1 263d
00000350: 8c55 823d d2d6 2d3d ff13 8abd fef3 fe3b
00000360: 5d91 89bd 2479 6fbd 90dc 73bd 9892 193d
00000370: 90c2 4c3d 33e7 7bbd 9762 0ebc ce34 bf3c
00000380: 6409 c53c 40d8 193d ac1e 593d 046b 2b3d
00000390: 1c4e 64bd 0667 223d 2838 7d3c 9b41 b4bd
000003a0: d396 5c3d 928c 673d d09f 67bd 3cbe d8bb
000003b0: e6da fa3c 7c3a 623c 9934 a73d b895 71bd
000003c0: 7697 f9bb 0f2a a9bd c93d c03d 430e febc
000003d0: fa1a 363d 5144 2f3d cc03 9fbc 100e 81bd
000003e0: 1995 673d b64d 953d cf40 c7bc 0ff6 99bc
000003f0: b2f2 9e3d c31a e0bc 310b 6ebd eeec e53c
-0.05850327 -0.062454272 0.0012650463 0.033417262 -0.031816944 -0.010250341 0.008130319 0.00043885215
-0.008520813 0.006424843 -0.04930254 0.08671757 0.025118392 0.046339568 -0.036164608 -0.0013438347
0.051310576 -0.041031566 -0.0032174904 -0.041303385 -0.010880551 0.012618277 -0.0759103 0.045982286
0.057434186 -0.052703027 0.010051571 -0.014227709 -0.081447124 -0.011928314 0.06223285 0.008925671
0.012269862 0.06612507 0.008791053 0.058837447 -0.052735806 0.033982143 0.05586598 0.017178826
-0.020804241 0.066420205 -0.045537256 0.004531508 -0.10488326 -0.073652476 -0.10381516 -0.065985106
-0.02887059 -0.092927024 -0.078344114 -0.02185714 0.04886289 0.071014866 0.06003336 -0.04281711
-0.037568256 0.032154817 -0.050808325 -0.06269595 -0.04153838 0.061817586 0.06460239 -0.060654394
0.08172578 -0.04814683 -0.03377622 -0.06753965 0.07349197 0.05529386 0.06270552 0.00722087
-0.015401535 0.044221446 -0.014670485 -0.050987713 -0.03850135 0.041920803 -0.09071332 -0.094124876
0.072701715 -0.04829309 0.0036377725 0.078563266 0.015649453 -0.01783842 0.011684811 0.07778401
-0.0746313 0.036882617 -0.015071362 -0.045234058 0.004285397 0.06640802 -0.046948448 -0.012410379
-0.015937267 0.03927578 0.023686107 0.044165548 0.08124789 0.029400075 -0.032850083 -0.0034115117
0.08181964 0.059275515 -0.083293155 0.028040493 0.04005783 0.035612673 -0.0008628112 -0.042439222
0.060278513 -0.03202917 0.054531585 -0.09122916 -0.058929954 -0.010278476 -0.0076560536 0.022134086
-0.022503324 0.028327381 -0.077670105 0.039935976 0.0347297 -0.049122173 0.023317974 0.037629157
-0.019293364 0.018952278 -0.033085193 0.019886225 0.027309405 0.0020422202 -0.028908389 0.004386741
0.034092564 -0.05091875 0.05023039 -0.038810525 -0.046759814 -0.06935054 0.022787036 0.046294644
-0.056540817 0.062046025 0.031036606 0.012136312 0.050540466 0.013165784 0.028535483 0.054872464
-0.008881579 0.059064396 -0.0070664817 0.0740533 0.010301538 -0.010154359 -0.0074036773 -0.07454337
-0.040438727 0.018451707 -0.07097937 -0.08065072 0.017809276 0.0136265475 -0.053745568 0.06577634
-0.02763716 -0.049992163 0.008149491 0.02046315 -0.044855267 0.0069382093 0.01965812 0.04877378
0.0045965547 -0.094421245 -0.08151919 0.05777542 0.04138291 0.083515555 0.032839783 0.010012822
-0.013003784 0.034635637 0.020111876 -0.061306417 0.00401678 -0.07686503 0.037850164 -0.025696533
-0.06426477 0.042134605 -0.044420138 -0.06308456 -0.004551347 -0.05933431 -0.004696265 0.024009727
-0.009555241 -0.0048597935 -0.0061528557 0.055194426 0.049169652 -0.008765669 -0.07373756 0.035984684
0.041075874 0.02781168 -0.041331995 0.040711947 0.06363973 0.042441197 -0.06742095 0.007780551
-0.06717179 -0.058465138 -0.059536517 0.03749332 0.049990237 -0.061499786 -0.008690498 0.023340609
0.02405233 0.037559748 0.053007767 0.041850105 -0.055738553 0.039649032 0.015455283 -0.08801576
0.053854775 0.056530543 -0.056548893 -0.0066144746 0.030621957 0.013807889 0.08164329 -0.058980674
-0.0076169325 -0.08259975 0.093867846 -0.03101266 0.04445932 0.04278976 -0.01941099 -0.0630151
0.056538675 0.07290213 -0.024322895 -0.018794088 0.07761134 -0.027356511 -0.05811614 0.028067078

bias f4 [32]
00000000: 1860 893d 864e 013d d0b1 a5bd 76a3 d4bb
00000010: 682f a4bd 1cce 6f3d 4cac cf3c 4a2d 7b3d
00000020: 00f2 5ebc 6e38 ae3c d384 73bd 8a17 89bd
00000030: 621f a03d afcf cc3c c994 31bd fac0 a0bc
00000040: 4796 aeb9 eeab ec38 3e98 36bd 35d1 a9bc
00000050: 7425 11bd d1d0 33bd 9071 97bd 833f 713d
00000060: 648a 7ebc 8fb5 2e3d 251f 8a3c fb2a 533d
00000070: 4466 a73d e9be 8cbb 5c78 0cbd 5ed7 bd3c
0.067077816 0.031569026 -0.08090556 -0.0064892126 -0.080168545 0.05854617 0.025350712 0.061322488
-0.013607502 0.021267142 -0.059452843 -0.06693943 0.07818486 0.025001375 -0.043354783 -0.019623268
-0.00033299832 0.00011285381 -0.044578783 -0.02072964 -0.03543611 -0.043900315 -0.07394707 0.05889846
-0.015535925 0.042653617 0.016860554 0.05155466 0.081738025 -0.004295219 -0.03429447 0.023173984

weight f4 [32]
00000000: 13ca 803f 81a9 7f3f 4672 803f 2152 833f
00000010: e0c8 7e3f 35b2 7e3f 9af6 7b3f 0758 803f
00000020: 4967 7f3f b868 7f3f f115 833f 2e87 7f3f
00000030: 08dd 7e3f 7f63 803f 3806 7f3f 54e7 803f
00000040: 886c 823f 287d 7e3f d527 813f c25f 7f3f
00000050: 9e46 803f d5ac 803f 9ab0 803f 08c0 7c3f
00000060: ed3d 813f 4a4c 7d3f 2965 7d3f 13f0 7b3f
00000070: 7686 7f3f 140a 7c3f 5825 803f 34a0 7d3f
1.0061668 0.9986802 1.0034873 1.0259439 0.9952526 0.9949067 0.9842316 1.0026864
0.99766976 0.99769163 1.0241071 0.9981564 0.99556017 1.0030364 0.99618864 1.0070596
1.0189371 0.99409723 1.0090281 0.9975549 1.0021551 1.0052744 1.0053895 0.98730516
1.0097023 0.9894453 0.98982483 0.984132 0.99814546 0.9845288 1.0011396 0.99072576

bias f4 [32]
00000000: 0839 f9b9 3c92 f73a 56f3 25bc 1ab3 6abb
00000010: 6a44 0bbb aa2c 67bb abd4 14bc 278c a7bb
00000020: 9936 c4ba fdc6 1ebc a0e2 ebba 9ef5 92b9
00000030: 0e48 22ba 191c 1abc b838 c8bb 824b 91bb
00000040: c4b8 84bb e3a6 bfbb 3ffe 16bc 2c2d f6bb
00000050: d59b 9fbc e350 efba 6ca4 96bb c2f2 5a3b
00000060: e1eb 373b 621a 11bc 64a5 43bc e687 13bc
00000070: a880 fabb 7154 2dbb ceb0 c5bb cc15 10bc
-0.00047535473 0.0018888186 -0.010128817 -0.003581232 -0.0021250495 -0.0035274425 -0.009083907 -0.005113143
-0.0014969885 -0.009690997 -0.0017996617 -0.0002803029 -0.00061905466 -0.009406113 -0.006110277 -0.00443405
-0.004050346 -0.005848752 -0.00921589 -0.007512709 -0.019483486 -0.0018258359 -0.0045972373 0.0033408855
0.0028064179 -0.008856388 -0.011941288 -0.009004569 -0.0076447316 -0.0026448036 -0.0060330397 -0.008794259

running_mean f4 [32]
00000000: 0000 0000 0000 0000 0000 0000 0000 0000
00000010: 0000 0000 0000 0000 0000 0000 0000 0000
00000020: 0000 0000 0000 0000 0000 0000 0000 0000
00000030: 0000 0000 0000 0000 0000 0000 0000 0000
00000040: 0000 0000 0000 0000 0000 0000 0000 0000
00000050: 0000 0000 0000 0000 0000 0000 0000 0000
00000060: 0000 0000 0000 0000 0000 0000 0000 0000
00000070: 0000 0000 0000 0000 0000 0000 0000 0000
0.0 0.0 0.0 0.0 0.0 0.0 0.0 0.0
0.0 0.0 0.0 0.0 0.0 0.0 0.0 0.0
0.0 0.0 0.0 0.0 0.0 0.0 0.0 0.0
0.0 0.0 0.0 0.0 0.0 0.0 0.0 0.0

running_var f4 [32]
00000000: 0000 803f 0000 803f 0000 803f 0000 803f
00000010: 0000 803f 0000 803f 0000 803f 0000 803f
00000020: 0000 803f 0000 803f 0000 803f 0000 803f
00000030: 0000 803f 0000 803f 0000 803f 0000 803f
00000040: 0000 803f 0000 803f 0000 803f 0000 803f
00000050: 0000 803f 0000 803f 0000 803f 0000 803f
00000060: 0000 803f 0000 803f 0000 803f 0000 803f
00000070: 0000 803f 0000 803f 0000 803f 0000 803f
1.0 1.0 1.0 1.0 1.0 1.0 1.0 1.0
1.0 1.0 1.0 1.0 1.0 1.0 1.0 1.0
1.0 1.0 1.0 1.0 1.0 1.0 1.0 1.0
1.0 1.0 1.0 1.0 1.0 1.0 1.0 1.0

weight f4 [64, 32, 3, 3]
00000000: b11a 18bd 2116 cbbc 2dbb dbbb bd4f 50bd
00000010: bee8 ddbc 048b b33c 5c2e 67bb 7aff 923c
00000020: d1fd 54bd da67 f53c 55e5 dfbc 3ed6 983c
00000030: 72aa 833c 56dc 493d 70c0 0e3d b0e0 3a3d
00000040: 6326 c63c b07e 413c 2417 49bd 9b53 893c
00000050: 0c33 56bd 4b8c aa3c e013 8cbb ec0f 0fbd
00000060: 523a 1f3c 307c f6bc 786a 353d 47a4 21bd
00000070: fc1e dcbc d196 013c 2854 acbc 0f32 dc3c
00000080: 7170 8f3c 0365 113d 4fbf 04bb 0cd7 5ebd
00000090: 239c 1fbd c63a 3cbd d97b 463d e438 9abc
000000a0: e706 453b d407 20bd a0e2 cbbc b725 093d
000000b0: 600d 16bc c102 c23c 97fe 413d f053 0e3c
000000c0: f00c a2bc 78b5 473d add8 b03b 5720 4c3d
000000d0: 8749 9ebc 397d d3bc 7171 733c 6364 15bd
000000e0: 69a9 c73c 4184 ffbc e117 a2bc 5d09 8abb
000000f0: 6ef6 62bb dfd7 423d 23b3 14bd a139 e53c
00000100: 51c7 4ebb 3817 c73c 8f60 dcbb 202f 463d
00000110: 5714 49bd f3b5 86bc a2e8 9c3c 2384 0d3d
00000120: 4599 5dbd 84cf 083c daa1 003d 1180 8cbc
00000130: 8cda 55bc 23c5 233d 2a3b 203c 4a03 9dbc
00000140: 8f9b 8e3b 532a 63bd 613c 2c3d 3fa8 4fbd
00000150: ed6e ce3c f696 34bc 0919 21bd e249 213d
00000160: 32e1 363c 881f bbb8 ae5a cfbb 47ca 31bd
00000170: a196 e53c 5100 05bd dbd8 03bd 1b48 603c
00000180: da74 c13c 292a 0bbd a33c dfbc b69a 0d3d
00000190: 47e4 14bd 4c58 18bd 54bf 6c3c 2b2a 653c
000001a0: 1f04 d5bc 69f0 fcbc 511d c8bc 7b33 513c
000001b0: 1e7b 2b3d 5866 2ebd a303 a5bc bc68 61bd
000001c0: 8d75 263d 98c9 dabc 1da3 773d 629c 00bb
000001d0: 561c 00bd 8f15 61bd ecca 04bd ab03 5ebd
000001e0: 5739 31bd 5b15 2dbd d672 603c ad64 993b
000001f0: 3520 4f3c 296b 5c3c a416 ee3c e4de e13c
00000200: 8201 4c3d 800f a7bc 4fc3 8c3d 55dc 4b3c
00000210: b63e 60bc 3205 58bd 4a8f 35bc 5089 9fbb
00000220: 393d 033d 6558 18bc 963f 68bd 5a89 d33c
00000230: b76b 55bd 9763 41bd 6267 0d3d 08be d83c
00000240: e355 003d c2e7 5f3d eb04 6cbd f995 2bbc
00000250: 7a1b 4a3d 5b53 ea3c eddf 65bd 6894 513d
00000260: 4569 633c 90fb 483c de73 9ebc 3376 d7bc
00000270: 15a6 2439 bf03 44bd e79e e4bc 8c74 19bc
00000280: b6d5 0fbc ab7e 68bd 2b19 ce3c 1d99 01bc
00000290: b09e 31bd c659 f53c d809 3f3d 6cbf afbc
000002a0: 70dc 49bd 186b f8bc 6cac 773d 3cba 2cbc
000002b0: 323f 613d ea8a 25bd 491f 34bd 162e 0dbc
000002c0: 9a64 28bd 19e0 1fbd 29fa 3a3c 30dc 0a3c
000002d0: f91f f6bc 4012 763d e8df 8a3c 148c 783c
000002e0: bfd9 c0bc d498 d3bc 3b0b 623d be57 a53c
000002f0: 8794 65bc f5fb fa3c f263 343d 3c30 133d
00000300: 2b6a b1ba b912 20bd b671 5e3d d01f 673d
00000310: b4cb b0bc d787 39bd fe73 eebc d131 4a3d
00000320: 9d11 123c 7f39 d43c 8cce 3b3b 2919 c93c
00000330: bc3e 63bd df90 09bd 861e d4bc e0e4 c13b
00000340: c0a8 3ebd b7e4 1a3d d09e 01bd cbef 96bc
00000350: 4d00 2cbd a9dd edbc 3c8e 0fbc ec4d 403d
00000360: 2313 b73c d813 163d 95c6 a5bc 14b5 6ebc
00000370: ca54 fbbc 05b6 98bc 6d38 3abd f646 34bd
00000380: 3791 3a3d 56c7 debc c95d 71bd 1377 d2bc
00000390: c8ca e53c 22b2 99bc b463 15bd fcd5 19bb
000003a0: ae7f 9f3c 51c0 ab3c 0495 443d dd6d db3b
000003b0: 14e2 2a3d 5c7b e63c 946e 2fbd 287e 0b3c
000003c0: 7651 5cbd 8923 7dbc b648 e73b c7dc f93c
000003d0: 64d9 6cbd 4b8e 6b3d 3e07 24bc ff6d 24bc
000003e0: eee5 c8ba 9c45 1e3d 282a 8ebb 0020 ae3c
000003f0: 1c85 a7bc c187 45bd 54f2 693b e161 3abd
-0.03713483 -0.024790825 -0.0067056627 -0.050857294 -0.02708852 0.021916874 -0.0035275435 0.017944086
-0.05199987 0.029956747 -0.027331034 0.018656846 0.016072486 0.049282394 0.03485149 0.045624435
0.024188226 0.01180999 -0.049094334 0.016763499 -0.052294776 0.02081885 -0.00427483 -0.034927294
0.0097184945 -0.030088514 0.04429099 -0.039463308 -0.026870243 0.007909493 -0.021036223 0.026879339
0.01750967 0.035496723 -0.002025563 -0.054404303 -0.038967263 -0.04595449 0.048457954 -0.018825956
0.0030063929 -0.039069965 -0.024888337 0.033483233 -0.009158462 0.023682954 0.047361936 0.008687004
-0.01978156 0.048757046 0.0053969235 0.04983553 -0.01932217 -0.025816547 0.0148585895 -0.03647269
0.024372773 -0.031190993 -0.019786777 -0.004212542 -0.0034631747 0.047569152 -0.03630365 0.027981581
-0.0031551907 0.024303064 -0.006725378 0.048384786 -0.049091663 -0.016444182 0.019153897 0.034549844
-0.054101247 0.008350257 0.031404354 -0.01715091 -0.013052594 0.039982926 0.009779731 -0.019166607
0.00435204 -0.055460285 0.04204977 -0.05069756 0.025199378 -0.01102232 -0.039330516 0.0393771
0.011162089 -8.922728e-05 -0.0063279485 -0.043405797 0.028025927 -0.032471005 -0.03218923 0.013689066
0.02361529 -0.033975754 -0.027250594 0.034571372 -0.036350515 -0.03719358 0.014449913 0.013987104
-0.026002942 -0.030876355 -0.024428042 0.012768622 0.04186546 -0.04257807 -0.020143336 -0.055031523
0.04063945 -0.026707456 0.06045829 -0.0019624461 -0.031277023 -0.0549522 -0.032420084 -0.054202717
-0.043267574 -0.042256694 0.013699254 0.004681191 0.012641956 0.013453283 0.02906353 0.027572103
0.049806125 -0.020393133 0.0687319 0.012442668 -0.013686826 -0.05273933 -0.011081526 -0.004868664
0.03204081 -0.009298419 -0.056701265 0.02582233 -0.052104678 -0.047214117 0.03452242 0.026457801
0.031331908 0.05466438 -0.057621878 -0.010472768 0.04934261 0.0286042 -0.056121755 0.05116692
0.013880079 0.012267008 -0.01934236 -0.026301479 0.00015702129 -0.047855135 -0.027907802 -0.009366166
-0.00877898 -0.056761425 0.025158485 -0.00791004 -0.043364227 0.029950034 0.046640247 -0.021453582
-0.04928249 -0.030324504 0.06046717 -0.010542449 0.05499191 -0.040415682 -0.04397515 -0.008616945
-0.041111566 -0.039032076 0.011412182 0.008475348 -0.030044543 0.060076 0.01695247 0.015170116
-0.02354133 -0.02582971 0.05518649 0.02018344 -0.014012462 0.03063772 0.044040628 0.03593467
-0.0013535669 -0.039080355 0.054307662 0.056426823 -0.021581508 -0.045295563 -0.029108044 0.049363915
0.008915332 0.025906323 0.0028657047 0.02454813 -0.05547975 -0.033585425 -0.025893461 0.0059171766
-0.04654765 0.037815776 -0.031645596 -0.01842489 -0.041992474 -0.02903636 -0.008761939 0.046949312
0.022347992 0.03664002 -0.020236293 -0.01456954 -0.030680079 -0.018641481 -0.045463968 -0.044012986
0.045548644 -0.02719466 -0.05892733 -0.025691545 0.028050795 -0.018761698 -0.036472037 -0.0023473492
0.019470062 0.020965727 0.047993675 0.0066964463 0.04171951 0.028134994 -0.042830065 0.008513965
-0.053788625 -0.015450367 0.0070582284 0.030500783 -0.057824507 0.057508748 -0.010011492 -0.010035991
-0.0015327313 0.038640603 -0.0043385215 0.021255493 -0.020449214 -0.04822517 0.0035697417 -0.0455035

bias f4 [64]
00000000: 9cee 043c 14f8 213d 5ea1 18bd 781b e3bc
00000010: a73b 463d 2c21 08bd aae0 05bd 6195 4d3d
00000020: 3dc1 8ebc 691d 8dbc dc25 d23c 495d bc3c
00000030: fba2 5c3d 69da 37bd 145f c4bc 0cf5 3e3d
00000040: cd75 2e3d e07a 8f3c af0a f33b 339b 463d
00000050: 58c1 56bd 0649 0e3d 66a9 68bd 3920 243d
00000060: ee1a 62bd 6ffe c3bc 9efe e6bc e172 3ebc
00000070: 4dd1 4d3d 1a17 e23b 85b1 35bd aa1a 153c
00000080: 8c8d 64bd ad88 b3bb a4a7 43bd 10d7 2f3d
00000090: 1c79 57bd 7905 43bb 4096 2e3d 9652 b03b
000000a0: b0f1 fdbb 5fa0 b4bc 0bc3 883c 9db5 36bd
000000b0: 2923 5d3d ccf2 2b3d d0ae c73c a868 0b3d
000000c0: fab5 2dbd bd8b 803c e55a d3bb 0b65 b03b
000000d0: b4c8 043d b080 593d 944a f1bc 5d70 cebb
000000e0: b277 64bd cf4d 163c dd7f 073d b01f bb3c
000000f0: 0b39 0fbc 55e2 a43c a6e4 193d dc06 833b
0.0081135295 0.039543226 -0.037263267 -0.027723059 0.048396733 -0.03323476 -0.03268496 0.050191287
-0.017426128 -0.017225938 0.025652818 0.0229937 0.053866368 -0.044886027 -0.023971118 0.046620414
0.042592812 0.017514646 0.007417045 0.048487853 -0.05243048 0.03473761 -0.056802176 0.040069792
-0.055201463 -0.023925034 -0.028197583 -0.011624069 0.050248433 0.0068997266 -0.04435875 0.0091005955
-0.055799052 -0.0054789395 -0.047767296 0.04292971 -0.052605733 -0.00297579 0.04262376 0.0053809388
-0.0077497587 -0.022049127 0.016694566 -0.044606794 0.05398861 0.041979596 0.02437535 0.034035355
-0.042409874 0.015691632 -0.0064500445 0.005383139 0.032417968 0.05310124 -0.029454507 -0.006300016
-0.055778213 0.009173824 0.033080924 0.022842258 -0.008741627 0.020127455 0.03757157 0.0039986204

weight f4 [64]
00000000: cac0 803f b2a7 803f 53b0 803f 093f 803f
00000010: b5b4 833f 3fa4 803f 3f68 893f e1a4 7f3f
00000020: b6fa 823f 9dea 7f3f 5659 843f c07c 953f
00000030: ee1e 853f 7fdd 7f3f 4c7d 853f 58e3 803f
00000040: 43e8 803f 9a20 813f 155f 803f 551b 803f
00000050: b5ad 803f 446c 813f c317 803f c460 803f
00000060: 4706 803f e79e 833f 380a 803f ddbd 7f3f
00000070: d6b6 7f3f 401e 803f 5064 853f 851e 803f
00000080: cfe4 803f 9e17 803f 3958 933f 4db4 7f3f
00000090: 595f 813f af67 823f 24a7 813f 0cb5 7f3f
000000a0: 62df 803f f602 803f 60b5 8a3f 98fd 813f
000000b0: b4c8 803f d026 803f adcb 7f3f 8c29 803f
000000c0: 0c42 863f 3ae2 7f3f 6566 803f a98c 803f
000000d0: 1087 843f 4f18 843f 2825 823f 8fe0 7f3f
000000e0: 5b76 803f a201 803f 6930 823f d421 803f
000000f0: a4b6 7f3f 5616 803f 9aa6 7f3f aed3 803f
1.0058835 1.0051177 1.005381 1.0019237 1.0289522 1.0050124 1.0734938 0.9986096
1.0232761 0.99967366 1.0339763 1.1678696 1.0400064 0.9994735 1.0428863 1.006938
1.0070881 1.0088074 1.0029017 1.0008341 1.0053011 1.0111165 1.0007252 1.002953
1.0001916 1.0282868 1.0003119 0.99899083 0.9988836 1.0009232 1.0421238 1.0009314
1.0069827 1.0007207 1.1511298 0.9988449 1.0107223 1.0187892 1.0129132 0.9988563
1.0068171 1.0000904 1.0836601 1.0155516 1.006125 1.0011845 0.9992016 1.0012679
1.0488906 0.9995457 1.0031248 1.0042926 1.0353718 1.0319918 1.0167589 0.99952024
1.0036119 1.0000498 1.0171024 1.0010324 0.9988806 1.0006816 0.9986359 1.00646

bias f4 [64]
00000000: 968b 58b9 9166 29ba baa9 83b9 7fc2 c437
00000010: 5ca9 123b 703d e83a 86d3 b63b 99e2 94ba
00000020: 379b c33a 4431 8db9 8444 a33a bceb 6d3c
00000030: 1e1b 763b 591d 69ba c7c0 813b 0a30 1739
00000040: 00a5 3f3a 7dba d0b9 3ef3 823a 715b 6238
00000050: e451 d939 0180 cfb9 179d dab9 51d7 7439
00000060: aca9 2cba fbf1 103b b623 39ba 60f6 51ba
00000070: 7186 98ba 9031 40ba 0c6c 5eb9 f5fb 4fba
00000080: df78 b13a 2056 2db9 43e8 1b3c d1fe 84ba
00000090: 3ea3 db3a 57ed 6b3a a289 5c3b 7425 39ba
000000a0: 9c02 09ba 5672 e3b8 3d96 2f3c 2d59 653a
000000b0: 0d38 7039 d0da 0bb9 01ee 0db9 8406 47b9
000000c0: 745e 2f3b c1fc 0aba 4466 74b8 cb01 9eba
000000d0: ab24 a73a 1ffd cb3b 005d 263b e0a3 79ba
000000e0: 3d22 5239 b369 e237 4b37 393a 7fdc a8ba
000000f0: 1614 91bb c931 edb8 08de 30ba 01d4 adba
-0.00020651365 -0.0006462122 -0.00025112723 2.345559e-05 0.0022378778 0.0017718505 0.005579415 -0.0011359035
0.0014923577 -0.00026930321 0.0012456332 0.0145215355 0.0037552784 -0.0008892618 0.0039597484 0.00014418378
0.00073106587 -0.00039811796 0.0009990705 5.396776e-05 0.0004145048 -0.00039577487 -0.0004169724 0.00023349865
-0.00065865624 0.0022116888 -0.0007062511 -0.000800943 -0.0011636746 -0.0007331604 -0.0002121182 -0.0007933968
0.0013540051 -0.0001653065 0.009515825 -0.0010146742 0.0016757024 0.0008999905 0.0033651371 -0.0007062771
-0.0005226524 -0.000108455 0.010716972 0.0008748945 0.00022909064 -0.00013337587 -0.00013535471 -0.00018980546
0.002675918 -0.00053019455 -5.8269376e-05 -0.0012054978 0.0012752017 0.0062252427 0.0025385022 -0.00095230155
0.00020039915 2.699052e-05 0.0007065429 -0.0012883096 -0.0044274433 -0.00011310314 -0.00067469524 -0.0013262035

running_mean f4 [64]
00000000: 0000 0000 0000 0000 0000 0000 0000 0000
00000010: 0000 0000 0000 0000 0000 0000 0000 0000
00000020: 0000 0000 0000 0000 0000 0000 0000 0000
00000030: 0000 0000 0000 0000 0000 0000 0000 0000
00000040: 0000 0000 0000 0000 0000 0000 0000 0000
00000050: 0000 0000 0000 0000 0000 0000 0000 0000
00000060: 0000 0000 0000 0000 0000 0000 0000 0000
00000070: 0000 0000 0000 0000 0000 0000 0000 0000
00000080: 0000 0000 0000 0000 0000 0000 0000 0000
00000090: 0000 0000 0000 0000 0000 0000 0000 0000
000000a0: 0000 0000 0000 0000 0000 0000 0000 0000
000000b0: 0000 0000 0000 0000 0000 0000 0000 0000
000000c0: 0000 0000 0000 0000 0000 0000 0000 0000
000000d0: 0000 0000 0000 0000 0000 0000 0000 0000
000000e0: 0000 0000 0000 0000 0000 0000 0000 0000
000000f0: 0000 0000 0000 0000 0000 0000 0000 0000
0.0 0.0 0.0 0.0 0.0 0.0 0.0 0.0
0.0 0.0 0.0 0.0 0.0 0.0 0.0 0.0
0.0 0.0 0.0 0.0 0.0 0.0 0.0 0.0
0.0 0.0 0.0 0.0 0.0 0.0 0.0 0.0
0.0 0.0 0.0 0.0 0.0 0.0 0.0 0.0
0.0 0.0 0.0 0.0 0.0 0.0 0.0 0.0
0.0 0.0 0.0 0.0 0.0 0.0 0.0 0.0
0.0 0.0 0.0 0.0 0.0 0.0 0.0 0.0

running_var f4 [64]
00000000: 0000 803f 0000 803f 0000 803f 0000 803f
00000010: 0000 803f 0000 803f 0000 803f 0000 803f
00000020: 0000 803f 0000 803f 0000 803f 0000 803f
00000030: 0000 803f 0000 803f 0000 803f 0000 803f
00000040: 0000 803f 0000 803f 0000 803f 0000 803f
00000050: 0000 803f 0000 803f 0000 803f 0000 803f
00000060: 0000 803f 0000 803f 0000 803f 0000 803f
00000070: 0000 803f 0000 803f 0000 803f 0000 803f
00000080: 0000 803f 0000 803f 0000 803f 0000 803f
00000090: 0000 803f 0000 803f 0000 803f 0000 803f
000000a0: 0000 803f 0000 803f 0000 803f 0000 803f
000000b0: 0000 803f 0000 803f 0000 803f 0000 803f
000000c0: 0000 803f 0000 803f 0000 803f 0000 803f
000000d0: 0000 803f 0000 803f 0000 803f 0000 803f
000000e0: 0000 803f 0000 803f 0000 803f 0000 803f
000000f0: 0000 803f 0000 803f 0000 803f 0000 803f
1.0 1.0 1.0 1.0 1.0 1.0 1.0 1.0
1.0 1.0 1.0 1.0 1.0 1.0 1.0 1.0
1.0 1.0 1.0 1.0 1.0 1.0 1.0 1.0
1.0 1.0 1.0 1.0 1.0 1.0 1.0 1.0
1.0 1.0 1.0 1.0 1.0 1.0 1.0 1.0
1.0 1.0 1.0 1.0 1.0 1.0 1.0 1.0
1.0 1.0 1.0 1.0 1.0 1.0 1.0 1.0
1.0 1.0 1.0 1.0 1.0 1.0 1.0 1.0

weight f4 [32, 64]
00000000: 132d 49bd 23e3 a8bd 1b0c 093d 91ac b53d
00000010: b1e6 7ebd efee b53d b536 c8bd 2ee5 163c
00000020: b2e3 d73d 8a52 9cbd f334 8ebb 3441 123c
00000030: 4ada b1bd ce21 9fbc d87b 573d 4147 ddbc
00000040: e029 f5bd 8801 523d edd4 1f3c 4eea c2bd
00000050: 9560 b73c 0f65 613d c724 bebd 2e33 b33d
00000060: 7670 b1bd c398 2f3c 06c4 51bd 7285 ae3b
00000070: 76ac 483d 002f dabd b7ee a4bc d518 bd3d
00000080: de1d ad3c 8670 f8bd 98f4 9fbd 9764 353d
00000090: 681c d13b 5f9d 01be 26ee acbd b90e 84bd
000000a0: 55ae 83bd 349e a63d 2ff1 d8bd ca3e e63a
000000b0: fdf2 543d e644 a13d 098d fcbc c822 d23d
000000c0: e7fd 91bc c54b 8abd c34e fe3d 1314 b6bb
000000d0: 0edb 8dbd 4fb2 743d 62b6 a43d 8bf7 953d
000000e0: 626d d63c c045 ae3d 861e c4bd 4a6a d53d
000000f0: d7c6 4fbd e742 9e3d 9ef6 a8bd 99aa a1bd
00000100: e6e1 f73c 88da a03c 767a 38bd 9d8e 55bd
00000110: 7eaf af3d 07fc 8d3d d44b ebbd a0ec a03d
00000120: b638 fd3c 6d1e 85bd 762f f2bd 5efd ecbd
00000130: c1db 013e d80b 233d 537c cb3d b040 e9bb
00000140: 7da2 7abd ef4b 203d 94a7 7b3d ebd3 ba3d
00000150: 36c4 14bd f8b1 bf3d 8028 7cbd 0924 f1bc
00000160: 40b2 ddbd 9a65 e9bd 5c88 98bc 63cc 873d
00000170: 0a7c 8abd ff95 f6bc f4c1 4bbb 6f5b 3dbd
00000180: 1671 c7bd cb32 f3bc d845 81bd b5df 693d
00000190: 6c76 a33d 9e7b dbbd 24d6 f2bc a162 ec3d
000001a0: 7c2e a8bd e02a 853d ea5e 59bc a001 2cbd
000001b0: 6335 7dbd 6227 fe3c 1d04 733d e1e0 033d
000001c0: 98ab 4c3d de55 7b3c 5d78 95bd 7175 eebd
000001d0: 966e c7bd 9e1f 98bd e9a0 6f3b 37ba c2bd
000001e0: bf04 d43d 69d9 0fbc cb2b 633d e3c0 033d
000001f0: 51c3 08bb 4063 9a3d 8c6d bf3d 0fee de3d
00000200: 21d8 513b 28c5 19bd 5bc4 d2bd aede 12bc
00000210: 6ae3 67bd 8fa2 9ebd 4a4e 99bc 8974 74bd
00000220: 01b3 d9bb c105 e03d 567b 063e b137 1cbe
00000230: 0373 67bd 7877 6b3c a6b6 96bd 48e6 763d
00000240: 286e 60bd 87ec 543d b2f7 78bd 4d14 a23c
00000250: fb1e a6bc 7ce1 cebd 8d95 b1bd 22eb 643d
00000260: d550 82bd 7347 013e 5a95 f13d ae79 f43d
00000270: fbd5 c5bc f899 05be a29a d13c c40a 773d
00000280: ecf9 66bd ef32 633d 93ec 3a3e 4008 72bd
00000290: b281 0a3d 2c2d e0bd c233 a8bd da73 6a3d
000002a0: 4630 b8bd 9c10 a23d a415 9d3d a24c dbbc
000002b0: 06ae eb3d 2f53 21bd 0865 533d 2a9a fabd
000002c0: cf5e 23ba a7bc 8bbb 0e58 9e3d a1b4 87bd
000002d0: 91de 173e 2752 ff3c 6605 893c cfcb 7fbc
000002e0: 9bf1 42bd 001a ea3c 5d36 59bd 46eb 1ebd
000002f0: f4e0 63bd 5e30 8f3c 4690 833d b373 12bd
00000300: 2c3d ba3d 3e14 82bd fee3 65bd faf2 ef3c
00000310: cbd2 94bd e875 8d3d bc79 cf3d fefc 2cbd
00000320: b5ca 8a3b 87f1 81bd 2b98 953c 10a2 c9bd
00000330: be14 473d 358c acbd 2c7f 6bbd 7a1d d73d
00000340: 5b87 d23d 2da1 573d 5606 c4bc 45ee 7cbc
00000350: 95df e8bd 5a18 3b3d 7679 763c 0735 85bd
00000360: eb6b 3b3b d064 febd 251c edbd e035 72bd
00000370: 1e25 32bc 5692 9cbd b2cb 7abd e122 233d
00000380: e75e 49bc 2892 af3d b5f9 e3bc dd78 823d
00000390: a21c e43d dbd8 9d3c 861f 853d 5548 c3bd
000003a0: 9487 933d 391f e93c 764e 6a3d cb0f c2bd
000003b0: 6555 043d 61d9 f43c aa26 d5bc 749f 8bbd
000003c0: cf0f d33d 2cfc 823d f475 cf3d 1aee 8bbd
000003d0: 4a19 5cbd 1455 8d3c 14bf b13c 6a8a f93d
000003e0: 4818 eebd ce07 62bd eb24 c73c 20ea 933d
000003f0: f50a 91bb b6b0 823c d7bf c9bd 5bd5 af3c
-0.04911525 -0.08246448 0.03345881 0.08870805 -0.062231723 0.088834636 -0.097760595 0.009209914
0.10541476 -0.076329306 -0.004339808 0.008926678 -0.086842135 -0.019425299 0.05260834 -0.027011516
-0.11970878 0.05127099 0.009755355 -0.09517346 0.022384921 0.055028018 -0.092843585 0.08749996
-0.08664028 0.010717574 -0.051212333 0.0053259665 0.048992597 -0.10653496 -0.02013336 0.09233252
0.021132406 -0.12130837 -0.078103244 0.044285383 0.00638156 -0.12657689 -0.08443861 -0.064481206
-0.064297356 0.081356436 -0.10592877 0.001756632 0.051989544 0.078744695 -0.03082897 0.1026054
-0.017821265 -0.06752733 0.12417366 -0.0055565923 -0.06926547 0.05974036 0.08042599 0.07322606
0.026175205 0.085093975 -0.095761344 0.10420664 -0.050726738 0.07727604 -0.082501635 -0.07893867
0.030259084 0.019635454 -0.045038663 -0.05213796 0.08578394 0.06932836 -0.114890724 0.07857633
0.030910831 -0.06499944 -0.11825459 -0.115717635 0.12681486 0.039806217 0.09935822 -0.007118307
-0.061190117 0.039134916 0.06143911 0.091224514 -0.036319934 0.09360117 -0.06156206 -0.029436128
-0.10825014 -0.11396332 -0.018619709 0.066307805 -0.0676194 -0.03010082 -0.0031090947 -0.046229776
-0.09738366 -0.029687306 -0.0631215 0.05709811 0.079815716 -0.107169375 -0.029643126 0.115422495
-0.08211991 0.065023184 -0.013267258 -0.041993737 -0.06181849 0.031024639 0.059330095 0.032196883
0.049968332 0.015340297 -0.07298348 -0.11643494 -0.097378895 -0.074279055 0.0036564416 -0.09508174
0.10352468 -0.008779862 0.055461686 0.032166373 -0.002086837 0.07538462 0.09347066 0.1088525
0.0032019692 -0.03754154 -0.10291358 -0.008964224 -0.056613363 -0.07745849 -0.018714089 -0.05968145
-0.0066436534 0.109385975 0.13132986 -0.1525562 -0.056506168 0.014371745 -0.07359056 0.060278207
-0.054792553 0.051983383 -0.060783096 0.01978507 -0.020278445 -0.101016015 -0.08671103 0.055888303
-0.06363074 0.12624912 0.11796065 0.11937271 -0.024149885 -0.13047016 0.02558643 0.060313
-0.056390688 0.055468496 0.18254308 -0.0590899 0.033815093 -0.10946116 -0.08212997 0.05723939
-0.089935824 0.07913324 0.07670143 -0.02676994 0.11507802 -0.03938597 0.051610023 -0.12236436
-0.0006232084 -0.0042644325 0.07731639 -0.06626249 0.14830996 0.031167103 0.016726207 -0.015612557
-0.047593694 0.02857685 -0.05303036 -0.038798593 -0.055634454 0.017479118 0.06424002 -0.03575487
0.09093699 -0.06351517 -0.056125633 0.029290665 -0.07266768 0.069072545 0.10130641 -0.04223346
0.0042355903 -0.06344896 0.018261036 -0.09845364 0.048603766 -0.0842518 -0.057494327 0.10503669
0.10279723 0.052643944 -0.023928802 -0.015437667 -0.1137077 0.04567752 0.015043607 -0.06504255
0.002859826 -0.12421572 -0.11577634 -0.05913341 -0.010873107 -0.07645099 -0.061229415 0.039828185
-0.012290693 0.08572799 -0.02782903 0.06370709 0.11138274 0.019268444 0.06500153 -0.095352806
0.07203594 0.028457271 0.057203732 -0.094756685 0.032308 0.02988881 -0.026019413 -0.06817523
0.103057496 0.06395754 0.1012992 -0.06832524 -0.053735055 0.017252482 0.021697558 0.121846035
-0.11625725 -0.055183224 0.024309596 0.0722239 -0.004426355 0.015953403 -0.09851044 0.02146404

bias f4 [32]
00000000: 6eee 4b3d f8a3 f43d 599e 433c 0125 71bd
00000010: 4b20 4e3d 3c0d 9bbb fbca 59bd 5892 9f3c
00000020: e0c9 873d 4b41 17bd 4754 96bd f3c3 c6bd
00000030: 028b 583b 4363 abbd d1f8 a63c b292 c5bd
00000040: ca4e a63d 9cf7 853d 3e36 7ebd 2925 cf3d
00000050: ca74 d73d 35bf 3fbd 7979 7e3d e504 1f3c
00000060: 49e1 5abd 7a73 b93d dc08 f5bb 84ae c5bb
00000070: 18fa 50bb efe2 37bc dc54 99bd fe8a 663c
0.04978793 0.11945337 0.0119396085 -0.05887318 0.050323766 -0.0047318023 -0.053172093 0.019478962
0.066303015 -0.036927503 -0.073402934 -0.09705343 0.003304184 -0.08368542 0.020382317 -0.096471205
0.081204966 0.06541368 -0.062063448 0.101145096 0.105203226 -0.04681321 0.062127564 0.009705757
-0.053437505 0.090552285 -0.0074778628 -0.006032767 -0.0031887349 -0.011223539 -0.07486889 0.014071224

weight f4 [2, 32]
00000000: a748 843c bb75 093e eb95 643e 0223 483d
00000010: 7206 19be 667c 89be cd78 94be d874 bbbe
00000020: 682c 263e 65b6 3b3c bc68 3d3a 4a6c 693c
00000030: b684 88be 18eb 833e 30f9 5dbe 0405 ff3c
00000040: 15c0 9dbe 4295 273e 93bb 103e 0474 343e
00000050: 0e01 073f c791 953d b7ee 97be 4575 23be
00000060: be9f 65be 1e25 8fbe e0b1 af3d dd81 3f3d
00000070: e54b 9d3d 7a73 adbd 2e66 f2bd 1ddc 88be
00000080: d1e8 4ebd 50ff e13d e777 04be 75ab f13d
00000090: 4143 9e3e 5c29 ce3d 5b5c c33e 4469 743e
000000a0: 2086 2bbd 27f5 d03d 0f00 53be 2d14 b53d
000000b0: cbef c13e 38e6 5c3d a090 813e 04b9 d9bd
000000c0: 5f8a 723e 6c14 a2be 8e88 ca3d 894a a839
000000d0: 4c3d 08bf b26f 4a3d fde9 373e e3d1 3a3e
000000e0: 3e21 0e3d 9f27 fd3d 9de1 2cbd 7a94 febd
000000f0: 66e8 393e fd0e 563e 3396 4abe b84c 8a3e
0.016147925 0.13423817 0.22322814 0.04886151 -0.14943865 -0.2685272 -0.28998414 -0.36612582
0.16227877 0.01145706 0.00072253845 0.0142470095 -0.2666375 0.257653 -0.21677089 0.031130321
-0.3081061 0.16365531 0.14134054 0.17622381 0.52735984 0.073031954 -0.29674312 -0.15962704
-0.22424218 -0.27958006 0.08578849 0.046754707 0.07680491 -0.08469291 -0.118358955 -0.26730433
-0.050515 0.11035025 -0.12936364 0.11800281 0.30910686 0.100664824 0.381564 0.2386828
-0.04187596 0.10203009 -0.20605491 0.08841739 0.3787826 0.05393049 0.25305653 -0.10630992
0.23685597 -0.31656206 0.09889327 0.0003209899 -0.5321853 0.049422927 0.17960353 0.18244128
0.03469967 0.12361073 -0.04220735 -0.124306634 0.18155059 0.20904155 -0.19783859 0.27011657

bias f4 [2]
00000000: 847d cf3d 7413 083e
0.10131362 0.13288671
