models/Mnist-alpha0.05-ratio0.5/server.pt (torch, 114031 bytes, 16 tensors)

weight f4 [6, 1, 3, 3]
000000 60 18 88 3d a6 8f d1 3a 69 65 0f 3e f2 46 91 bd
       0.06645274 0.0015988245 0.14003529 -0.0709361
000010 ad 64 1f 3e 47 c6 45 3d 16 c6 c0 bd ab d2 84 be
       0.15565749 0.048284795 -0.09412782 -0.25941977
000020 22 50 1d bb e0 e1 a0 be b7 de 91 3d e5 65 0e 3d
       -0.0024004062 -0.3142233 0.071225576 0.034765143
000030 1f 25 2b bd 40 57 90 3e cb 93 48 bd 89 83 fc 3d
       -0.04178345 0.28191566 -0.04896907 0.12329776
000040 e6 73 19 3e a9 82 19 be 38 25 02 be 8b 69 88 3e
       0.14985618 -0.14991249 -0.1270951 0.26643023
000050 30 c8 b6 be 81 a1 82 bc 3d ab 3e 3c 15 a6 63 3e
       -0.35699606 -0.015946152 0.011637506 0.22231324
000060 f4 15 6d bc 3c 51 18 3e c4 86 a2 3d 88 d3 37 be
       -0.014470566 0.14874738 0.07935861 -0.17951787
000070 b9 d2 3d be 65 c9 35 be c3 a1 97 be 6e 2f 5b be
       -0.18537416 -0.17752607 -0.29615602 -0.21404812
000080 61 eb 83 3d f1 8c 60 3e 85 98 3c 3c dc 17 2f be
       0.06441379 0.21928765 0.011510973 -0.17098945
000090 bd a1 09 3e 17 49 d4 bd 33 c4 45 bd 97 b7 5d be
       0.13440605 -0.10365503 -0.048282813 -0.21652065
0000a0 5d 14 07 be 47 ea ab be 1f d1 de 3d 77 72 8e 3d
       -0.13191362 -0.33577177 0.108797304 0.06955426
0000b0 cb 37 5a 3c 32 25 20 3e ff ce ec 3d 55 32 a9 bc
       0.013318966 0.15639189 0.11562919 -0.020653883
0000c0 ae c7 37 3d c1 cf 78 3c 5b e5 2c 3e 15 2f 78 3e
       0.044868164 0.015186251 0.16884367 0.2423671
0000d0 06 fe 66 3e cc 9c 5d 3e
       0.2255784 0.21641845

bias f4 [6]
000000 b6 70 a6 bd 05 20 73 bc ba bb 8a bd 82 90 46 3e
       -0.08126967 -0.014839177 -0.06774087 0.19391063
000010 a1 a1 17 3d 55 f5 9d 3e
       0.037019376 0.30851236

weight f4 [6]
000000 05 10 84 3f 26 25 80 3f 5e a8 78 3f 7a a4 80 3f
       1.0317389 1.0011337 0.9713191 1.0050194
000010 52 f4 7d 3f bb 47 7f 3f
       0.9920093 0.99718827

bias f4 [6]
000000 a4 aa e4 3b 5c 1c eb 3a bf af 29 3c 81 42 bd 3b
       0.0069783498 0.0017937529 0.010356843 0.00577575
000010 82 04 35 3c e1 e9 13 3d
       0.011048438 0.036111716

running_mean f4 [6]
000000 00 00 00 00 00 00 00 00 00 00 00 00 00 00 00 00
       0.0 0.0 0.0 0.0
000010 00 00 00 00 00 00 00 00
       0.0 0.0

running_var f4 [6]
000000 00 00 80 3f 00 00 80 3f 00 00 80 3f 00 00 80 3f
       1.0 1.0 1.0 1.0
000010 00 00 80 3f 00 00 80 3f
       1.0 1.0

weight f4 [16, 6, 3, 3]
000000 5e 40 96 3d d4 c5 0d be 88 bb 70 3d bc 38 0f 3e
       0.07336496 -0.13844997 0.058772594 0.13986486
000010 1e 30 28 3e aa 4a 2c 3d e4 92 df 3c fb 2d cf bd
       0.16424605 0.042063393 0.027291723 -0.10116192
000020 eb 3b d2 bc a7 17 9e 3d 40 0a b8 bd 25 3b ed 3d
       -0.025663337 0.07719355 -0.0898633 0.115835465
000030 aa 5b 9c bd 50 40 ee 3c 2c 33 39 bc ff 35 56 3c
       -0.07634671 0.029083401 -0.011303704 0.013074397
000040 02 9d f7 bc 52 cd 01 be 75 24 84 bc e2 d1 55 bd
       -0.030226234 -0.1267598 -0.016130665 -0.052202113
000050 c0 f3 fe 3d 0d 1c 52 bb 81 69 ec bd e2 79 41 3d
       0.124488354 -0.0032060177 -0.11543561 0.047235377
000060 cb 57 32 3d e3 44 9a bd 1e 90 b6 bc 59 2b 78 3d
       0.043540757 -0.0753267 -0.022285517 0.060588215
000070 06 4e 9e bd 71 14 91 bd f6 7e 67 bc f5 77 c0 bd
       -0.077297255 -0.07083977 -0.014129391 -0.0939788
000080 9a 20 a0 3d 44 4e 94 3c 86 05 a8 3d 20 77 93 3d
       0.07818718 0.018103726 0.082041785 0.07200456
000090 99 01 d4 bd 80 e4 a1 bd cb 24 a6 bd c7 64 45 bd
       -0.10351867 -0.07904911 -0.081124865 -0.048191812
0000a0 fb 89 46 bd 76 96 d4 bc a7 b0 04 be e9 07 72 3d
       -0.048471432 -0.025950652 -0.12958013 0.059089575
0000b0 50 22 8b 3d f7 8c 0c 3d c2 d6 ca 3d e0 27 b9 3d
       0.06793654 0.034314122 0.09904243 0.09040809
0000c0 97 2c 04 be 3c 29 9f 3c f5 22 0a 3e 63 ea d9 bd
       -0.12907635 0.019428842 0.13489898 -0.10640409
0000d0 95 45 c2 bd d1 38 3e bc f9 c6 b5 bd 56 de 40 bb
       -0.09485928 -0.011610226 -0.08875842 -0.0029429398
0000e0 4f f8 9f ba 6d e8 fe 3d be c5 6e 3c 13 d4 b2 3d
       -0.0012204739 0.124466754 0.014573513 0.08731856
0000f0 6a 74 f5 3d 92 9d c1 3d 5f 51 00 be 69 b2 ee 3d
       0.11985095 0.09453882 -0.1253104 0.11655123
000100 53 20 d6 3d 16 75 2a bd 0d d6 5f bd 87 db b6 3d
       0.10455384 -0.041615568 -0.054647494 0.0892859
000110 74 81 a6 bd 2d 77 0d be 64 63 a4 bd 12 9c 11 3d
       -0.0813016 -0.13814993 -0.0802677 0.03554923
000120 78 c5 4d bd ce 9c ea bd 2a 50 ac 3d 5b 70 b5 3d
       -0.05023715 -0.11455689 0.084137276 0.08859321
000130 7f 31 bc 3d 13 6d 8e bd cc 53 f3 3d 77 a9 fe bb
       0.09189128 -0.06954398 0.11881217 -0.0077716666
000140 d5 3f e4 bd d5 3a 09 bc 9e d0 cf 3d c5 22 81 3d
       -0.111449875 -0.008375843 0.101472124 0.0630546
000150 95 d4 18 3c 23 c3 c9 3d 40 f5 01 be 8a 06 c5 3d
       0.009328027 0.098516725 -0.12691212 0.09620388
000160 d5 06 0b 3e 58 9b a0 bd 62 29 46 3d ec 4d bc bb
       0.13576825 -0.078421295 0.04837931 -0.0057465937
000170 e9 09 e4 bd 79 2a cc 3b 98 8d 51 bd 2b 1f f2 bd
       -0.11134703 0.006230649 -0.051160425 -0.11822351
000180 a7 4c bf bd ae e4 11 3c 54 64 fe 3d 66 46 45 3d
       -0.09340792 0.008904619 0.1242148 0.04816284
000190 1b 37 c4 bd b8 bf e4 3d f4 84 1a 3d bf 40 e2 bd
       -0.09580823 0.1116938 0.03772445 -0.110475056
0001a0 63 66 0c 3d 79 10 90 3d 42 30 aa bd 55 74 76 3c
       0.03427733 0.07034392 -0.08309986 0.015042384
0001b0 49 bd 45 bd 3c 83 bf bd 73 5f 28 bd 0a b5 6b 3c
       -0.04827622 -0.09351203 -0.041106652 0.014386425
0001c0 a4 f1 9e 3d 5a 4a 35 bd 58 2f c7 bd 3e 8a 68 bc
       0.07760933 -0.04426036 -0.09725827 -0.014193116
0001d0 fe ce ef bd 5f ac 81 3c 2a c4 22 3e 2f 52 b1 3d
       -0.117094025 0.015829263 0.15895143 0.086582534
0001e0 97 55 65 bd 32 20 9f 3b a0 ce 82 3d 4e 0b 3c 3d
       -0.055989828 0.004856133 0.06387067 0.04590922
0001f0 9d f4 f7 bd 0e 49 a8 bd 30 cc 4c bd ec 23 aa 3d
       -0.12107203 -0.08217059 -0.049999416 0.08307633
000200 63 8b 04 3e 26 ee 93 3d 16 76 8b 3d fd 3c dc bd
       0.12943797 0.072231576 0.068096325 -0.1075382
000210 bf 76 9c 3d 04 11 20 3d 4e 46 06 bd 7a e7 6b bd
       0.076398365 0.039078727 -0.03278189 -0.0575938
000220 18 02 01 3d c6 a6 af bd af cf 6a 3d 39 cb c9 3d
       0.031496137 -0.085767314 0.05732697 0.09853215
000230 96 e8 cd bd 5d a1 ad bd 85 12 5b bd 8e 8e f8 bd
       -0.10054128 -0.08478043 -0.05348446 -0.12136565
000240 0a 19 0b bc 03 1a 8a 3d e9 bc 5c 3d 98 09 39 bd
       -0.0084898565 0.067432426 0.053891096 -0.045175165
000250 5f 07 ec bc b9 48 82 bd ed 9b d8 bd c8 27 08 bd
       -0.028812109 -0.06361527 -0.105766155 -0.033241063
000260 19 3d 80 3c 4d 41 98 bd 56 3d 86 bd c1 60 59 3d
       0.015654134 -0.0743433 -0.06554668 0.053070787
000270 8b 93 0e 3d 95 6f 93 bc 7c 0b 26 3d 49 31 fb 3d
       0.034808677 -0.017997542 0.040538296 0.1226526
000280 03 55 06 bb e7 44 ce bd 06 25 41 3e 21 0d 1c 3e
       -0.0020497448 -0.10071736 0.1886178 0.15239383
000290 03 c6 e6 3c 89 03 42 bd 59 1c 14 bd 33 5a 09 3e
       0.028170591 -0.047366653 -0.036159847 0.13413315
0002a0 c4 40 20 3d 92 15 12 bd 92 95 dd 3c a3 cd 4d 3d
       0.039124265 -0.035665102 0.02704886 0.05024494
0002b0 6b 31 3c 3c 74 92 c1 bc 41 8d 95 bd 1c fb 2c bd
       0.011486392 -0.023629405 -0.07302333 -0.042231664
0002c0 75 82 fb bc 34 56 50 bd 5b b1 a4 bd 95 53 07 bd
       -0.030701855 -0.05086346 -0.0804164 -0.033038694
0002d0 98 34 00 bd 5a 55 66 3d 89 7e 8f bd f8 4c e0 bd
       -0.031300157 0.05623374 -0.070065565 -0.109521806
0002e0 1b 0d f8 3d c9 50 ab 3d fb d3 6d 3d f4 e0 82 3d
       0.12111875 0.08365018 0.05806349 0.06390563
0002f0 f7 0e 62 bc f2 a0 b0 bd 4f c2 e1 bd 26 b0 47 bc
       -0.013797513 -0.08624448 -0.110233895 -0.012187993
000300 48 ad 4b 3d 38 e6 fc bd 78 0b d6 bd 84 9a bf 3d
       0.0497258 -0.12348598 -0.10451406 0.093556434
000310 18 cc 08 3c 7a e4 a7 3d a6 fb e3 3d d4 c0 af 3d
       0.008349441 0.08197875 0.111319825 0.08581701
000320 a2 10 c5 bc 27 74 59 bd 67 be 44 3d 79 34 c6 3d
       -0.024055783 -0.053089287 0.048033144 0.09677977
000330 46 33 e9 bd fb b9 10 3d c3 d8 ea bd 8d 74 c2 bd
       -0.11386733 0.035333615 -0.11467125 -0.094948865
000340 6e 0c 26 3d 7a 3f 9a 3d 31 09 28 3d 39 55 27 3d
       0.040539198 0.075316384 0.04102439 0.04085276
000350 b6 65 0e bc c6 d7 93 bb e4 64 e2 bd 83 54 47 bd
       -0.008691242 -0.004511806 -0.110543996 -0.04866458
000360 a6 9c 3c 3d 89 87 44 bc 96 b2 88 ba 38 e9 85 3d
       0.04604783 -0.011995205 -0.0010429199 0.065386236
000370 1a 2c 33 3d 24 26 5c 3c 0e ab 60 bd de aa 8d bd
       0.04374323 0.013436828 -0.05485063 -0.06917356
000380 29 2f c8 3d 2c e3 d7 bd 44 45 a2 3d 8d 1f cd bc
       0.0977462 -0.105413765 0.079233676 -0.025039459
000390 3d 8f e1 3d 32 3c 86 bd 9f ba 5e bd ac be 83 3b
       0.11013649 -0.0655445 -0.054377194 0.0040205326
0003a0 22 34 31 3c 2b 38 ae bd e3 fa 13 3e 51 e2 c7 bd
       0.010815652 -0.08506807 0.14451174 -0.09759963
0003b0 45 8f db 3d 59 3a 76 3d 74 e1 58 ba 05 16 31 3d
       0.10720686 0.06011424 -0.0008273341 0.04323389
0003c0 51 8b 38 bc b7 e0 ec bd b4 23 a4 3d 41 23 3b bd
       -0.011263684 -0.115662985 0.08014622 -0.045687918
0003d0 4e 9f ce bc 44 99 fc 3d e9 c1 04 3e 0d 9a d1 bd
       -0.025222447 0.123339206 0.12964596 -0.10234461
0003e0 14 84 0c bd 06 53 9d 3d 48 48 a7 3d 4e c5 d1 bd
       -0.034305647 0.07681851 0.081680834 -0.10242711
0003f0 c9 9d df bd 50 25 63 3d 2e ca c3 bd 8e 82 c6 3d
       -0.10918767 0.055455506 -0.09560047 0.0969287

bias f4 [16]
000000 18 7f 43 bd 54 46 99 3d a0 5f e0 bd 17 02 00 3c
       -0.047728628 0.07484117 -0.10955739 0.007812998
000010 4c 3f c5 3d 5a f3 18 3d 44 00 89 3d a8 f4 7d bd
       0.096312135 0.037341453 0.06689504 -0.0620009
000020 e0 21 0b 3c 2c c2 b9 bd c8 42 36 3d 03 0e c5 ba
       0.008491963 -0.090702385 0.04449728 -0.0015034083
000030 a4 71 b3 3d 38 ca 0f bd 69 8a 99 bd 60 34 e6 3d
       0.087619096 -0.03510496 -0.07497103 0.112404585

weight f4 [16]
000000 cc 05 88 3f cb 08 86 3f f8 92 87 3f 86 a6 8c 3f
       1.0626769 1.0471433 1.0591726 1.0988319
000010 af 32 86 3f 5f d2 89 3f cd 2b 8c 3f 99 b4 8c 3f
       1.0484217 1.0767325 1.0950867 1.0992614
000020 c0 60 87 3f e2 1f 8d 3f 01 fc 88 3f c6 c6 88 3f
       1.0576401 1.1025355 1.0701905 1.0685661
000030 2e a8 83 3f 77 19 89 3f 1f e9 87 3f 38 fb 8a 3f
       1.0285699 1.0710896 1.0618018 1.0857916

bias f4 [16]
000000 0f 53 46 3d 74 b4 09 3d 0e 1a 0f 3d 41 c3 54 3d
       0.048419055 0.03361936 0.034936957 0.05194402
000010 cb 1e bb 3c 21 31 ee 3c 52 0e 25 3d d1 d8 f2 3c
       0.022841832 0.02907616 0.04029686 0.029644402
000020 0f 7c fc 3c 4f f3 42 3d bc 04 19 3d bb c6 1a 3d
       0.030820874 0.04759532 0.03735803 0.03778718
000030 48 43 94 3c 99 1c 20 3d fd 30 34 3d ce d6 5a 3d
       0.018098488 0.039089773 0.04399203 0.05342751

running_mean f4 [16]
000000 00 00 00 00 00 00 00 00 00 00 00 00 00 00 00 00
       0.0 0.0 0.0 0.0
000010 00 00 00 00 00 00 00 00 00 00 00 00 00 00 00 00
       0.0 0.0 0.0 0.0
000020 00 00 00 00 00 00 00 00 00 00 00 00 00 00 00 00
       0.0 0.0 0.0 0.0
000030 00 00 00 00 00 00 00 00 00 00 00 00 00 00 00 00
       0.0 0.0 0.0 0.0

running_var f4 [16]
000000 00 00 80 3f 00 00 80 3f 00 00 80 3f 00 00 80 3f
       1.0 1.0 1.0 1.0
000010 00 00 80 3f 00 00 80 3f 00 00 80 3f 00 00 80 3f
       1.0 1.0 1.0 1.0
000020 00 00 80 3f 00 00 80 3f 00 00 80 3f 00 00 80 3f
       1.0 1.0 1.0 1.0
000030 00 00 80 3f 00 00 80 3f 00 00 80 3f 00 00 80 3f
       1.0 1.0 1.0 1.0

weight f4 [32, 784]
000000 38 bb 16 3d 1d f6 1d 3d 3a e5 d5 ba af ce 8e 3a
       0.03679964 0.03856479 -0.0016318925 0.0010895337
000010 c7 76 59 3c 49 1e 36 bc 6b 57 fb 3c bf 5a ce 3c
       0.013272948 -0.011115619 0.030681333 0.025189755
000020 b3 16 f2 3c 47 44 4d bc 76 ae e6 bc b3 52 fc bc
       0.02955184 -0.012528486 -0.028159361 -0.030801153
000030 92 c0 02 3a 7b 5b 04 3d 43 9f c4 bb 4d e6 fe 3c
       0.00049878017 0.032313805 -0.006000431 0.031115675
000040 80 ae 3d bc 14 26 1d bd eb 0d 7a 3b 1f 20 0d bc
       -0.011577249 -0.038366392 0.0038155268 -0.008613615
000050 9d 91 66 bc 10 08 14 3d 45 e5 b2 bc 5c 01 d3 bc
       -0.014072803 0.0361405 -0.02183784 -0.025757484
000060 2f fa e2 3c 8a 3d a0 3b b0 a3 92 bb 82 66 87 bc
       0.027707187 0.0048901485 -0.0044750795 -0.016528372
000070 e2 46 74 bc bb 5b 8b bb 0c 4f 0a 3d 3e 1b 95 3c
       -0.014909478 -0.0042528785 0.03376679 0.018201467
000080 53 45 49 3d e8 25 e4 bb 5a 53 ef 3b c1 59 ac bc
       0.04913838 -0.0069625266 0.0073036375 -0.021038892
000090 cb aa 10 3b 80 f9 f6 3a 90 75 91 3c 90 2b 2a bb
       0.0022074457 0.0018842667 0.017756253 -0.0025965907
0000a0 3d fa f1 ba d8 90 11 b8 2d 96 b1 3c 94 46 17 bc
       -0.0018461418 -3.470559e-05 0.021678055 -0.009233136
0000b0 75 9b e8 3c a4 c4 36 3d f4 37 62 bc f9 fa 99 3b
       0.02839444 0.044621125 -0.013807286 0.0046991077
0000c0 a7 79 38 bc 42 76 e9 3c ec 20 b4 b9 0d 9f cd 3c
       -0.011259473 0.028498773 -0.00034356804 0.025100255
0000d0 81 df 32 bc e4 93 7e bc e1 00 3b 3d 0e b7 92 bc
       -0.010917545 -0.01553819 0.045655135 -0.017909553
0000e0 68 5e ff 3b e3 66 6e 3c cf f1 d5 3b 6b f3 b4 bc
       0.0077932365 0.014550897 0.00652907 -0.022088727
0000f0 88 fd 86 bc 6c 06 bf bc b0 d0 7b bc e4 7c 0c bc
       -0.016478315 -0.023318492 -0.015369579 -0.008574698
000100 64 61 cd 3c e2 bb 4c bc 05 85 ef bb 06 04 91 bc
       0.025070854 -0.012495967 -0.0073095583 -0.017702114
000110 40 a0 d2 3b 66 52 33 3d 60 e0 a2 3a 8a 54 b0 bc
       0.0064277947 0.043779753 0.0012426488 -0.021524686
000120 6c 42 04 bd 1a de 0d 3b 02 ea 0b 3d f5 c6 39 ba
       -0.032289907 0.0021647275 0.034158714 -0.0007086837
000130 80 c5 9d bc e8 dd c6 bb 57 29 82 3c ae 5b 40 3d
       -0.019259214 -0.0060689338 0.015888853 0.046962433
000140 a1 5a f6 3c a2 d6 7d 3c 2f 44 47 bc a9 85 e7 bb
       0.030072512 0.015493067 -0.012162252 -0.007065494
000150 3f 00 a1 bb f8 aa a8 39 83 7f 38 3c 16 55 a3 3c
       -0.0049133594 0.0003217084 0.01126087 0.019938033
000160 94 a5 9c 3c 77 10 7e 3c 47 f8 43 3c ab 2a 04 3d
       0.019121923 0.015506855 0.011961049 0.032267254
000170 d7 04 00 3b a8 d2 03 3d 74 3a ab bc de 93 e3 3c
       0.0019534135 0.03218332 -0.020901896 0.02778047
000180 a9 52 97 bb b7 c2 ce bc 00 1b 17 3c 08 0d 8f 3c
       -0.004618008 -0.025239332 0.009222746 0.017462268
000190 56 f0 86 bc 6e bb 67 bc 0a c7 88 3c d0 dd 93 3c
       -0.016472023 -0.014143808 0.016696472 0.018050104
0001a0 51 e7 cd bc 60 67 fd 3a 45 a5 51 bb 6e c4 fb 3c
       -0.025134714 0.0019333176 -0.0031989377 0.030733313
0001b0 5a d0 d2 3c 61 17 1e bc da 7f 54 3b 36 c2 48 3b
       0.025734115 -0.009649129 0.0032424838 0.0030633337
0001c0 c7 5e 0c bd d4 19 fe 3a 25 3e 07 3d f6 8b 58 3d
       -0.034270074 0.001938636 0.03301825 0.052867852
0001d0 ad f1 b1 3c 84 ca 25 3d ba a9 13 3c d6 f3 4d 3c
       0.021721685 0.040476337 0.009012634 0.012570342
0001e0 55 e5 64 3b 87 20 27 3d e5 78 68 3d d5 d5 fc 3c
       0.0034926732 0.040802505 0.05675592 0.030863682
0001f0 7d 8e 9d bc f0 2c db bc 76 97 13 3c 79 27 91 bc
       -0.019232983 -0.026754826 0.009008279 -0.017719017
000200 ca 8d 3e 3b e5 0b 6c bb fa 78 b8 3c ec 33 2a 3d
       0.0029076212 -0.0036017832 0.022518624 0.041553423
000210 db 0f 18 bc 23 12 9a 3b b9 fe c2 bc a1 4b 11 bd
       -0.009281124 0.004701869 -0.023803102 -0.035472516
000220 d9 9e 5f bc fd 06 71 bc 62 a7 a7 bc 91 0e c8 bb
       -0.013648712 -0.014711139 -0.020465557 -0.006105252
000230 fe a6 95 3c 0a 4a e8 3b 09 34 0b 3d 2f 94 30 3d
       0.018268105 0.0070889043 0.03398517 0.04311007
000240 0f be 00 3d 00 5d 31 3c 8f 16 98 bc 25 9a 38 3d
       0.031431254 0.010825396 -0.018565444 0.04506888
000250 9a 18 ed 3c c9 de 9b bc b5 f2 27 3d cb 43 8c bc
       0.028942395 -0.01902713 0.041002948 -0.01712217
000260 ac da f1 3c 22 71 2f 3d 7e da eb 3c ee 25 02 bd
       0.029523216 0.0428325 0.028790709 -0.031774454
000270 72 7b 29 3c a6 c2 9c 3b 64 03 46 3c ca ec ed b6
       0.010344373 0.004783946 0.012085769 -7.0907163e-06
000280 80 ae fe bc 24 e5 30 bb 2b cd bf bb 9f 77 23 39
       -0.031089067 -0.0026992047 -0.0058533153 0.00015589454
000290 2a f9 d9 3c 5b 3a 59 bc 77 4d 2c bc 54 a2 23 3c
       0.026608068 -0.013258542 -0.010516516 0.0099874325
0002a0 47 45 8d bc 3c 66 ba 3c a7 1a 4d bc cb d9 e5 bc
       -0.017244948 0.022753827 -0.012518561 -0.028057953
0002b0 95 c0 ec bc cb 51 fe 3c ee cc 15 3d 91 5e f4 3c
       -0.028900424 0.031044861 0.03657239 0.029830249
0002c0 3c 52 3f 3c 7a 41 9a 3d 5d d9 58 3c 5e 38 13 3a
       0.011677321 0.0753202 0.013235417 0.00056160043
0002d0 93 fd 74 3a 80 63 1f 3d 72 90 87 bc 6d 82 19 bd
       0.0009345647 0.03891325 -0.01654837 -0.0374779
0002e0 d1 d3 2f 3d 37 ec 4b 3d fd c8 62 bc eb 0e ef bc
       0.042926613 0.04978582 -0.013841865 -0.029181918
0002f0 45 91 0e bc cd eb ce 3c 92 dc b1 3c af 39 a7 bc
       -0.008701627 0.025258923 0.021711621 -0.020413248
000300 f7 f4 16 3c 2d 15 2c 3d 43 ef c0 3c 36 af bc b8
       0.009213678 0.042012382 0.023551589 -8.997174e-05
000310 00 68 ca bb 7e 06 aa 3a b0 1c 2f 3d b3 da 81 bc
       -0.0061769485 0.0012971906 0.042751968 -0.015851354
000320 de 16 71 bc d0 a3 20 3d b7 54 72 3c d3 f4 96 bc
       -0.014714925 0.039218724 0.014790705 -0.018427288
000330 c5 69 f0 bc ee 34 09 3b ac 5b e4 3b c9 a3 45 3c
       -0.02934731 0.002093609 0.006968936 0.012062975
000340 dd ae 5e 3c 7a 6f e8 3c 16 3d 12 3d f1 d8 95 3c
       0.013591495 0.028373469 0.035702787 0.018291922
000350 fc 5a 8e bb fb 27 4e bc 08 06 a9 bc c9 02 c9 3b
       -0.0043443423 -0.012582774 -0.020632759 0.006134365
000360 ec 61 f2 3c c1 e5 a1 3c d9 c5 11 bc 0e ab 07 3d
       0.029587708 0.019762876 -0.008897268 0.033122115
000370 a9 cb 49 3c 0b c2 2b bc 1f bb eb 3c f7 e4 85 3c
       0.012316623 -0.010483275 0.02877575 0.01634453
000380 1f de 95 bc 5a ff c2 bc 4d 48 98 bc 8b 7b 53 3d
       -0.018294392 -0.023803402 -0.018589163 0.05163149
000390 72 bc a3 bb e8 a4 81 3c 08 7d 2b bc 47 cc da 3c
       -0.0049968297 0.015825704 -0.0104668215 0.026708735
0003a0 19 e9 b0 3c c9 1b 9f 3c 7f d1 57 3b a0 11 d0 3c
       0.021595525 0.019422429 0.0032931266 0.02539903
0003b0 12 a2 d4 3c 81 f0 a8 bc 52 ae 25 bc 4b 93 c9 3c
       0.025956187 -0.020622494 -0.010112362 0.024606368
0003c0 a8 99 0c 3d 50 34 81 bc 1d 8c b2 3c f4 49 e9 3c
       0.034326226 -0.015772015 0.021795327 0.028477646
0003d0 f5 cf e9 3c f6 83 8d 3c f0 a4 22 3d 8e 46 bd bc
       0.028541544 0.017274838 0.039708078 -0.023104932
0003e0 b6 03 cf bc 07 90 5b 3c 0e 6f 8d 3b 20 48 d1 3c
       -0.025270324 0.013401038 0.0043162173 0.025547087
0003f0 c5 1d 00 3c db ed ad 3b ec a7 a3 bc ca b0 8f 3a
       0.007819598 0.0053078956 -0.019977532 0.0010962721

bias f4 [32]
000000 4c 44 4b 3d fe 0b 7f bc b2 ec e9 3c 0f e5 e7 bc
       0.04962568 -0.015566824 0.028555248 -0.028307466
000010 ed 7d 30 bc c3 38 8b ba bc 34 72 bb 57 91 14 bd
       -0.010772211 -0.0010621775 -0.0036957702 -0.03627142
000020 77 f4 89 bc b3 27 22 bd f4 45 15 3c 6b 50 1b 3d
       -0.016840203 -0.03958864 0.009110916 0.03791849
000030 2b 8a a3 3c 13 75 d2 bc 65 4a ec bc f6 0f f5 39
       0.019963345 -0.025690591 -0.028844068 0.00046741933
000040 fd 23 ff bc 72 19 4d bb f5 58 1a bc 96 5c 63 bc
       -0.03114509 -0.0031295684 -0.009420623 -0.013877055
000050 ba 63 51 ba e0 88 1f 3c 74 b8 08 3c 71 39 6d bb
       -0.00079875777 0.009737223 0.008344758 -0.0036197568
000060 5a ab b6 3c 32 ce f5 3b 92 1f 7c 3b 49 10 29 bd
       0.022298504 0.007501387 0.0038470966 -0.041275296
000070 99 32 b0 3b ec a0 fb 3c e3 35 43 bc 2f 68 a8 3c
       0.0053771255 0.030716382 -0.011914703 0.020557491

weight f4 [10, 32]
000000 13 42 9e 3d de 69 df bd 60 43 13 be 97 c0 19 3e
       0.077274464 -0.109088644 -0.1438117 0.15014873
000010 69 ab 3a 3e e8 93 8d 3d 32 27 09 bd 4f 35 8a bd
       0.1822945 0.069129765 -0.033484645 -0.06748449
000020 a2 85 f7 bd 23 94 c1 3d c8 c2 14 3d 03 e7 29 bd
       -0.12086035 0.09452083 0.03631857 -0.041480076
000030 5c b3 ba bd 61 a4 99 bd 47 9a 0b be ce 5b 07 be
       -0.09116241 -0.07502056 -0.13633071 -0.13218614
000040 25 fb 1c 3e d9 bd 17 3e ef f6 19 3d 72 83 1f 3e
       0.15330179 0.14818515 0.03758901 0.15577486
000050 8c 5e 2c be 3a 5e 03 3e 77 38 45 3d 32 33 27 be
       -0.16832942 0.12828913 0.048149552 -0.16328123
000060 ed a1 21 be 1f 73 17 3e db f7 8b 3d 56 b1 dc 3d
       -0.15784426 0.14790009 0.06834384 0.10776012
000070 b9 ab 1e be 21 0c fd 3c 5e 8d 11 3e 6c 40 a9 bd
       -0.15495194 0.030889573 0.14214084 -0.082642406
000080 76 85 0d be 6b 0a 83 bd 1e 19 3b be 56 40 d8 bd
       -0.13820443 -0.063984714 -0.182713 -0.10559146
000090 ec 27 ff 3c 9d 19 80 3d 61 25 11 be 27 d1 91 3d
       0.031146966 0.06254885 -0.14174415 0.07119971
0000a0 f1 47 f5 3d fe ca 02 3e 53 0b 34 be 80 1e c1 bd
       0.11976612 0.12772748 -0.17582445 -0.094296455
0000b0 98 31 32 3d 65 1e 14 3e 6c 69 94 3c 58 be e6 bd
       0.043504328 0.1446472 0.018116675 -0.11266774
0000c0 b4 55 15 3d bb 83 6e 3b 42 b0 f4 3d 2b 6d cd bd
       0.036458686 0.0036394435 0.11947681 -0.10030588
0000d0 33 50 74 bb 65 39 e9 3d 63 3e 11 3d 60 ee 00 3c
       -0.0037279248 0.113879 0.035459887 0.007869333
0000e0 4d fc 7e bd be 83 b8 3c c1 da ae bc ae 9a db 3d
       -0.06225233 0.022523757 -0.021344544 0.10722862
0000f0 a1 a1 25 3e 99 e5 9d bd ce ba 97 bd 3b d5 d7 bb
       0.16174938 -0.07709808 -0.07408677 -0.0065866983
000100 52 66 26 3c 0e 3d c7 be 4d f2 db 3d 3a 2a a6 be
       0.010156231 -0.3891377 0.107395746 -0.3245409
000110 ad 4c 37 3e b3 3b 51 3e 6f 7a 5d be aa 65 05 bd
       0.17900343 0.2043293 -0.21628736 -0.032567658
000120 1d d2 66 bd 60 6f 94 be 11 71 1a 3e 60 9b 59 3e
       -0.056352723 -0.28991222 0.15082194 0.21250677
000130 63 35 34 bd 5b 55 9b be 87 f3 a1 3c d4 74 b1 be
       -0.043996226 -0.3033856 0.019769443 -0.34659445
000140 0b c1 4a be 29 61 66 be 98 64 c4 3e 5d b9 ff bd
       -0.19800203 -0.22498001 0.38357997 -0.12486527
000150 66 c7 1a bd 0a b4 4a 3e a0 7d 86 be ca 07 12 3d
       -0.037787817 0.19795242 -0.2626772 0.03565196
000160 ad e1 fd 3d 5b 90 17 bc ca af e6 bd 3d f3 9d 3e
       0.1239656 -0.009250726 -0.11263998 0.3084964
000170 93 df 27 be 9f 14 0b be ad 86 8c bd 08 d1 b4 3c
       -0.1639388 -0.13582085 -0.06861625 0.02207233
000180 f5 16 0d be 86 7a 92 3c d8 ce 4c bd 94 28 da 3b
       -0.13778289 0.01788069 -0.05000195 0.0066576693
000190 a0 bd 6d 3d 19 a8 02 3d 65 b7 20 be 7c 5e 22 bd
       0.05804217 0.03189859 -0.1569496 -0.03964089
0001a0 22 b3 a5 3d a3 0d 20 be 41 70 b8 3c b7 8d 03 3d
       0.080908075 -0.15630202 0.022514464 0.03211757
0001b0 c8 82 20 be 5d c4 bd bd a8 ae 09 be 91 db cf bd
       -0.15674889 -0.09265969 -0.13445532 -0.10149301
0001c0 c0 37 c4 3d 67 88 15 3e 3e 01 71 bc 72 3b b0 3d
       0.09580946 0.14602815 -0.014709769 0.08605088
0001d0 ef 8e 26 3d 9b 99 04 be 5d 18 62 3d ff 25 a0 39
       0.040663656 -0.12949221 0.055199016 0.00030545887
0001e0 c8 68 ac 3c f3 13 05 be 04 4a a2 3d 3c 40 fd 3d
       0.021046057 -0.12995891 0.079242736 0.12365767
0001f0 fe 72 17 3e 91 85 26 be 9e 5c 01 3e 57 70 b9 3d
       0.1478996 -0.16261889 0.12632987 0.0905463
000200 da b1 ac 3e 15 1b b6 bd 4b e5 68 3e 9c 29 25 3e
       0.3372944 -0.08891884 0.22743718 0.16129154
000210 21 3d ac be e9 54 19 3e a9 6d ba 3e b1 cc 4b be
       -0.33640388 0.14973797 0.3641179 -0.19902302
000220 e3 e3 14 bb 25 b7 fe 3d 7f 0f 40 3e 45 f3 5c be
       -0.002271884 0.12437276 0.18755911 -0.21577175
000230 88 46 10 be 6f e8 5c 3c fa 78 57 be 5d 47 7e 3d
       -0.14089406 0.013483151 -0.21042243 0.062079776
000240 d9 51 28 3d 32 ee dd 3d 06 f3 ce bd 2f 67 3d 3e
       0.04109368 0.10836448 -0.10104947 0.18496393
000250 11 01 89 3c 6e ff 62 3d 97 dd 8a 3e b8 df 98 3e
       0.016724141 0.055419378 0.27122185 0.29858184
000260 d2 4e c0 3e a8 b3 04 bd cc f0 7e 3e 8b 92 46 be
       0.37560135 -0.032397896 0.24896544 -0.19391839
000270 6d ae 3b 3e 44 90 92 bb 42 6e 9c 3d ec 4d 07 be
       0.18328257 -0.004472764 0.076382175 -0.13213319
000280 d5 53 30 be f9 2d 86 bd f1 27 ed 39 a8 82 d3 bd
       -0.1721948 -0.06551737 0.0004523392 -0.10327655
000290 88 3f 23 3e d1 4a 09 bd 7a 51 26 bd 35 42 c8 3d
       0.15942204 -0.033518616 -0.040605046 0.09778253
0002a0 fa e7 bb bd c0 a9 07 be 0f 34 bb bd 88 92 e3 bd
       -0.091751054 -0.13248348 -0.09140789 -0.11111933
0002b0 31 54 18 be 04 a2 27 bd 60 d1 17 3d fd 54 a7 3c
       -0.14875866 -0.040925995 0.03706491 0.020426268
0002c0 29 41 2f 3e a8 fd ed bd 1c 58 08 be 47 bb f9 bd
       0.171147 -0.11620647 -0.13314861 -0.121939234
0002d0 a7 cc eb bc dd 32 3d be 09 06 07 be 45 57 77 bd
       -0.02878411 -0.18476434 -0.13185896 -0.06038596
0002e0 97 86 38 be a5 0c d1 3c b2 55 41 bc 28 5f 94 3c
       -0.18020092 0.025518725 -0.0118002165 0.01811178
0002f0 ec 56 a7 bd 7d 7f ae bd e2 59 8e 3c f9 77 ca 3c
       -0.08170876 -0.0852041 0.017376844 0.02471541
000300 41 30 48 3e 84 ba 34 3d f9 db b0 3c 29 dd e5 bd
       0.19549657 0.044123188 0.021589266 -0.112238236
000310 25 93 08 3e 74 2f 29 3d 1b fa 80 be 99 ae b6 3d
       0.13337381 0.04130502 -0.25190815 0.089200206
000320 b9 78 c6 bd b6 49 4c be 4f 58 5f be 2c 89 4a 3e
       -0.09690995 -0.19949993 -0.21811031 0.1977889
000330 8d f9 69 3e cf 14 02 3e 81 33 3f 3e 8f ec 31 3e
       0.22849102 0.1270325 0.18671991 0.17375396
000340 b6 cb 13 bd d2 f3 c6 bd 6d 99 25 be ce 32 27 3d
       -0.036082946 -0.09714474 -0.16171809 0.040819936
000350 2a 3c fd bd 60 15 d1 3d 85 01 69 3e b9 90 1a be
       -0.12364991 0.10209155 0.22754486 -0.1509427
000360 ac e1 45 be c0 ef 70 be a1 34 5e 3e 10 af 82 be
       -0.19324368 -0.23528957 0.21699764 -0.25524187
000370 b2 9e 96 bd eb 86 fc 3d de 26 7a bd 65 c4 68 3e
       -0.073544875 0.12330421 -0.061072223 0.22731169
000380 1d e5 c4 bd 50 24 48 3e 4d 5e ec bd 3f 16 b5 3d
       -0.096140124 0.19545102 -0.11541424 0.08842134
000390 d9 bf 65 3d 69 1e f1 3d bf c2 1b bd 9c 8c a4 3d
       0.056091163 0.117733784 -0.03802752 0.080346316
0003a0 b6 74 af bd 4b b4 2e bc 18 79 7f 3d 0a c3 18 3e
       -0.08567183 -0.010663102 0.062371343 0.14918151
0003b0 63 98 d7 bc da 6c aa bd 56 cb 1d bd e7 d2 c9 bd
       -0.02631778 -0.08321543 -0.038523994 -0.098546796
0003c0 fc d3 0a 3e b8 ae 5d bd ea 45 d1 3b 15 0f dd 3d
       0.13557428 -0.054121703 0.0063865082 0.10793892
0003d0 0c 54 d1 3c 63 ff 20 be 89 6e b1 3d 70 fb 97 3c
       0.025552772 -0.15722422 0.08663661 0.018552512
0003e0 93 92 f5 3d 2e 84 37 3d 23 09 83 3d 2f fd 01 3e
       0.119908474 0.04480379 0.06398227 0.12694238
0003f0 88 a3 a8 bd 7b e5 a0 bd f9 f3 33 3e 58 4a cb bc
       -0.08234316 -0.0785627 0.17573537 -0.024815723

bias f4 [10]
000000 f1 0f 0d be ca aa 4d be 1a 93 43 3e 5f 93 b2 3d
       -0.13775612 -0.20084682 0.19099084 0.08719515
000010 fa 6f e5 3d 44 0d c1 bd 16 86 da bc 9a a9 09 3e
       0.112029985 -0.09426358 -0.026675265 0.13443604
000020 2a a9 ef bd c8 2d 81 3d
       -0.11702187 0.0630756
