models/Mnist-alpha0.5-ratio0.5/server.pt (torch, 114031 bytes, 16 tensors)

weight f4 [6, 1, 3, 3]
0.045796137 -0.036615793 0.15646078 -0.032398902 0.10269382 0.12897523 -0.115935706 -0.24777581
0.081105955 -0.26363003 0.074360795 0.023593176 -0.019773446 0.31766334 -0.053490885 0.14714889
0.107192114 -0.19225277 -0.09487893 0.28154895 -0.36452532 -0.017416602 0.020924121 0.19616957
-0.017123561 0.18799008 -0.0042367685 -0.16666718 -0.19204839 -0.18072154 -0.27063617 -0.23399884
0.04332715 0.22196794 -0.014882479 -0.1912771 0.11118067 -0.11974206 -0.010396175 -0.25385514
-0.11860551 -0.32813722 0.05255709 0.0966982 0.021955473 0.13119042 0.0934468 0.025611363
0.03282037 0.02102118 0.2046392 0.24560244 0.23871283 0.19613346
00000000: bb94 3b3d 71fa 15bd 4137 203e b6b4 04bd
00000010: 2351 d23d 1512 043e b36f edbd f1b8 7dbe
00000020: e11a a63d 84fa 86be 794a 983d 7a46 c13c
00000030: ecfb a1bc c5a4 a23e 4219 5bbd 33ae 163e
00000040: 8a87 db3d e9dd 44be e24f c2bd 2f27 903e
00000050: 10a3 babe 43ad 8ebc 1069 ab3c ade0 483e
00000060: b646 8cbc 7980 403e 97d4 8abb cdaa 2abe
00000070: 55a8 44be 110f 39be d390 8abe 649d 6fbe
00000080: cf77 313d 904b 633e a4d5 73bc 25de 43be
00000090: b1b2 e33d 533b f5bd b854 2abc 4df9 81be
000000a0: 72e7 f2bd 9a01 a8be 1a46 573d b509 c63d
000000b0: f7db b33c c856 063e 0961 bf3d ecce d13c
000000c0: a76e 063d 9c34 ac3c f08c 513e 357f 7b3e
000000d0: 2371 743e 36d7 483e

bias f4 [6]
-0.08126975 -0.014839258 -0.06774088 0.19391063 0.037019365 0.30851236
00000000: c170 a6bd 5c20 73bc bbbb 8abd 8290 463e
00000010: 9ea1 173d 55f5 9d3e

weight f4 [6]
0.9945386 1.0296135 0.97936255 0.99998116 0.9937667 1.0013802
00000000: 159a 7e3f 60ca 833f 81b7 7a3f c4fe 7f3f
00000010: 7f67 7e3f 3a2d 803f

bias f4 [6]
-0.044969082 -0.004875455 0.009036861 -0.00345833 -0.0018434392 0.012115966
00000000: 8031 38bd 48c2 9fbb 580f 143c 26a5 62bb
00000010: 8e9f f1ba 0b82 463c

running_mean f4 [6]
0.0 0.0 0.0 0.0 0.0 0.0
00000000: 0000 0000 0000 0000 0000 0000 0000 0000
00000010: 0000 0000 0000 0000

running_var f4 [6]
1.0 1.0 1.0 1.0 1.0 1.0
00000000: 0000 803f 0000 803f 0000 803f 0000 803f
00000010: 0000 803f 0000 803f

weight f4 [16, 6, 3, 3]
0.029009527 -0.11559279 0.05198568 0.13497525 0.18006536 0.06312785 0.045202892 -0.084342726
0.0039905226 0.09585189 -0.05829363 0.11119162 -0.06689645 0.071909875 0.007064492 0.024277711
-0.025077658 -0.1284324 -0.01939748 -0.033609364 0.1283692 0.010468234 -0.10574491 0.035484627
0.0480952 -0.059368227 -0.017446117 0.086238965 -0.059259698 -0.05828513 -0.0010601452 -0.07620993
0.08068095 0.016458116 0.08595582 0.06125081 -0.0860754 -0.0696611 -0.07460181 -0.040614408
-0.0509732 -0.019187009 -0.12720317 0.058777653 0.07478709 0.063000046 0.13208517 0.15206943
-0.09468077 0.041786946 0.14650488 -0.09946535 -0.100567766 -0.021645607 -0.02238499 -0.0043760478
-0.006682666 0.1502294 0.030995041 0.06813982 0.1258136 0.12976533 -0.06999135 0.0595119
0.09765901 -0.06662051 -0.01515775 0.09156708 -0.05780751 -0.16640641 -0.09352805 0.024763176
-0.078571245 -0.1434004 0.035119295 0.12264636 0.110045515 -0.055324037 0.16108847 0.032249752
-0.10454632 -0.01319386 0.11078544 0.096547835 -0.012987811 0.10842644 -0.097681805 0.054816518
0.09783722 -0.107418336 0.036308326 0.0017385681 -0.0841217 -0.01813611 -0.052897703 -0.11827993
-0.12161315 -0.021519657 0.11091345 0.039334483 -0.1140979 0.08533116 0.044571392 -0.091345996
0.044504844 0.061081097 -0.073984474 0.005101091 -0.05535277 -0.11234926 -0.06482064 0.061593305
0.073216945 0.06466326 -0.073350474 -0.030137135 -0.06736322 0.025452266 0.08680413 0.0506673
-0.093101166 -0.012263748 0.06724169 -0.026591541 -0.14697658 -0.07690706 -0.076750726 0.07606961
0.08886806 0.09130981 0.020849643 -0.07675327 0.04240008 0.047054533 0.0014960738 -0.06624705
0.060812935 -0.07874492 0.045730427 0.11274205 -0.09724211 -0.105430804 -0.06895164 -0.13557057
-0.0031466528 0.110386714 0.07404708 -0.06289015 -0.016535025 -0.08292747 -0.12077368 -0.046010472
-0.0033930587 -0.049395885 -0.093487516 0.023753969 0.061644673 -0.02338802 0.08063904 0.11361786
-0.030131893 -0.06711158 0.18231145 0.14421453 0.08015919 -0.062407 -0.01442531 0.10917784
0.07244665 -0.018375961 -0.02759046 0.06294809 0.010014821 -0.01663788 -0.07165254 -0.04192422
-0.053610053 -0.022196205 -0.06307883 -0.034293007 -0.07799084 0.058505937 -0.08163628 -0.0773542
0.14032644 0.1022301 0.057375256 0.08013056 -0.0051834635 -0.05783662 -0.07474825 0.016110877
0.05654821 -0.11887633 -0.10280398 0.09215262 0.01620194 0.08097766 0.13051866 0.10238667
-0.013457874 -0.045363743 0.037512522 0.10727116 -0.114961125 0.037696812 -0.12892182 -0.06831392
0.030218665 0.09167983 0.04277862 -0.0043323915 -0.047755733 0.01674892 -0.09546381 -0.041419134
0.031389173 -0.037891045 -0.014537424 0.02720386 0.068697944 -0.01004757 -0.022765098 -0.085092306
0.16059661 -0.10090988 0.058043774 -0.013268419 0.121110365 -0.053930737 -0.06256597 0.015380928
0.00086234836 -0.040397175 0.13072152 -0.100204535 0.04896346 0.08100743 -0.009396234 0.046726786
-0.025522327 -0.08811031 0.09578437 -0.032850407 -0.008750085 0.1379298 0.1456167 -0.079598814
-0.03166232 0.072794355 0.08614402 -0.118825644 -0.08581574 0.06273549 -0.09235948 0.09436398
00000000: 63a5 ed3c eabb ecbd f0ee 543d f436 0a3e
00000010: 0e63 383e 2d49 813d ab26 393d e1bb acbd
00000020: eec2 823b ff4d c43d 4dc5 6ebd 6fb8 e33d
00000030: 0201 89bd 7c45 933d 417d e73b 0de2 c63c
00000040: a96f cdbc c883 03be 77e7 9ebc f9a9 09bd
00000050: 3773 033e f582 2b3c ca90 d8bd 5458 113d
00000060: 79ff 443d 192c 73bd 29eb 8ebc 0e9e b03d
00000070: 4cba 72bd 63bc 6ebd 92f4 8aba f413 9cbd
00000080: 0e3c a53d 2cd3 863c 9b09 b03d 21e2 7a3d
00000090: 4d48 b0bd 7baa 8ebd d5c8 98bd 4b5b 26bd
000000a0: 46c9 50bd 132e 9dbc 8c41 02be d6c0 703d
000000b0: f929 993d 2b06 813d 5641 073e 17b8 1b3e
000000c0: fee7 c1bd ca28 2b3d 6005 163e 7db4 cbbd
000000d0: 79f6 cdbd 2152 b1bc ba60 b7bc f364 8fbb
000000e0: 44fa dabb bcd5 193e 50e9 fd3c e48c 8b3d
000000f0: 48d5 003e 34e1 043e a057 8fbd c0c2 733d
00000100: 7201 c83d 5570 88bd 3658 78bc 8587 bb3d
00000110: 91c7 6cbd 7166 2abe a28b bfbd 25dc ca3c
00000120: f6e9 a0bd 8ed7 12be 40d9 0f3d 042e fb3d
00000130: 8b5f e13d 759b 62bd 60f4 243e 5118 043d
00000140: 621c d6bd 0f2b 58bc 7ae3 e23d dfba c53d
00000150: d4ca 54bc ae0e de3d 660d c8bd 4987 603d
00000160: e15e c83d 25fe dbbd 0ab8 143d aae0 e33a
00000170: ff47 acbd 2e92 94bc 43ab 58bd bf3c f2bd
00000180: 5110 f9bd fe49 b0bc 9726 e33d 321d 213d
00000190: 29ac e9bd 1ac2 ae3d 7e90 363d 9c13 bbbd
000001a0: b64a 363d 2c30 7a3d 2c85 97bd 0e27 a73b
000001b0: 96b9 62bd 5e17 e6bd afc0 84bd 4349 7c3d
000001c0: c4f2 953d 2c6e 843d c638 96bd 27e2 f6bc
000001d0: baf5 89bd 4581 d03c 5dc6 b13d 8488 4f3d
000001e0: d3ab bebd e3ed 48bc 03b6 893d 81d6 d9bc
000001f0: 0781 16be 7381 9dbd 7c2f 9dbd 62ca 9b3d
00000200: 7500 b63d a300 bb3d dfcc aa3c d230 9dbd
00000210: b5ab 2d3d 41bc 403d e817 c43a 89ac 87bd
00000220: fc16 793d 0445 a1bd d44f 3b3d 4ee5 e63d
00000230: df26 c7bd 1bec d7bd 8436 8dbd 03d3 0abe
00000240: 1338 4ebb 6e12 e23d ffa5 973d 8dcc 80bd
00000250: 7674 87bc e1d5 a9bd 3158 f7bd 7a75 3cbd
00000260: 145e 5ebb 5753 4abd 6276 bfbd af97 c23c
00000270: 207f 7c3d 3c98 bfbc 1526 a53d 7bb0 e83d
00000280: 29d7 f6bc cc71 89bd daaf 3a3e f9ac 133e
00000290: 802a a43d 7c9e 7fbd 2358 6cbc a298 df3d
000002a0: e95e 943d 2f89 96bc 6305 e2bc eeea 803d
000002b0: 3415 243c 2a4c 88bc 91be 92bd bbb8 2bbd
000002c0: 3796 5bbd d1d4 b5bc 792f 81bd d376 0cbd
000002d0: a9b9 9fbd eca3 6f3d ec30 a7bd e16b 9ebd
000002e0: bcb1 0f3e 045e d13d 5102 6b3d 7e1b a43d
000002f0: 0bda a9bb 17e6 6cbd 9c15 99bd f5fa 833c
00000300: 199f 673d 6f75 f3bd e58a d2bd 83ba bc3d
00000310: eeb9 843c 9ed7 a53d afa6 053e 1ab0 d13d
00000320: 6a7e 5cbc 55cf 39bd bba6 193d fbb0 db3d
00000330: bd70 ebbd f967 1a3d 1504 04be 2be8 8bbd
00000340: 228d f73c a2c2 bb3d a238 2f3d bcf6 8dbb
00000350: 849b 43bd 0835 893c 8882 c3bd 1ca7 29bd
00000360: ef91 003d a433 1bbd 602e 6ebc a1da de3c
00000370: 82b1 8c3d 909e 24bc df7d babc e044 aebd
00000380: 7073 243e d7a9 cebd 4fbf 6d3d c863 59bc
00000390: b608 f83d 7ae6 5cbd 9622 80bd 4a00 7c3c
000003a0: 380f 623a 8277 25bd dddb 053e 0938 cdbd
000003b0: e98d 483d 39e7 a53d a9f2 19bc 9664 3f3d
000003c0: 3314 d1bc 2e73 b4bd 992a c43d 268e 06bd
000003d0: 845c 0fbc 783d 0d3e 8b1c 153e b404 a3bd
000003e0: 59b0 01bd 3515 953d 476c b03d dc5a f3bd
000003f0: 2ac0 afbd 777b 803d f826 bdbd e741 c13d

bias f4 [16]
-0.047728624 0.07484117 -0.10955739 0.007812994 0.096312135 0.03734145 0.06689504 -0.062000893
0.008491957 -0.090702385 0.044497285 -0.0015034042 0.087619096 -0.03510496 -0.07497103 0.11240459
00000000: 177f 43bd 5446 993d a05f e0bd 1202 003c
00000010: 4c3f c53d 59f3 183d 4400 893d a6f4 7dbd
00000020: d921 0b3c 2cc2 b9bd c942 363d e00d c5ba
00000030: a471 b33d 38ca 0fbd 698a 99bd 6134 e63d

weight f4 [16]
1.1609734 1.1626891 1.1826279 1.2220633 1.0965362 1.2057117 1.1381816 1.2032415
1.112377 1.1700505 1.2032113 1.18154 1.1304055 1.1748524 1.1717329 1.1911187
00000000: c79a 943f ffd2 943f 5a60 973f 926c 9c3f
00000010: 4c5b 8c3f c354 9a3f efaf 913f d103 9a3f
00000020: 5f62 8e3f 37c4 953f d402 9a3f b43c 973f
00000030: 21b1 903f 9061 963f 58fb 953f 9476 983f

bias f4 [16]
0.066085905 0.0626906 0.089418374 0.07729542 0.04004104 0.074023075 0.04365991 0.06357522
0.077119805 0.058981616 0.077195235 0.049648337 0.07199253 0.061501876 0.06996511 0.066502966
00000000: 0c58 873d ee63 803d fb20 b73d 104d 9e3d
00000010: 1302 243d 6999 973d bcd4 323d ba33 823d
00000020: fdf0 9d3d b596 713d 8918 9e3d 0e5c 4b3d
00000030: d270 933d 64e9 7b3d de49 8f3d b532 883d

running_mean f4 [16]
0.0 0.0 0.0 0.0 0.0 0.0 0.0 0.0
0.0 0.0 0.0 0.0 0.0 0.0 0.0 0.0
00000000: 0000 0000 0000 0000 0000 0000 0000 0000
00000010: 0000 0000 0000 0000 0000 0000 0000 0000
00000020: 0000 0000 0000 0000 0000 0000 0000 0000
00000030: 0000 0000 0000 0000 0000 0000 0000 0000

running_var f4 [16]
1.0 1.0 1.0 1.0 1.0 1.0 1.0 1.0
1.0 1.0 1.0 1.0 1.0 1.0 1.0 1.0
00000000: 0000 803f 0000 803f 0000 803f 0000 803f
00000010: 0000 803f 0000 803f 0000 803f 0000 803f
00000020: 0000 803f 0000 803f 0000 803f 0000 803f
00000030: 0000 803f 0000 803f 0000 803f 0000 803f

weight f4 [32, 784]
0.028196974 0.00572519 -0.036205743 -0.03519616 -0.023173448 -0.04273027 -0.0018995962 0.024354648
0.02970945 -0.008167781 -0.018144831 -0.02234765 0.0007815136 0.032189496 -0.0065209665 0.01671355
-0.0052754246 -0.036506325 -0.00678702 -0.024802119 -0.028553754 0.035585668 -0.028117364 -0.031678688
-0.009033632 0.0039467467 0.004315714 -0.01581315 -0.016160486 0.004857451 0.04799847 -0.025284365
0.05763666 0.010500667 0.009355472 -0.022632323 0.0027267449 0.019939406 0.021934664 -0.0023431352
0.009098885 0.0025149812 0.021351982 -0.019167045 -0.008795781 -0.0076608486 -0.061414406 0.004327108
-0.008906201 0.028723188 -0.027480578 -0.0028744375 -0.040697455 -0.043682255 0.018105196 -0.04301188
0.0077932365 0.010842176 0.00022918852 -0.025892796 -0.025498437 -0.050143618 -0.016988235 -0.008557779
0.02201447 -0.041351676 0.016266227 -0.030376552 -0.020169472 0.024621764 0.0012426488 -0.025812652
-0.020048743 -0.00389183 -0.017173814 0.0006300762 -0.013138198 -0.006068984 0.015830416 0.049727812
0.042765338 -0.01622125 -0.04983714 -0.024703344 -0.0047937767 -0.0070262738 0.020583343 0.013771718
0.0235232 0.014694586 0.019653095 0.032267254 -0.004971475 0.028938781 -0.031489506 -0.022271648
-0.010483506 -0.026247717 -0.003244422 -0.002008283 -0.03620322 -0.03170118 -0.00011622325 0.0012285522
-0.04482251 -0.001414219 -0.0041514854 0.025643174 0.04281942 -0.013562912 -0.011713165 -0.004442093
-0.037206102 -0.008878384 0.023038259 0.039417557 0.000292752 -0.013174795 0.0050634528 0.0094922045
-0.0024066386 0.013961448 0.030514853 0.008560983 0.00016202354 -0.02558882 0.00581866 -0.003247327
0.018014327 0.005890993 0.019542705 0.02971256 -0.021051018 0.0007087638 -0.034797672 -0.039891515
-0.028418979 -0.01955405 -0.024282303 0.0028215917 0.014981588 0.00030079397 0.015206563 0.00910445
-0.0022359753 0.0157545 -0.01865068 0.025295582 0.0150319515 -0.034584053 0.024206005 -0.03144005
0.016634224 0.029361287 0.013918213 -0.031740293 0.0076163257 0.006605572 0.010081398 -0.004473098
-0.031256124 -0.017470742 -0.015422098 0.006600576 0.043688353 -0.033358354 -0.023543315 0.0036499184
-0.03240902 0.0124992 -0.023401193 -0.043796297 -0.0701088 0.020026863 0.020307295 0.014941249
0.0179492 0.058333393 -0.044763878 -0.01958761 0.0001250309 0.041088533 -0.02989924 -0.035597693
0.08511411 0.03932544 -0.017050916 -0.033495188 -0.004344866 0.010487121 0.011679899 -0.06334273
-0.014556233 0.015128551 0.032716382 0.0014247652 -0.0061769485 -0.012709569 0.031498406 -0.025290819
-0.032094315 0.029454464 0.0001005517 -0.018337611 -0.04169106 -0.012557175 0.0009864785 0.0005333729
-0.0005380414 0.030967217 0.035580028 0.00808129 0.0025249827 -0.057309195 -0.004370364 -0.0068255505
0.020605871 0.019867096 0.0010266296 0.034334887 -0.021297319 -0.0057204473 0.021395702 0.019883174
-0.020274295 -0.018630892 -0.00082906376 -0.015208347 -0.018044025 0.013786117 -0.009442013 0.027217003
0.011886504 0.026626885 -0.03319403 0.006334781 0.025329914 -0.0216433 -0.010112362 0.023161294
0.020784544 -0.047659613 0.0043245987 0.023955736 0.029003337 0.005405065 0.028645553 -0.032694038
-0.035176005 0.0020427876 -0.007982636 0.015337502 0.007852345 -0.0046629035 -0.029245857 -0.021992696
00000000: 57fd e63c 609a bb3b 794c 14bd d929 10bd
00000010: 3ed6 bdbc f005 2fbd dffb f8ba 6683 c73c
00000020: 3c61 f33c 28d2 05bc 78a4 94bc 6b12 b7bc
00000030: 7dde 4c3a 22d9 033d d5ad d5bb dbea 883c
00000040: 78dd acbb a887 15bd a665 debb d02d cbbc
00000050: 90e9 e9bc 47c2 113d 6356 e6bc 83c1 01bd
00000060: cd01 14bc b653 813b d56a 8d3b 948a 81bc
00000070: ff62 84bc 412b 9f3b 0b9a 443d 2821 cfbc
00000080: 6b14 6c3d fd0a 2c3c b247 193c 6c67 b9bc
00000090: 30b3 323b f757 a33c 53b0 b33c 498f 19bb
000000a0: 7d13 153c 62d2 243b 5aea ae3c 3504 9dbc
000000b0: 2e1c 10bc db07 fbbb ac8d 7bbd 6aca 8d3b
000000c0: 51eb 11bc e44c eb3c f31e e1bc 0f61 3cbb
000000d0: 60b2 26bd 2aec 32bd 5951 943c 3a2d 30bd
000000e0: 685e ff3b 62a3 313c 5352 7039 211d d4bc
000000f0: 19e2 d0bc 6563 4dbd e92a 8bbc ed35 0cbc
00000100: b157 b43c 6060 29bd c040 853c 3fd8 f8bc
00000110: 733a a5bc 95b3 c93c 60e0 a23a 0e75 d3bc
00000120: 433d a4bc 130e 7fbb 19b0 8cbc b32b 253a
00000130: 9941 57bc 54de c6bb caae 813c 64af 4b3d
00000140: b52a 2f3d 6de2 84bc 0722 4cbd ab5e cabc
00000150: 1d15 9dbb a83c e6bb 669e a83c c6a2 613c
00000160: bab3 c03c 90c1 703c 87ff a03c ab2a 043d
00000170: c1e7 a2bb 0611 ed3c 24fb 00bd 0873 b6bc
00000180: 03c3 2bbc 7405 d7bc 5ea0 54bb 669d 03bb
00000190: d449 14bd 19d9 01bd e2bc f3b8 5f07 a13a
000001a0: cf97 37bd 515d b9ba 2f09 88bb a211 d23c
000001b0: 6b63 2f3d fa36 5ebc 93e8 3fbc fa8e 91bb
000001c0: 6d65 18bd a476 11bc bbba bc3c 4e74 213d
000001d0: 827c 9939 18db 57bc 52eb a53b 3185 1b3c
000001e0: b2b8 1dbb 8fbe 643c 49fa f93c 5e43 0c3c
000001f0: dde4 2939 a59f d1bc 75aa be3b 1bd1 54bb
00000200: c892 933c 3b09 c13b 0618 a03c c167 f33c
00000210: 2f73 acbc 55cc 393a 0188 0ebd 4965 23bd
00000220: ebce e8bc d12f a0bc aeeb c6bc 74ea 383b
00000230: 5675 753c e2b3 9d39 f324 793c d52a 153c
00000240: 7189 12bb 950f 813c 50c9 98bc ae38 cf3c
00000250: 9348 763c 02a8 0dbd ac4b c63c 48c7 00bd
00000260: 7f44 883c 1587 f03c 3709 643c 1c02 02bd
00000270: 5f92 f93b 8e73 d83b 732c 253c 1193 92bb
00000280: 6c06 00bd cd1e 8fbc f8ac 7cbc a549 d83b
00000290: 8ff2 323d c5a2 08bd e9dd c0bc 7833 6f3b
000002a0: 52bf 04bd 72c9 4c3c dcb3 bfbc bf63 33bd
000002b0: 3495 8fbd 600f a43c 7c5b a63c 24cc 743c
000002c0: 330a 933c ffee 6e3d 545a 37bd 3276 a0bc
000002d0: ba1a 0339 734c 283d 40ef f4bc e3ce 11bd
000002e0: 4e50 ae3d b613 213d 5dae 8bbc 4032 09bd
000002f0: 615f 8ebb 2cd2 2b3c 0c5d 3f3c d5b9 81bd
00000300: 447d 6ebc bedd 773c 9d01 063d 30bf ba3a
00000310: 0068 cabb cc3b 50bc 7904 013d b12e cfbc
00000320: 5475 03bd 7d4a f13c 48df d238 c238 96bc
00000330: 3fc4 2abd 9cbc 4dbc ba4c 813a 0dd2 0b3a
00000340: 590b 0dba f6ae fd3c 5dbc 113d 6367 043c
00000350: 2e7a 253b 0cbd 6abd 4535 8fbb dea8 dfbb
00000360: a5cd a83c 52c0 a23c f98f 863a bda2 0c3d
00000370: b777 aebc 9772 bbbb 0a46 af3c 0ae2 a23c
00000380: 4716 a6bc d09f 98bc 8755 59ba 6e2c 79bc
00000390: 10d1 93bc 2adf 613c acb2 1abc 31f6 de3c
000003a0: 9cbf 423c a020 da3c 77f6 07bd ff93 cf3b
000003b0: ae80 cf3c 4a4d b1bc 52ae 25bc c1bc bd3c
000003c0: 5944 aa3c ba36 43bd 5db5 8d3b d23e c43c
000003d0: 6898 ed3c f91c b13b 14aa ea3c 2fea 05bd
000003e0: b714 10bd 4ae0 053b 9ac9 02bc 254a 7b3c
000003f0: 1fa7 003c 45cb 98bb 0295 efbc 072a b4bc

bias f4 [32]
0.02022536 0.0057596387 0.010777345 -0.022567077 -0.0057879062 -0.010385177 -0.012826738 -0.022640498
-0.014195834 -0.040153943 0.0020022672 0.031287957 0.01386845 -0.023352647 -0.023690578 0.0064899917
-0.016320415 -0.00232986 -0.018394433 -0.023360094 0.005655807 -0.009867887 0.0033483857 -0.01281505
0.009016043 0.009944283 -0.008861858 -0.029687883 0.0066831065 0.020926535 -0.007104439 0.018591246
00000000: a7af a53c 5abb bc3b 7693 303c 97de b8bc
00000010: 7aa8 bdbb 9726 2abc 3d27 52bc 9178 b9bc
00000020: a595 68bc 7678 24bd 7838 033b cd27 003d
00000030: 7f38 633c 0d4e bfbc be12 c2bc ffa9 d43b
00000040: 64b2 85bc 91b0 18bb ecaf 96bc ab5d bfbc
00000050: 5954 b93b ebac 21bc 9770 5b3b 37f6 51bc
00000060: 06b8 133c 59ed 223c 5431 11bc 0134 f3bc
00000070: f6fd da3b 206e ab3c 5bcc e8bb ab4c 983c

weight f4 [10, 32]
0.11479048 -0.15616596 -0.11256174 0.14057782 0.16748905 0.12019357 -0.010004124 -0.08681251
-0.14210889 0.08592231 0.047570586 -0.039713144 -0.09374456 -0.08307647 -0.15430011 -0.1340998
0.15274802 0.1507478 0.0252282 0.16901048 -0.21795446 0.15956028 0.08457329 -0.17229089
-0.12044788 0.16195531 0.10028053 0.08720444 -0.13368034 0.033579677 0.16230762 -0.07408077
-0.23133805 -0.19408564 -0.2645962 -0.21300556 -0.05199513 0.075902924 -0.19874448 0.10375221
0.21265236 0.28890097 -0.28499508 -0.20833993 0.10677412 0.300882 0.0537863 -0.13802384
0.04894456 0.058765113 0.25553587 -0.18529907 -0.044901993 0.23709993 0.06346885 0.06830849
-0.034914438 0.13660926 0.0060687843 0.08664185 0.36508656 -0.13814333 -0.13868907 -0.010371238
0.08727935 -0.32137525 0.12081018 -0.35088208 0.20863771 0.3675229 -0.2245181 -0.0150681045
-0.070734166 -0.330494 0.12710409 0.28446808 -0.039676365 -0.23397385 0.015230605 -0.28262153
-0.21423148 -0.2212747 0.37824368 -0.13924311 -0.12938964 0.28620404 -0.18175004 -0.01683628
0.13465868 -0.044649433 -0.07718842 0.34542462 -0.10506858 -0.10387044 0.011184325 0.0071340827
-0.15772966 -0.09579699 -0.00246641 -0.0701871 0.018232716 0.08389764 -0.16542797 -0.06691941
0.11989745 -0.23554225 0.00020822213 0.02006191 -0.23645927 -0.17569618 -0.18623053 -0.16359673
0.122460045 0.18962364 -0.013797941 0.11586599 -0.0045706625 -0.12434721 0.119786814 -0.0021972721
0.03922372 -0.19404711 0.093652196 0.15787093 0.27054295 -0.24171944 0.1434179 0.16769475
0.22301751 -0.09914763 0.19026732 0.12656258 -0.24549644 0.15945649 0.26022455 -0.12269836
-0.046341583 0.0882815 0.1439534 -0.19573528 -0.15041837 0.010471833 -0.16533357 0.109945
0.04994865 0.0704734 -0.09238366 0.08065765 0.01859289 0.047763202 0.1805197 0.19193718
0.22616583 -0.042241994 0.21428442 -0.1004912 0.13779593 -0.046912014 0.110686734 -0.12973875
-0.2190176 -0.12903842 0.030664947 -0.09462659 0.25485724 -0.22551288 0.01848325 0.12932092
-0.16038328 -0.16065796 -0.19135073 -0.20634492 -0.20246533 -0.09449826 0.06853521 0.05135443
0.22803007 -0.16471893 -0.26469144 -0.117344 -0.044524584 -0.41504174 -0.300804 -0.124116324
-0.28274247 0.09571263 -0.012470721 -0.12830617 -0.20206517 0.010007122 -0.031157933 0.060359523
0.19340096 0.040267926 0.084544234 -0.10641946 0.13798124 0.111706585 -0.17937101 0.053856563
-0.11545465 -0.21971934 -0.19899835 0.18469428 0.1830449 0.089916356 0.11938796 0.16860367
-0.060307957 -0.07914179 -0.19673675 0.056533888 -0.1993905 0.10275616 0.24407738 -0.15174106
-0.17025217 -0.21107617 0.2781701 -0.25324482 -0.057408318 0.09874597 -0.015537754 0.19000314
-0.12796943 0.2640004 -0.153039 0.13992262 -0.012394248 0.23682687 -0.054174434 0.08101817
-0.12611909 0.031353272 0.17367414 0.21913488 0.0052767578 -0.11803283 -0.028835882 -0.1590713
0.14828727 -0.12758045 -0.0022214411 0.14840528 0.016216822 -0.15704237 0.1800739 0.03902805
0.34164837 0.09336309 0.059686303 0.18313006 -0.11169762 -0.14770548 0.26912317 -0.05873164
00000000: 4517 eb3d f8e9 1fbe c586 e6bd a2f3 0f3e
00000010: 4082 2b3e 0c28 f63d 56e8 23bc c2ca b1bd
00000020: fe84 11be 09f8 af3d 60d9 423d 40aa 22bd
00000030: 26fd bfbd ff23 aabd d900 1ebe 7551 09be
00000040: fa69 1c3e a25d 1a3e 5fab ce3c 1511 2d3e
00000050: 742f 5fbe c563 233e c334 ad3d 066d 30be
00000060: 61ad f6bd 9dd7 253e e15f cd3d 3e98 b23d
00000070: 80e3 08be d88a 093d f833 263e a9b7 97bd
00000080: e2e3 6cbe 63be 46be 2779 87be 211e 5abe
00000090: d8f8 54bd fe72 9b3d ac83 4bbe 0a7c d43d
000000a0: 8ac1 593e d4ea 933e e0ea 91be 1057 55be
000000b0: 64ac da3d 350d 9a3e 064f 5c3d 1f56 0dbe
000000c0: 177a 483d b0b3 703d 99d5 823e 0abf 3dbe
000000d0: 27eb 37bd 53ca 723e f5fb 813d 52e5 8b3d
000000e0: 7102 0fbd 4ce3 0b3e a7dc c63b 4871 b13d
000000f0: a0ec ba3e 7275 0dbe 8204 0ebe 20ec 29bc
00000100: 84bf b23d 4c8b a4be 546b f73d d1a6 b3be
00000110: 20a5 553e f62b bc3e 13e8 65be 36e0 76bc
00000120: 13dd 90bd 8236 a9be 9327 023e cda5 913e
00000130: af83 22bd d796 6fbe ca89 793c c5b3 90be
00000140: 7f5f 5bbe d695 62be 28a9 c13e bf95 0ebe
00000150: b87e 04be 5689 923e af1c 3abe 3dec 89bc
00000160: f7e3 093e 53e2 36bd f614 9ebd 7fdb b03e
00000170: 322e d7bd 06ba d4bd 763e 373c 06c5 e93b
00000180: e283 21be 3631 c4bd 7ea3 21bb 41be 8fbd
00000190: c75c 953c 87d2 ab3d f365 29be 0b0d 89bd
000001a0: cb8c f53d fd31 71be 3456 5a39 e058 a43c
000001b0: 6122 72be b3e9 33be 37b3 3ebe e785 27be
000001c0: 55cc fa3d b32c 423e c210 62bc 264b ed3d
000001d0: 7fc5 95bb c0a9 febd ca52 f53d 1c00 10bb
000001e0: 0da9 203d 49b4 46be b9cc bf3d eba8 213e
000001f0: 9b84 8a3e 4d85 77be 24dc 123e 2cb8 2b3e
00000200: b45e 643e ea0d cbbd 70d5 423e 9f99 013e
00000210: 6b63 7bbe 9048 233e 273c 853e 4749 fbbd
00000220: acd0 3dbd eecc b43d 8568 133e d46e 48be
00000230: 4607 1abe 0d92 2b3c 344d 29be d82a e13d
00000240: f596 4c3d 5c54 903d a533 bdbd d72f a53d
00000250: 1e50 983c 59a3 433d 28da 383e 2e8b 443e
00000260: 0498 673e f105 2dbd 606d 5b3e 55ce cdbd
00000270: 601a 0d3e d026 40bd baaf e23d 3cda 04be
00000280: 2646 60be a622 04be 0e35 fb3c 96cb c1bd
00000290: a67c 823e d9ec 66be 2f6a 973c b46c 043e
000002a0: 843b 24be 8583 24be 72f1 43be 154c 53be
000002b0: 1253 4fbe 4e88 c1bd 305c 8c3d 0659 523d
000002c0: b780 693e 14ac 28be a385 87be 0d52 f0bd
000002d0: 695f 36bd 5a80 d4be fb02 9abe b330 febd
000002e0: 9fc3 90be fc04 c43d ff51 4cbc b162 03be
000002f0: 2cea 4ebe e9f4 233c ec3e ffbc 8c3b 773d
00000300: e70a 463e fbef 243d 8725 ad3d 72f2 d9bd
00000310: f44a 0d3e 6cc6 e43d 09ad 37be b398 5c3d
00000320: 7d73 ecbd 1bfe 60be 39c6 4bbe 7f20 3d3e
00000330: 1f70 3b3e 1126 b83d ad81 f43d 71a6 2c3e
00000340: 7a05 77bd 1715 a2bd 5c75 49be 1490 673d
00000350: 062d 4cbe d271 d23d 6cef 793e 0262 1bbe
00000360: 9656 2ebe 5a24 58be 506c 8e3e 4ea9 81be
00000370: fc24 6bbd 543b ca3d 1092 7ebc 2f90 423e
00000380: 6b0a 03be 0f2b 873e 41b6 1cbe e047 0f3e
00000390: 3e11 4bbc be82 723e 03e6 5dbd dbec a53d
000003a0: 5d25 01be 4a6c 003d a2d7 313e e564 603e
000003b0: a7e8 ac3b 32bb f1bd 3a39 ecbc 96e3 22be
000003c0: 9ed8 173e 73a4 02be 9995 11bb 8ef7 173e
000003d0: 24d9 843c b7cf 20be 4b65 383e e0db 1f3d
000003e0: 89ec ae3e 2635 bf3d a079 743d 7286 3b3e
000003f0: b9c1 e4bd 1b40 17be 83ca 893e 9790 70bd

bias f4 [10]
-0.15107998 -0.18044242 0.14834403 0.10859901 0.049460605 -0.054796156 -0.0643485 0.15882982
-0.10331737 0.099915
00000000: b6b4 1abe e6c5 38be 7fe7 173e 2869 de3d
00000010: 3497 4a3d ef71 60bd 25c9 83bd 49a4 223e
00000020: 0f98 d3bd 3ca0 cc3d
