models/Mnist-alpha1-ratio0.5/server.pt (torch, 114031 bytes, 16 tensors)

weight f4 [6, 1, 3, 3]
000000 b2 47 ef 3b 09 64 c8 3d 20 d4 1a 3e f2 06 2b bd
       0.007302248 0.09784705 0.15119982 -0.04175467
000010 74 be cc 3d 08 df 9e 3d dc 08 0b be bb 88 7e be
       0.099972636 0.077573836 -0.13577598 -0.24856846
000020 bf 1c 89 bd 0a cf 68 be a3 dd bf 3d 0b 2f da 3d
       -0.06694936 -0.22735229 0.09368446 0.10653504
000030 17 68 72 bd 52 bc 8e 3e be 78 e7 bb 55 62 f7 3d
       -0.0591813 0.27878052 -0.007063954 0.12079302
000040 95 24 f6 3d 7a 7c 84 be 3a 14 99 bd f6 23 50 3e
       0.12018696 -0.25876218 -0.07474561 0.20326218
000050 6b b1 b6 be e4 55 77 3d a7 8c 59 3d 4a ac 7d 3e
       -0.35682234 0.060384646 0.053112652 0.24772754
000060 fc 05 0f 3d 82 5d 4d 3e 32 0b c3 3d 8c 7d 38 be
       0.034917817 0.20055202 0.0952362 -0.18016642
000070 0d e3 3a be e8 dd 1e be 7c a7 85 be f7 42 63 be
       -0.18250675 -0.15514338 -0.26104343 -0.22193514
000080 40 07 5f 3d 05 1b 58 3e e5 f6 4e bd 79 28 72 be
       0.054450274 0.21104057 -0.050528426 -0.23648252
000090 aa 80 05 3e 12 5d bf bd b5 14 d9 bc f8 72 76 be
       0.13037363 -0.09343924 -0.026499132 -0.24067295
0000a0 fd 64 09 be 79 3d ad be bc 10 e7 3c 17 5f 99 3d
       -0.1341743 -0.33835962 0.028206222 0.0748884
0000b0 f2 24 03 3d 3e 7a 1f 3e 49 6a 05 3e 89 b1 f7 3c
       0.032017656 0.15573975 0.13028826 0.030236023
0000c0 29 4f 8c 3d ad d3 27 3d 82 d5 48 3e 0b d4 72 3e
       0.06851036 0.040973354 0.19612697 0.237137
0000d0 b0 50 55 3e 11 bd 4a 3e
       0.20831561 0.19798686

bias f4 [6]
000000 d7 70 a6 bd 38 20 73 bc a4 bb 8a bd 7a 90 46 3e
       -0.08126991 -0.0148392245 -0.06774071 0.19391051
000010 a3 a1 17 3d 59 f5 9d 3e
       0.037019383 0.30851248

weight f4 [6]
000000 a5 76 89 3f fa bf 73 3f 48 29 72 3f 2c b0 82 3f
       1.0739332 0.9521481 0.9459424 1.0210013
000010 d8 2c 7e 3f 05 6d 80 3f
       0.99287176 1.003327

bias f4 [6]
000000 7a 54 e9 bb f8 76 3b bd b3 1d 48 3d 5c 6d 89 3c
       -0.007120666 -0.045767754 0.04885645 0.01677578
000010 b0 64 74 3c a1 9e 9e 3d
       0.014916584 0.077451

running_mean f4 [6]
000000 00 00 00 00 00 00 00 00 00 00 00 00 00 00 00 00
       0.0 0.0 0.0 0.0
000010 00 00 00 00 00 00 00 00
       0.0 0.0

running_var f4 [6]
000000 00 00 80 3f 00 00 80 3f 00 00 80 3f 00 00 80 3f
       1.0 1.0 1.0 1.0
000010 00 00 80 3f 00 00 80 3f
       1.0 1.0

weight f4 [16, 6, 3, 3]
000000 08 70 af 3d 82 09 b4 bd 75 4c c5 3d 9d 8b 47 3e
       0.0856629 -0.08790876 0.09633724 0.19486852
000010 2a 25 48 3e d1 84 b9 3d 62 9c 6d 3d 7a 2e a0 bd
       0.19545427 0.09058536 0.058010466 -0.07821365
000020 36 a6 88 bc 48 6d 7a 3d 7a 9c 2b bd b2 68 6a 3d
       -0.016680818 0.061139375 -0.041897275 0.05722875
000030 b3 b4 39 bd 01 83 0e 3d 4e ba d2 bc fd 25 98 3b
       -0.045338344 0.034792904 -0.025723603 0.0046432004
000040 32 6c 88 bd 22 78 d6 bd ea dd 47 3c 38 1b c2 bc
       -0.066612616 -0.10472132 0.0121989045 -0.02369462
000050 c5 9d f1 3d 33 4d 1e 3d 7c 1a ba bd 37 61 3b 3d
       0.1179767 0.03864784 -0.09087083 0.04574701
000060 5c 1a 1a 3d 83 e1 a9 bd d0 f7 1c bb e9 0b a0 3d
       0.037622795 -0.08294966 -0.0023951419 0.07814772
000070 c4 ff 3b bd f3 7c 29 bd 84 6a 9d 3b d0 e2 88 bd
       -0.045898214 -0.041378926 0.0048039574 -0.06683886
000080 4e e0 cc 3d 15 df 02 3d 16 04 d0 3d 67 3d a3 3d
       0.1000372 0.03195103 0.10157029 0.07970696
000090 b5 94 a7 bd 42 a8 57 bd 5c ab 62 bd 43 91 0f bd
       -0.081826605 -0.052650698 -0.055339202 -0.03505064
0000a0 9b 13 1f bd a3 bb 23 bc ea 3e eb bd 58 7c 95 3d
       -0.038837057 -0.009993467 -0.11486609 0.07299107
0000b0 1a be a1 3d b4 0c ab 3d 93 91 0f 3e 74 a8 dd 3d
       0.07897587 0.08352032 0.14020376 0.108231455
0000c0 87 0d b9 bd fc d2 bb 3c 60 15 dd 3d 75 43 e8 bd
       -0.09035783 0.022927754 0.107950926 -0.113409914
0000d0 26 90 03 be 1c 5d 97 bc de bc 45 bd 7f 78 c6 bc
       -0.12847957 -0.018477015 -0.04827582 -0.024227379
0000e0 0e c7 bc bb 66 ee 39 3e 8e 5b 0e 3d 59 81 82 3d
       -0.005761034 0.18157348 0.034755282 0.06372327
0000f0 14 de 15 3e d5 3c db 3d 6c c7 ee bd 9d d7 53 3d
       0.14635497 0.10704962 -0.116591305 0.051719297
000100 62 80 5e 3d bf aa bb bd 6d 88 9c bd 03 c2 ba 3c
       0.054321654 -0.091634266 -0.07643209 0.02279759
000110 7a c9 bc bd 7a 64 ec bd 56 7c 4a bd 72 3a 08 3d
       -0.09218116 -0.11542602 -0.049434982 0.033258863
000120 98 f9 32 bd 11 2c 07 be 9a 27 1c 3d 38 17 bc 3d
       -0.043695062 -0.13200404 0.038123704 0.09184116
000130 2f 05 95 3d a8 67 9d bd b4 92 27 3e a2 1c 9c 3d
       0.07276379 -0.076857865 0.16364557 0.07622649
000140 92 8b 91 bd aa 1d 95 3b 23 4b 17 3e 6b 53 01 3e
       -0.07106699 0.0045506554 0.14774756 0.12629478
000150 af 72 92 3c 49 5b 05 3e 74 a7 82 bd 46 a1 3f 3d
       0.017876951 0.13023104 -0.063795954 0.04678466
000160 b4 61 c4 3d 52 e3 bc bd 27 49 72 3d 8b 0b f1 3c
       0.09588948 -0.092230454 0.059151795 0.02942445
000170 c7 12 90 bd 1f 56 3f bc f4 b9 6f bd ee 71 e1 bd
       -0.070348315 -0.011678248 -0.058526948 -0.110080585
000180 14 75 07 be 76 dd a6 bc c5 fd cd 3d b6 62 97 3d
       -0.13228256 -0.020369273 0.10058168 0.073918745
000190 5f e6 d7 bd ab 32 90 3d da 8a 50 3d 85 a1 ce bd
       -0.10541987 0.07040914 0.05091367 -0.10089401
0001a0 7c 2c 2a 3d 5e 28 c8 3d 62 bb 52 bc d5 eb 4d 3d
       0.04154633 0.097733244 -0.012862058 0.050273735
0001b0 d7 f9 52 bd 84 9d 0e be 19 04 c8 39 bd 19 02 3d
       -0.051507797 -0.13927275 0.00038150026 0.031762827
0001c0 c1 29 88 3d 7f 24 c8 3c 4e 8b 97 bd 09 10 2e bc
       0.06648589 0.024431465 -0.07399617 -0.01062394
0001d0 26 54 b8 bd a7 d7 98 bc 0a 4f 03 3e c1 43 d3 3d
       -0.09000425 -0.018657519 0.1282312 0.103156574
0001e0 84 e0 87 bb 8b ac 00 3d 7b f3 09 3e 7e b1 26 bc
       -0.0041466374 0.03141455 0.13471787 -0.010174153
0001f0 32 ba d9 bd 86 b7 b8 bd 3a 20 6f bd 49 0d 5e 3d
       -0.10631217 -0.09019379 -0.058380343 0.05421189
000200 48 d6 ea 3d e5 e5 63 3d 96 34 82 3d 04 bb df bd
       0.11466652 0.055639166 0.06357686 -0.10924342
000210 2d 49 05 3d d0 0a 05 3d b0 09 30 bd 57 d1 38 bd
       0.03254049 0.032481015 -0.04297799 -0.045121517
000220 a4 99 fa 3c 4f ef f3 bd 54 e9 64 3d 5c 5e ae 3d
       0.03059084 -0.11910879 0.05588658 0.08514091
000230 9d 60 ff bd f0 81 b9 bd 56 42 7a bd 48 43 fb bd
       -0.124695994 -0.09057987 -0.06109842 -0.12268692
000240 76 e4 16 bb 3b 7a ac 3d 1d 63 15 3d 34 9c 3c bd
       -0.0023024357 0.08421751 0.036471475 -0.046047404
000250 7f b9 0b bd 95 3f 8e bd 28 f4 e2 bd 50 3f 10 bd
       -0.03411245 -0.06945721 -0.11081725 -0.03521663
000260 f9 bb 79 3c 35 88 ae bd aa 53 b2 bd 70 2e 09 3d
       0.01524257 -0.08522073 -0.08707364 0.033491552
000270 cd 39 3b 3d cd ae 2a bc 0c f1 6c 3d 69 6e bf 3d
       0.04570942 -0.010417652 0.057847068 0.09347231
000280 ad e9 ff bb e8 65 d1 bd a9 22 0b 3e 41 c6 12 3e
       -0.0078098387 -0.10224515 0.1358744 0.1433344
000290 fe 09 58 3d 11 84 d8 3a e0 21 5d 3d 61 3e 24 3e
       0.052743904 0.0016518851 0.053987384 0.1603942
0002a0 06 e3 eb 3c b4 4b 03 3c f4 1a 99 3c 1d bb 4c 3d
       0.028794777 0.0080136545 0.01868961 0.049983133
0002b0 60 33 b0 3c e7 f9 31 bc e0 b1 ca bd 6c ee cb bd
       0.021508873 -0.010862804 -0.09897208 -0.09957585
0002c0 64 76 39 bd fe c1 f1 bc 59 ad a8 bd 92 6f 1c bb
       -0.04527892 -0.029511448 -0.082361884 -0.0023870212
0002d0 b7 f8 a8 3c b4 86 b3 3d 14 95 40 bd c2 24 03 be
       0.020626409 0.08765927 -0.047017172 -0.1280699
0002e0 78 49 f1 3d 16 27 c2 3d 57 11 c0 3d 2f 35 a1 3d
       0.11781591 0.09480111 0.09378307 0.07871472
0002f0 d2 e4 3a 3d a0 d9 33 bd 67 34 68 bd 51 3a be 3c
       0.045628376 -0.043908715 -0.0566906 0.023221167
000300 d6 cf ab 3d a9 be b8 bd a5 1c 95 bd 20 4c d1 3d
       0.08389251 -0.090207405 -0.07280854 0.10219598
000310 d6 5d e3 3c 9d 17 92 3d 34 4b 14 3e 3e 6b c9 3d
       0.027754705 0.0713341 0.14481813 0.09834908
000320 ba d4 34 3c 8d a9 38 bd 4d 3e 1e 3d d6 42 d5 3d
       0.011037046 -0.04508357 0.038633633 0.104131386
000330 8b 5d e0 bd 91 88 dd 3c c3 36 05 be f2 2b 0d bd
       -0.10955342 0.027042659 -0.13009171 -0.034465738
000340 66 98 8a 3d 15 3f b3 3d fd b6 94 3c 97 ca 11 bc
       0.06767349 0.08752266 0.018153662 -0.008898399
000350 4c 36 d4 bc 2f 35 b6 3c 00 ee ef bd d5 a6 a0 bc
       -0.025904797 0.022242157 -0.11715317 -0.019610802
000360 4f 05 ae 3c 34 dc 63 39 ae 4f ec 3c 27 78 21 3e
       0.021242766 0.00021730439 0.028846588 0.1576849
000370 bc 93 0b 3e fb a5 94 3d 60 1f 1c bd 1e e2 83 bd
       0.13630575 0.07258221 -0.03811586 -0.06439613
000380 0d 19 bb 3d 88 9d a2 bd f1 71 b5 3d 0f 15 8b 3b
       0.091356374 -0.07940203 0.08859623 0.0042444537
000390 28 3c 74 3d 58 50 0f bd a8 3b cd bd 08 a1 7b 3b
       0.059627682 -0.03498873 -0.10021144 0.0038395543
0003a0 1c 56 c7 3b 45 4b 96 bd f2 bf 06 3e dd c3 33 bd
       0.006083263 -0.07338575 0.13159159 -0.04388796
0003b0 55 2b e7 3d 94 8c 4e 3d 0b 8f 07 3d 30 74 44 3d
       0.11287562 0.050427034 0.0330954 0.047962368
0003c0 7b a8 e0 bb 9e 25 90 bd 90 37 55 3d 7b 6b ed bc
       -0.006856022 -0.07038425 0.05205494 -0.028981915
0003d0 ec a6 45 bc 86 2a 18 3e 21 06 05 3e 87 a5 be bd
       -0.012063723 0.14859971 0.12990619 -0.093089156
0003e0 bf 25 b9 bc cb d0 9c 3d 1d b6 b1 3d 71 43 ae bd
       -0.022601007 0.076570116 0.086773135 -0.08508957
0003f0 74 dd a0 bd 8f 9b 96 3d cf 04 ae bd 62 a7 b0 3d
       -0.07854739 0.07353889 -0.08497011 0.08625676

bias f4 [16]
000000 2a 7f 43 bd 4d 46 99 3d a4 5f e0 bd 17 02 00 3c
       -0.047728695 0.07484112 -0.10955742 0.007812998
000010 4c 3f c5 3d 54 f3 18 3d 46 00 89 3d a0 f4 7d bd
       0.096312135 0.03734143 0.06689505 -0.06200087
000020 e6 21 0b 3c 32 c2 b9 bd ca 42 36 3d dc 0d c5 ba
       0.008491969 -0.09070243 0.04449729 -0.0015034038
000030 9b 71 b3 3d 2f ca 0f bd 64 8a 99 bd 59 34 e6 3d
       0.08761903 -0.035104927 -0.07497099 0.11240453

weight f4 [16]
000000 f2 27 9b 3f 70 9a 90 3f 98 19 96 3f 69 1a 9f 3f
       1.2121565 1.129713 1.172656 1.2429935
000010 c6 f1 93 3f 81 98 9a 3f d8 4d 9c 3f 74 a3 a0 3f
       1.1558158 1.207779 1.2211256 1.2549882
000020 65 b3 92 3f 80 a9 9a 3f 92 00 9b 3f 7e e0 9c 3f
       1.1460997 1.2082977 1.2109549 1.225601
000030 d2 42 95 3f 23 2f 98 3f fc d5 91 3f a0 64 99 3f
       1.1661017 1.1889385 1.1393428 1.1983833

bias f4 [16]
000000 d0 9c a8 3d 80 6b 4d 3d 50 ef 81 3d c2 d9 d4 3d
       0.082330346 0.050151348 0.06344473 0.103930965
000010 27 01 3d 3d 02 73 a1 3d 98 c8 a9 3d 07 b7 a4 3d
       0.046143677 0.07883264 0.08290213 0.08042722
000020 ee 80 98 3d 20 fc bf 3d 1d 1a 9e 3d 8e c3 c8 3d
       0.074464664 0.09374261 0.077198245 0.09802924
000030 c2 ad 6f 3d 51 50 b0 3d 1f ef 95 3d d9 9b b2 3d
       0.058515318 0.08609069 0.07320999 0.08721132

running_mean f4 [16]
000000 00 00 00 00 00 00 00 00 00 00 00 00 00 00 00 00
       0.0 0.0 0.0 0.0
000010 00 00 00 00 00 00 00 00 00 00 00 00 00 00 00 00
       0.0 0.0 0.0 0.0
000020 00 00 00 00 00 00 00 00 00 00 00 00 00 00 00 00
       0.0 0.0 0.0 0.0
000030 00 00 00 00 00 00 00 00 00 00 00 00 00 00 00 00
       0.0 0.0 0.0 0.0

running_var f4 [16]
000000 00 00 80 3f 00 00 80 3f 00 00 80 3f 00 00 80 3f
       1.0 1.0 1.0 1.0
000010 00 00 80 3f 00 00 80 3f 00 00 80 3f 00 00 80 3f
       1.0 1.0 1.0 1.0
000020 00 00 80 3f 00 00 80 3f 00 00 80 3f 00 00 80 3f
       1.0 1.0 1.0 1.0
000030 00 00 80 3f 00 00 80 3f 00 00 80 3f 00 00 80 3f
       1.0 1.0 1.0 1.0

weight f4 [32, 784]
000000 b2 bc 0a 3d 27 a1 a8 3c aa 8c ac bc 37 ff 9e bc
       0.03387136 0.020584656 -0.021063168 -0.019408805
000010 7b 54 f2 bb ae e1 eb bc f0 41 4b 3c b6 8a bd 3c
       -0.0073953248 -0.028794136 0.012405857 0.023137432
000020 95 97 ef 3c d5 36 3c bc fc ca e3 bc ab e0 fc bc
       0.029247085 -0.011487682 -0.027806751 -0.030868849
000030 30 6d b7 39 bc ae 04 3d 1f 78 03 bc 09 42 92 3c
       0.0003498583 0.032393202 -0.008024245 0.017853754
000040 f4 75 24 bd 7d 95 ae bd 54 24 3e bd 58 02 e1 bc
       -0.04015155 -0.085246064 -0.046421364 -0.027466938
000050 8a b6 ef bc 2f 82 00 3d c5 ec f0 bc 9b 7a 47 bd
       -0.029261846 0.031374153 -0.029409776 -0.04870091
000060 30 a0 80 bd 9e 2f 70 bd 76 6b a5 bc b4 95 c3 bc
       -0.06280553 -0.05863916 -0.020192843 -0.023875095
000070 4f 4b 97 bc a9 17 cd 3b 14 09 8c 3c 91 7f 0b bd
       -0.018468527 0.006258924 0.017094173 -0.034057204
000080 8a 38 38 3d 67 fc 8e 3c a8 c1 50 3c 48 00 c5 bc
       0.044975795 0.01745434 0.012741484 -0.024047986
000090 78 23 34 3b bd f9 a3 3c 4b f7 22 3c 3f b7 44 3c
       0.0027486961 0.020016545 0.009946655 0.01200658
0000a0 83 03 a8 3c 71 de 8c 3b d9 b4 9e 3c c1 28 b5 bc
       0.020509487 0.004298978 0.019373344 -0.02211416
0000b0 16 a9 da 3c eb 95 93 3d 07 72 44 bc 4c f6 b2 3b
       0.026691955 0.07206329 -0.011990077 0.00546149
0000c0 e4 2c 33 bc 1e d2 ed 3c 33 8c c1 bc 44 d3 20 3a
       -0.010935996 0.029030856 -0.023626423 0.00061349967
0000d0 88 e6 19 bd 75 98 32 bd d2 1e ab 3c 37 55 23 bd
       -0.037573367 -0.043602426 0.02088872 -0.03987619
0000e0 1d 63 ff 3b 13 dc 29 3c 5d 4a 2b ba 05 b5 f2 bc
       0.0077937976 0.010367411 -0.00065342133 -0.029627332
0000f0 c5 a1 94 bc 85 21 b6 39 1d ab bd bc 1d a9 0d bc
       -0.018143544 0.0003473872 -0.023152882 -0.008646277
000100 62 9d 87 3c a3 24 c4 bc e8 d9 14 3c 7e a8 43 bd
       0.016554538 -0.023943251 0.009085156 -0.04776811
000110 73 60 09 bb e4 d2 b4 3c 3b 11 8e 3a c0 6e f6 bc
       -0.002096203 0.022073217 0.0010838875 -0.030082107
000120 7c 33 d3 bc a9 b2 ac 3c 04 5f d7 bb 35 dd f5 bc
       -0.025781386 0.021081286 -0.006572606 -0.030012706
000130 81 f0 81 bb 38 d3 c6 bb c4 06 16 3a 14 57 80 3c
       -0.003965438 -0.0060676597 0.0005723054 0.015666522
000140 0c f3 08 3d 81 01 cf bc cd e4 2c bd bb 4e 7e bc
       0.033434913 -0.025269272 -0.04221039 -0.0155217005
000150 27 82 98 bb 7b c7 fb 3a da 3e 09 3c 22 6e 46 3d
       -0.0046541872 0.001920923 0.008376801 0.048444875
000160 2d b0 7d 3c 06 7c b1 3c a3 89 5f 3c e4 de 03 3d
       0.015483898 0.021665584 0.013643655 0.032194987
000170 2e c2 9b bb 7e ce d3 3c 9b a8 52 bd 54 05 c9 3b
       -0.0047533726 0.0258553 -0.051430326 0.0061346684
000180 e3 ee b4 bc 4a 38 ee bc 7e 4a 3e bb 35 58 6e 3b
       -0.022086566 -0.029079575 -0.00290361 0.0036368493
000190 22 42 f8 bc 9d cf d5 bc 4f d4 cd 3b 8e 17 0e 3c
       -0.030304972 -0.026099974 0.0062814127 0.008672608
0001a0 45 32 1c bd 2f c5 47 3a b3 c9 6f bb d4 4f eb 3c
       -0.03813388 0.000762063 -0.0036588728 0.028724588
0001b0 34 4d 1d 3d e0 e5 1c 3b a5 3f e0 3b 58 6a 92 bb
       0.038403705 0.0023940727 0.0068435245 -0.0044682436
0001c0 8c 80 10 bd f6 6d 3e bc 35 61 20 3c 35 68 1d 3d
       -0.03527884 -0.011622896 0.009788801 0.038429458
0001d0 33 02 d4 bc 1b 5d 15 bc 2b e4 fb 3b ba 6d 22 3c
       -0.025879955 -0.009116436 0.007687112 0.009913856
0001e0 ee 7a 28 3a 58 5c b9 3c dd 26 28 3c b1 7a d9 3b
       0.00064270094 0.02262704 0.010263172 0.0066369404
0001f0 96 08 2f bb cf 38 94 bc 2a b8 ec 3b 50 27 f8 bb
       -0.0026707998 -0.018093495 0.0072241025 -0.007573046
000200 5d 37 48 3c c7 e4 c1 bb 27 4d 18 3d fd 3e 4e 3d
       0.012220231 -0.005917165 0.037182953 0.05035304
000210 94 e7 97 bc 13 70 01 3b f6 5e 35 bd 14 05 3f bd
       -0.018543042 0.001975064 -0.044280015 -0.046635702
000220 d3 9f 28 bd c8 a0 40 bd ce f4 1e bd dd cf 23 bb
       -0.041168045 -0.047028333 -0.038807683 -0.0024995722
000230 f9 3d 88 3c 6a 75 06 bc df f9 16 3b 20 5b 75 bc
       0.016631113 -0.008206705 0.0023037118 -0.014975339
000240 8b 19 a0 ba 50 26 0f 3c a2 1f 93 bc 3d 6a f4 3c
       -0.0012214644 0.008737162 -0.01795942 0.029835815
000250 85 6d 43 3c 0c 77 18 bd 3d 3a af 3c f6 07 11 bd
       0.011927967 -0.037222907 0.021390075 -0.035407983
000260 c7 0b 53 3c 9b a0 d7 3c 13 66 50 3c f2 37 03 bd
       0.012881226 0.0263217 0.012719649 -0.032035775
000270 85 d5 05 3c 71 7e 84 3b 35 79 14 3c 87 72 3a ba
       0.008168583 0.0040433933 0.009062101 -0.0007112403
000280 9a 42 00 bd c5 47 a3 bc 58 c1 96 bc a0 39 a3 bc
       -0.031313516 -0.019931683 -0.01840274 -0.019924939
000290 90 3b c2 39 d4 3f ad bc 16 b3 a9 bc 94 25 53 bb
       0.0003704694 -0.0211486 -0.020715278 -0.0032218443
0002a0 27 57 12 bd b7 42 10 3c 62 28 ea bc 99 03 b6 bd
       -0.035727646 0.008804969 -0.02858371 -0.08887405
0002b0 a9 a5 8b bd 57 67 30 3c d5 5c d7 b9 e6 c7 55 3c
       -0.068187065 0.010766826 -0.0004107716 0.013048148
0002c0 73 8b 05 3c 8a bb 32 3d 07 b8 cc bc 5e 0b 2b bd
       0.008150923 0.043635882 -0.024990095 -0.041758887
0002d0 36 cd 13 3a 01 94 19 3d 7c 78 04 bd 27 a7 07 bd
       0.0005638184 0.037494663 -0.032341465 -0.033118393
0002e0 ac 57 d1 3d 18 49 3e 3d d4 54 46 bb f8 f6 0d bc
       0.102218 0.046456426 -0.0030262964 -0.008664839
0002f0 df 52 51 bb fb b5 13 3c 40 bd 4d 3c f3 e3 86 bc
       -0.0031940264 0.0090155555 0.012557328 -0.016466117
000300 cb 89 da 3c c6 30 0d 3d 52 27 11 3d a4 32 1d ba
       0.026677033 0.034470342 0.03543789 -0.0005996621
000310 01 68 ca bb 79 31 77 bc 2c 18 e8 3c 9c 07 f2 bc
       -0.006176949 -0.015087479 0.028331839 -0.029544644
000320 81 a8 05 bd 59 9c ce 3c 67 27 1f bb e2 4b 98 bc
       -0.0326314 0.025221037 -0.002428496 -0.018590871
000330 1a 89 1a bd 58 3e e2 bb 50 b6 f2 3b ea b3 b9 3a
       -0.037728406 -0.0069044046 0.0074069872 0.0014167998
000340 9e 01 a7 3b 6d cf ba 3c d2 a2 0a 3d c2 d7 68 3b
       0.0050966283 0.022803986 0.033846684 0.0035528992
000350 da 0a fd bc f4 e6 93 bd 03 f6 1e bd 07 30 e3 bb
       -0.030888963 -0.07221785 -0.038808834 -0.0069332155
000360 3c ee c6 3b 05 4f 93 3c b0 0e c3 bb 65 e8 16 3d
       0.00607088 0.017982015 -0.0059526786 0.036842722
000370 67 61 9b bd 29 66 88 bd 14 ba 05 3d 9a 74 3c 3c
       -0.075869374 -0.066601105 0.03264816 0.011502409
000380 39 e3 97 bc af 20 07 3c 11 6a f1 bb 71 c5 d7 bb
       -0.018540965 0.0082475385 -0.0073673804 -0.006584816
000390 36 51 09 bd eb 07 a5 3c 7e 4d 3e bb 8a 3c d9 3c
       -0.033524714 0.020145377 -0.0029037888 0.026518125
0003a0 d8 60 ca 3c 93 87 5a 3d 23 f1 9c bc 36 ec 06 3d
       0.024704382 0.05335195 -0.019157952 0.032940112
0003b0 9b 79 07 3d c1 8a 80 bc f3 d9 26 bc f2 96 17 3c
       0.033074956 -0.015691163 -0.010183799 0.009252297
0003c0 a6 ac 09 3d b5 5f 30 3c e1 a4 02 3c 21 01 fa 3c
       0.033611916 0.010765006 0.0079738805 0.030518116
0003d0 f0 48 eb 3c a6 e7 24 3a ce ac d2 3c 80 2c 12 bd
       0.028721303 0.0006290622 0.025717165 -0.03568697
0003e0 0f b7 1a bd 88 fa 7f 3a 6d f3 0f bc b0 51 43 3c
       -0.037772235 0.000976481 -0.008786065 0.011921331
0003f0 b4 2e f8 3b 76 28 e2 b9 3c 7a df bc 93 f6 82 bc
       0.007573927 -0.00043136225 -0.027279966 -0.015986716

bias f4 [32]
000000 a4 0b be 3c de 46 4a bc 85 3b 9a 3c d1 dc c4 bc
       0.02319891 -0.012345998 0.01882721 -0.024031075
000010 81 17 0f 3c 09 f2 cc bb cf 27 d1 bb eb 76 02 bd
       0.008733631 -0.006254439 -0.0063829194 -0.03185169
000020 d5 8b cc bc 65 5c 3c bd f6 f4 c9 3b 04 63 08 3d
       -0.02496902 -0.04598655 0.006163235 0.033297554
000030 5a 4c 0e b8 47 be 1d bd 73 f1 0f bd 6e 85 ae bb
       -3.3926546e-05 -0.03851154 -0.035142373 -0.0053259647
000040 75 d9 12 bc 9c f6 fd 3a 2c 56 bd bc f9 bd 51 bc
       -0.008962979 0.0019375863 -0.023112379 -0.012801641
000050 dc 13 0a bc 88 67 83 bc a2 e7 37 bb 76 35 ab bc
       -0.008427586 -0.016040578 -0.0028061648 -0.020899516
000060 86 8d f9 3b e3 ad a0 3c 4b 4e fe ba 4e 72 f0 bc
       0.007615748 0.019614166 -0.0019401995 -0.02935138
000070 75 ab 17 3a b5 3d bc 3c 19 6e 57 3b ea 99 b7 3c
       0.0005785742 0.022978643 0.003287202 0.02241226

weight f4 [10, 32]
000000 8e 05 89 3e 37 f5 6a be 6e dc 05 be ec 7e 73 3e
       0.2676205 -0.22945105 -0.13072369 0.23778886
000010 1e f8 90 3e 33 2a be 3d 82 f4 49 3d 4c e0 ff bd
       0.28314298 0.092853926 0.049305446 -0.12493953
000020 4c d5 84 be 17 07 dd 3d e5 7c 60 3d 7b 54 85 bd
       -0.25943983 0.10792368 0.05480661 -0.06510254
000030 f7 1c da bd 72 c8 e8 bd 31 05 18 be 85 38 16 be
       -0.10650056 -0.11366357 -0.1484573 -0.14669998
000040 fa e3 2d 3e 22 c1 51 3e 58 d1 fa bc e4 75 57 3e
       0.16981497 0.2048383 -0.030617401 0.21041065
000050 9d 7c 8a be 1e 56 90 3e cc c8 53 3d 6e b9 aa be
       -0.27048197 0.28190702 0.051705167 -0.33344597
000060 63 0f a6 be 50 86 5e 3e 74 dd 13 3d df bb 8c 3d
       -0.32433614 0.21730924 0.036099866 0.06871771
000070 bc c7 aa be c5 45 17 3e c1 59 07 3e 24 5e 00 be
       -0.3335551 0.14772709 0.13217832 -0.12535912
000080 39 d0 46 be 96 17 2d be a4 7c 58 be da 26 66 be
       -0.19415368 -0.16903529 -0.21141297 -0.22475758
000090 0c cf 1b bd 0d 4f 87 3d c3 ef 41 be 86 dc e7 3d
       -0.038039252 0.066068746 -0.18939118 0.113213584
0000a0 6c 75 67 3e b7 d9 7c 3e 86 88 99 be 01 b5 16 be
       0.22603387 0.24692427 -0.29986972 -0.14717485
0000b0 29 2a 01 3e 5e 45 9f 3e af a8 aa 3d 1d 64 05 be
       0.12613739 0.3110761 0.08332955 -0.13026471
0000c0 ca 37 93 bb 9d 98 33 3c e6 40 8a 3e 0c 76 56 be
       -0.0044927346 0.010961679 0.2700264 -0.20943469
0000d0 8d 02 a2 3a d6 76 6e 3e 7e 2e 1b 3d 87 3d a8 3d
       0.0012360379 0.2328752 0.037886135 0.082148604
0000e0 e2 7d 64 bd 85 87 9c 3d bf 74 2d bc fd 91 a5 3d
       -0.055784114 0.07643036 -0.0105869165 0.08084486
0000f0 3a 46 99 3e a2 1f c9 bd 98 2a 1e be fa f0 8f bc
       0.2993639 -0.098204866 -0.15445936 -0.017570961
000100 84 c2 bb 3d 2e 8f 83 be 74 d1 b0 3d 7f dc 87 be
       0.0916796 -0.25695175 0.086337 -0.26535413
000110 2c 43 c2 3d c9 c9 ba 3e 36 ce 7e be 45 43 df bc
       0.09485468 0.36482075 -0.2488335 -0.027253756
000120 86 d3 5e bd 3b 3f 94 be 28 8f 40 3e 0f 26 7c 3e
       -0.054400943 -0.2895449 0.1880461 0.24623893
000130 67 b3 06 bd 3a e0 87 be e2 14 54 bd 46 76 7c be
       -0.032885935 -0.2653826 -0.051777728 -0.24654493
000140 a2 ef 23 be e7 f0 d2 bd d6 80 b2 3e 29 be 42 bd
       -0.16009381 -0.10299855 0.3486392 -0.047544632
000150 fc ac f0 bd b8 b7 a5 3e 61 aa 72 bd 5a d4 11 bd
       -0.11751744 0.3236673 -0.059244517 -0.035602905
000160 4c ff 59 3e 3b 98 91 bd 7c ca ad bc e3 32 be 3e
       0.21288794 -0.07109114 -0.021214716 0.37148198
000170 1f b1 43 bd 1e 52 1e be 21 81 95 3d bc 12 ec 3c
       -0.047776338 -0.15461013 0.0730002 0.028817527
000180 91 a2 5c be 39 fa 43 bc b9 60 e8 bd 59 65 27 bc
       -0.21546389 -0.011961513 -0.113465734 -0.010217034
000190 1c 5b 11 3b b0 9f b3 3d 02 b5 69 be 30 cd b2 bd
       0.002217955 0.08770692 -0.22822955 -0.08730543
0001a0 20 c8 9a 3d ad 8f 83 be b9 b2 41 3b 0e ae 24 3d
       0.07557702 -0.25695553 0.002955599 0.040205054
0001b0 3d 4b 92 be 2d 58 15 be 1a a1 44 be 48 c1 68 be
       -0.28573027 -0.14584418 -0.1920208 -0.22729981
0001c0 72 eb 70 3e 8b 7e 82 3e 64 20 aa bd b4 a1 2d 3e
       0.23527315 0.2548717 -0.08306959 0.16956216
0001d0 41 a8 f7 bc 77 d5 41 be f9 4a 72 3e 76 2f 4b bc
       -0.030231597 -0.18929087 0.23661412 -0.012401452
0001e0 b8 36 a1 3d 0a a9 37 be e9 fe be 3d d7 10 20 3e
       0.07871765 -0.17935577 0.09325964 0.15631424
0001f0 97 97 e6 3e 96 44 9a be 70 90 02 3e f4 d1 33 3e
       0.4503753 -0.30130452 0.12750411 0.1756056
000200 25 53 a9 3e d7 7c c9 bc f0 34 98 3e 52 85 da 3d
       0.33071247 -0.024595661 0.29727888 0.1066996
000210 5e 07 a2 be 0e d2 9b 3d c8 17 9d 3e 24 b4 bb bd
       -0.31646246 0.07608424 0.30682206 -0.091652185
000220 17 78 d9 3c 61 f5 4f 3c 57 49 32 3e 55 1f 93 be
       0.026546521 0.01269278 0.1741079 -0.28734842
000230 a3 0c ff bd 91 4f 2e 3d cb cb 8e bd 89 51 90 3e
       -0.12453582 0.04255635 -0.06972464 0.28187206
000240 cd 9c df bc 94 9b a0 bc ed 16 2c be c1 0c 0f bd
       -0.027296448 -0.019605435 -0.1680562 -0.034924272
000250 b6 d8 02 3e 12 99 bc 3c 49 a9 0e 3e c6 67 91 3e
       0.12777981 0.023022208 0.13931765 0.28399485
000260 23 38 32 3e 56 02 2e be 33 54 50 3e 51 2c 50 be
       0.17404227 -0.16993079 0.2034462 -0.20329405
000270 75 2f 03 3e 5c da a0 bc ad e5 b8 ba 93 cd 0d be
       0.12811072 -0.019635372 -0.0014106535 -0.13847952
000280 98 44 90 be 44 e0 36 be 13 04 99 3d 18 48 cb bd
       -0.28177333 -0.17858988 0.0747148 -0.0992586
000290 52 51 9e 3e 20 7a 17 be d4 fc ef 39 80 68 8a 3d
       0.30921417 -0.1479268 0.00045774004 0.06758213
0002a0 31 55 0d be d9 f8 42 be 7a 96 e1 bd ad b5 29 be
       -0.13802029 -0.1904024 -0.11015029 -0.1657321
0002b0 3f 08 89 be ec f2 37 be 02 d8 57 bc 43 2b 22 bd
       -0.26764104 -0.17963761 -0.013174059 -0.03959204
0002c0 2b 5d 38 3e b7 db 3e be fb 84 68 be dc 16 c9 bd
       0.18004291 -0.18638502 -0.22706978 -0.09818813
0002d0 0b 3b 5a bd 5d 79 e9 be 22 0a bc be 72 c9 a6 bd
       -0.053278964 -0.45600405 -0.3672648 -0.081438914
0002e0 48 6e 45 be e3 b0 e5 3d 03 ef 4b bd e0 10 28 bd
       -0.1928035 0.11215379 -0.049788486 -0.04103172
0002f0 33 0a 47 be c0 5a 46 bd 1c fa e5 3c 10 e2 80 3d
       -0.19437484 -0.04842639 0.028073363 0.06293118
000300 2b 80 5f 3e 00 c4 4a bd ec 10 eb 3d f7 bc 6b be
       0.21826236 -0.049503326 0.11477837 -0.23021303
000310 42 88 64 3e cd e5 5d 3d 70 ad 3a be 58 84 98 3d
       0.22317603 0.054174233 -0.18230224 0.074471176
000320 6f d1 88 bd 1b 3a 44 be ac 53 9b be a9 d8 3f 3e
       -0.06680571 -0.1916279 -0.30337274 0.18734993
000330 24 f9 5a 3e 27 38 1b 3e 22 c5 0f 3e ea a6 45 3e
       0.21384102 0.15158139 0.14040044 0.19301954
000340 73 52 c3 bd 24 9b ed bd 92 80 13 be 6f 01 7b bb
       -0.0953721 -0.11601856 -0.14404514 -0.0038300415
000350 01 7a 18 be ab 14 bc 3d 94 41 f7 3d 76 f4 de bd
       -0.14890291 0.091836296 0.12073055 -0.10886471
000360 12 cf 88 be 3e db 57 be 65 74 9f 3e 9b e5 92 be
       -0.26720482 -0.21079728 0.3114349 -0.286908
000370 86 8d 02 be 4f 94 34 3e 55 b1 a9 bd 6c 3e 6b 3e
       -0.127493 0.176347 -0.082857765 0.22973031
000380 5f 41 3c be c3 1f a7 3e ed d8 5e be 6b bd 4f 3e
       -0.18384312 0.3264142 -0.21762438 0.20287101
000390 c7 13 d0 bd d3 27 7f 3e e1 d3 23 3d 87 8a d4 3d
       -0.10160022 0.24917535 0.039996985 0.103779845
0003a0 95 75 09 be d7 a6 45 3e 6d 36 11 3e 04 a4 34 3e
       -0.1342376 0.19301926 0.14180918 0.17640692
0003b0 29 4b d1 3d 60 47 16 bd 0a cc b5 3c 19 18 14 be
       0.10219414 -0.036689162 0.02219202 -0.14462318
0003c0 8f 6a 2b 3e 2c 1a 21 be 85 0c 58 3d 04 15 21 3e
       0.16739868 -0.1573264 0.052746315 0.15730673
0003d0 1d 86 bd bc a4 6f bd bd 68 3e 8c 3e fe 76 8a 3d
       -0.02313524 -0.092498094 0.27391362 0.06760977
0003e0 f5 28 e8 3e 21 c0 5e 3e 40 21 a2 3d 1c ae 0e 3e
       0.45343748 0.21752979 0.07916498 0.13933605
0003f0 04 7c a5 bd 4a e5 10 be ef 22 8e 3e d6 80 fb bd
       -0.08080295 -0.14149967 0.27761027 -0.12280433

bias f4 [10]
000000 81 57 e9 bd 5e 96 56 be 46 d9 17 3e cf c5 fc 3d
       -0.11393643 -0.20955798 0.14828977 0.123424165
000010 5d c7 66 3d e7 e5 00 bd d8 2a 80 bd 48 98 22 3e
       0.05634247 -0.031469252 -0.06258172 0.15878403
000020 ea 3c f4 bd 17 5f 7a 3d
       -0.11925681 0.06112584
