models/EMnist-alpha0.1-ratio0.5/server.pt (torch, 116143 bytes, 16 tensors)

weight f4 [6, 1, 3, 3]
0	0xbdc17153	-0.09445443
1	0x3e5b3a73	0.21409015
2	0x3eaf9eec	0.34300935
3	0xbedf594a	-0.4362281
4	0x3e1b19f6	0.15146622
5	0x3e82f688	0.25578713
6	0xbef2aba4	-0.47396576
7	0xbe911790	-0.2833829
8	0x3e8c59b2	0.27412182
9	0xbe33f1d5	-0.1757272
10	0x3e535546	0.20637998
11	0xbd69338c	-0.056933925
12	0x3cf23ded	0.029570544
13	0x3e912f7c	0.2835654
14	0xbe71a288	-0.23597157
15	0x3eb6bfe9	0.3569329
16	0x3db1612c	0.08661112
17	0xbf0b784e	-0.54480445
18	0xbf06bff7	-0.52636665
19	0x3da404bf	0.08008718
20	0xbe6555d0	-0.22396016
21	0xbe4f97e9	-0.20272793
22	0xbdf5a1b9	-0.11993737
23	0x3eaebf82	0.34130484
24	0x3dd9542a	0.10611756
25	0x3e82775d	0.25481692
26	0x3e849a21	0.2589884
27	0xbe87aa53	-0.26497135
28	0xbe148003	-0.14501958
29	0xbda3bb92	-0.079947606
30	0xbe729174	-0.23688298
31	0xbe23927b	-0.15973847
32	0x3da48eb9	0.08035035
33	0x3e3125e1	0.17299606
34	0xbd8589b6	-0.06520407
35	0xbebbf336	-0.36708993
36	0x395d0d32	0.00021081118
37	0xbe261cca	-0.1622192
38	0xbdf58362	-0.1198795
39	0xbea2961a	-0.31755143
40	0xbe02f495	-0.12788613
41	0xbeb16462	-0.34646899
42	0xbdd1888c	-0.102311224
43	0x3b8d27b2	0.0043077106
44	0xbdd685ac	-0.10474715
45	0x3de26c57	0.110558204
46	0x3dfd2bba	0.12361856
47	0xbdad068e	-0.08448516
48	0x3da0de6b	0.07854923
49	0x3e2bc128	0.16772902
50	0x3e69a5b9	0.22817124
51	0x3de78dd0	0.113063455
52	0x3e9c9ccb	0.30588374
53	0x3e6a2b35	0.22868045

bias f4 [6]
0	0xbda6706e	-0.08126913
1	0xbc7323d9	-0.01484009
2	0xbd8abb18	-0.067739666
3	0x3e469078	0.19391048
4	0x3d17a1b9	0.037019465
5	0x3e9df554	0.30851233

weight f4 [6]
0	0x3f8c3fe1	1.0956994
1	0x3f502249	0.81302315
2	0x3f70b3c2	0.9402429
3	0x3f9651ad	1.1743675
4	0x3f8ee6c5	1.1164175
5	0x3f5af02e	0.85522735

bias f4 [6]
0	0xbdffc704	-0.12489131
1	0xbe0e0617	-0.1386951
2	0xbe14e307	-0.14539729
3	0xbcd7d446	-0.026346337
4	0x3d3b0021	0.04565442
5	0xbd86acaa	-0.06575902

running_mean f4 [6]
0	0x00000000	0.0
1	0x00000000	0.0
2	0x00000000	0.0
3	0x00000000	0.0
4	0x00000000	0.0
5	0x00000000	0.0

running_var f4 [6]
0	0x3f800000	1.0
1	0x3f800000	1.0
2	0x3f800000	1.0
3	0x3f800000	1.0
4	0x3f800000	1.0
5	0x3f800000	1.0

weight f4 [16, 6, 3, 3]
0	0x3cf23c01	0.029569628
1	0xbe4a5043	-0.1975718
2	0xbd44be09	-0.048032794
3	0x3cc559a7	0.024090601
4	0x3e176e56	0.14788184
5	0xbc714547	-0.01472599
6	0xbd5c53ec	-0.05379097
7	0xbe1caad2	-0.15299538
8	0xbdb73659	-0.08945913
9	0xbd8ac19b	-0.067752086
10	0xbe43bf67	-0.19115983
11	0xbc0a68fa	-0.00844788
12	0xbe0286d7	-0.1274675
13	0xbd75f87d	-0.06005143
14	0xbd93e964	-0.0722225
15	0xbd2d0868	-0.042244345
16	0xbd49ad85	-0.049237747
17	0xbdb2a93a	-0.08723684
18	0xbcc5fb55	-0.024167696
19	0x3b2fe82d	0.0026841268
20	0x3e796148	0.24353516
21	0xbde1f39c	-0.11032793
22	0xbe455ec7	-0.19274436
23	0x3d182cb9	0.037152026
24	0x3cb99637	0.022654636
25	0xbd818136	-0.06323473
26	0xbc17f5bd	-0.009274897
27	0x3d2a4463	0.041569125
28	0xbd18d557	-0.03731283
29	0x3c121600	0.008916378
30	0xbba0b94b	-0.004904901
31	0xbdccf185	-0.10007004
32	0x3dbb0bbd	0.09133098
33	0xbc5e2c77	-0.013560406
34	0x3d67374a	0.056449212
35	0x3de4a0eb	0.11163505
36	0xbde6bd1e	-0.1126654
37	0xbd6c22da	-0.057650425
38	0xbd170fe0	-0.036880374
39	0xbd32cc46	-0.04365184
40	0xbdb46a96	-0.08809392
41	0x3ca5f147	0.020256652
42	0xbe136ffb	-0.14398186
43	0x3d0f7b85	0.035029907
44	0x3e01cda2	0.12676099
45	0x3e40aa1e	0.18814895
46	0x3e6269fc	0.22110742
47	0x3e3f5b8f	0.1868727
48	0xbe127b41	-0.1430483
49	0xbc218bf8	-0.009860031
50	0x3e0e8925	0.13919504
51	0xbdf7c57e	-0.120982155
52	0xbdca766d	-0.09885869
53	0xbd80b029	-0.062836
54	0xbde6824c	-0.11255321
55	0x3d9f9298	0.077916324
56	0x3de5ac43	0.11214497
57	0x3e415420	0.18879747
58	0x3d71ba1e	0.059015386
59	0x3e4f5b16	0.2024959
60	0x3e06bb1d	0.13157316
61	0x3db968f6	0.09053223
62	0xbdf55984	-0.119799644
63	0x3dba8071	0.091065295
64	0x3df2967e	0.1184511
65	0xbcd6b3c3	-0.026208764
66	0xbb432900	-0.0029779077
67	0x3d835029	0.06411774
68	0xbdf804fd	-0.121103264
69	0xbdb4d6f9	-0.08830065
70	0xbdf2cee8	-0.118558705
71	0x3c097358	0.0083893165
72	0x3cc7d0c8	0.024391547
73	0xbdb82c09	-0.08992774
74	0x3aaba4b1	0.0013095347
75	0x3dce9394	0.10086742
76	0xbbe15bd7	-0.0068774032
77	0xbe2d0155	-0.1689504
78	0x3dd36b3e	0.10323189
79	0xbd54b3c9	-0.05192927
80	0xbe11a3c2	-0.14222625
81	0x3de0ebfa	0.10982509
82	0x3e4c52fe	0.19953534
83	0x3e0250da	0.12726155
84	0x3ddff46d	0.109352924
85	0x3e64f168	0.22357714
86	0xbbacc376	-0.005272324
87	0x3c95ca42	0.01828492
88	0x3def3bee	0.116813526
89	0xbd877431	-0.066139586
90	0x3e1465fd	0.1449203
91	0x3d98a227	0.07452803
92	0xbd823143	-0.06357052
93	0xbd3a79a4	-0.04552616
94	0xbd9f1ceb	-0.077691875
95	0xbe1084d9	-0.14113177
96	0xbe296848	-0.16543686
97	0x3a54d09d	0.0008118244
98	0x3df3fc98	0.11913413
99	0xbcb146cf	-0.02164021
100	0xbe063d58	-0.13109338
101	0x3cc58c51	0.02411476
102	0x3d939092	0.07205309
103	0xbdf81a37	-0.12114375
104	0xbd3dbbea	-0.046321787
105	0x3df01141	0.11722041
106	0xbd95adca	-0.07308538
107	0xbcd46adc	-0.02592986
108	0xbd8d1052	-0.068878785
109	0xbe0bde52	-0.13659027
110	0xbce52ce7	-0.027975513
111	0xbdb2593c	-0.08708426
112	0xbe077be6	-0.13230857
113	0xbe0e15a9	-0.1387545
114	0xbe43409e	-0.19067618
115	0xbe607b98	-0.21922147
116	0xbe165902	-0.14682391
117	0xbd9046a4	-0.07044724
118	0xbcbd3ab4	-0.02309928
119	0x3d18e88a	0.03733114
120	0xbcf6609a	-0.03007536
121	0x3cff0f51	0.031135233
122	0x3d3cd332	0.04609985
123	0xbcf52530	-0.029924959
124	0xbdb969f7	-0.09053414
125	0xbdc7db72	-0.09758653
126	0x3c98dc02	0.018659595
127	0x3e1055a9	0.14095177
128	0x3d7e9146	0.062150262
129	0x3e1d0025	0.15332086
130	0x3e3a56b9	0.18197145
131	0x3d29c78f	0.04145008
132	0x3ddf4c81	0.10903264
133	0x3d540753	0.051764797
134	0xbdaca31b	-0.084295474
135	0xbda561ed	-0.080753185
136	0xbdeba8e9	-0.115068264
137	0xbe16efd1	-0.1473992
138	0xbd330079	-0.043701623
139	0xbe0286af	-0.1274669
140	0xbe6c78e7	-0.23092996
141	0xbe295c60	-0.16539145
142	0xbe6e5c84	-0.2327748
143	0xbe4d2716	-0.20034441
144	0x3c17e826	0.009271657
145	0xbcb3f1bf	-0.02196586
146	0x3c9b10af	0.018928854
147	0xbd55d6aa	-0.052206673
148	0xbe12f5dc	-0.143516
149	0xbe1dec71	-0.15422226
150	0xbde6bd10	-0.112665296
151	0xbe0a5d42	-0.13512138
152	0xbcc07f0f	-0.023498086
153	0xbe0ec490	-0.1394217
154	0xbdae9fc7	-0.08526569
155	0x3dd66cef	0.10469996
156	0x3c4786f4	0.012178171
157	0xbce11399	-0.027475165
158	0xbaa314f7	-0.0012442161
159	0xbd9a13a9	-0.07523281
160	0xbdb788cc	-0.08961639
161	0xbe406691	-0.18789126
162	0xbc58fb10	-0.013243452
163	0x3e5786e9	0.21047558
164	0x3e00aba3	0.12565474
165	0xbcff9f43	-0.031203872
166	0x3e5cba9e	0.21555564
167	0x3e873953	0.26410922
168	0xbcd8a37a	-0.02644514
169	0x3d9edcac	0.077569336
170	0x3e20aec2	0.15691665
171	0x3d784faf	0.060622867
172	0x3e15f6b7	0.14644895
173	0x3d86a6de	0.06574796
174	0xbd903c5d	-0.070427634
175	0x3cf8afef	0.03035733
176	0x3d53956b	0.051656168
177	0xbd7e1411	-0.062030856
178	0xbd63e034	-0.05563374
179	0xbdd25152	-0.10269417
180	0xba6660e0	-0.0008788239
181	0x3dff6c89	0.12471873
182	0xbd90477e	-0.07044886
183	0xbe237c83	-0.15965466
184	0x3df52753	0.11970391
185	0xbc9bce85	-0.019019375
186	0x3d411dd8	0.0471476
187	0x3b085cd3	0.002080728
188	0xbd456f84	-0.048202053
189	0xbb3bcba5	-0.0028655317
190	0xbda9504d	-0.08267269
191	0x3b9e8b82	0.004838408
192	0x3dfa1606	0.12211232
193	0xbda84fbb	-0.082183324
194	0xbdcc0dd3	-0.09963574
195	0x3e3f7b65	0.18699415
196	0x3dae7697	0.08518713
197	0x3d91c3f7	0.071174555
198	0x3e451bc2	0.1924887
199	0x3d8826df	0.06648039
200	0xbd97c41a	-0.0741045
201	0x3bd7ab80	0.0065817237
202	0x3d13ce60	0.036085486
203	0x3d9d14cc	0.07669982
204	0xbd159cc7	-0.036526468
205	0x3d9e6763	0.07734563
206	0xbdef6302	-0.11688806
207	0xbe5f82a2	-0.21827176
208	0x3d4457e0	0.047935367
209	0x3d17e0fd	0.0370798
210	0xbdbbfb80	-0.09178829
211	0x3d6ce49c	0.057835206
212	0x3d0ce1c1	0.034394983
213	0xbd24648b	-0.040134948
214	0xbdaee040	-0.08538866
215	0x3b31b28a	0.0027114474
216	0xbd8aa0c3	-0.06768944
217	0xbd9456dc	-0.072431296
218	0xbd6725ee	-0.056432657
219	0x3d89152f	0.066934936
220	0xbd72d795	-0.059287626
221	0xbd60780f	-0.054801997
222	0xbd394fe2	-0.045242198
223	0xbe0e08c7	-0.13870536
224	0x3e075526	0.13216075
225	0xbcb00cf8	-0.021490559
226	0x3d937d4e	0.07201634
227	0xbc930db5	-0.017950872
228	0x3d1a6064	0.03768958
229	0xbdd8f5b1	-0.10593737
230	0xbd9ced4a	-0.07662447
231	0xbd9c467d	-0.07630632
232	0x3c971e13	0.018446958
233	0x3cd154c1	0.02555311
234	0x3ddc4729	0.1075576
235	0xbdec0d14	-0.11525932
236	0x3cc489df	0.023991523
237	0x3d8103c8	0.06299549
238	0xbce2d38d	-0.027688766
239	0x3d82551c	0.063638896
240	0xbd39b6ae	-0.045340233
241	0xbe32a813	-0.17446928
242	0x3e0510f2	0.12994745
243	0x3c0ac8f2	0.008470761
244	0xbd43210c	-0.047638938
245	0x3e0b38f7	0.13595949
246	0x3e09c8aa	0.13455454
247	0xbdf18d57	-0.117945366
248	0xbd28fe5a	-0.041258194
249	0x3e0f766e	0.14010021
250	0x3dbcbc82	0.092156425
251	0xbdb75688	-0.089520514
252	0xbd80ba64	-0.06285551
253	0x3d16902f	0.036758598
254	0xbd78e01d	-0.060760606
255	0x3e209b91	0.15684344

bias f4 [16]
0	0xbd437f21	-0.04772866
1	0x3d994652	0.07484116
2	0xbde05fa6	-0.109557435
3	0x3c00022a	0.007813016
4	0x3dc53f4e	0.09631215
5	0x3d18f35f	0.03734147
6	0x3d890047	0.06689506
7	0xbd7df4b1	-0.062000934
8	0x3c0b21c1	0.008491934
9	0xbdb9c22c	-0.090702385
10	0x3d3642c5	0.04449727
11	0xbac50cfd	-0.0015033778
12	0x3db371a7	0.08761912
13	0xbd0fca2c	-0.035104915
14	0xbd998a60	-0.07497096
15	0x3de6345b	0.11240455

weight f4 [16]
0	0x3f8bf624	1.0934491
1	0x3f84cab2	1.0374358
2	0x3fa728ab	1.3059286
3	0x3f92b307	1.1460885
4	0x3f6ae64c	0.91757655
5	0x3f709649	0.93979317
6	0x3f8ab4f2	1.083647
7	0x3f722328	0.94584894
8	0x3f9048b1	1.1272184
9	0x3f7d0ba6	0.988459
10	0x3f71076f	0.9415197
11	0x3f75314a	0.95778334
12	0x3f9bf7c1	1.2184983
13	0x3f6d8d53	0.9279377
14	0x3f84f818	1.0388212
15	0x3f808d74	1.0043168

bias f4 [16]
0	0xbe8ee4cc	-0.27908933
1	0xbe88375c	-0.26604736
2	0xbe228c0d	-0.15873738
3	0xbe72f4ee	-0.23726246
4	0xbeccb744	-0.3998357
5	0xbe8476d0	-0.25871897
6	0xbe838595	-0.25687853
7	0xbe91e5e5	-0.28495708
8	0xbe7ab288	-0.24482167
9	0xbe53dd7c	-0.20689958
10	0xbea3174d	-0.31853715
11	0xbeb8470a	-0.35991699
12	0xbda26f30	-0.079313636
13	0xbe652c1d	-0.22380109
14	0xbe88e35c	-0.2673596
15	0xbe624a2c	-0.22098607

running_mean f4 [16]
0	0x00000000	0.0
1	0x00000000	0.0
2	0x00000000	0.0
3	0x00000000	0.0
4	0x00000000	0.0
5	0x00000000	0.0
6	0x00000000	0.0
7	0x00000000	0.0
8	0x00000000	0.0
9	0x00000000	0.0
10	0x00000000	0.0
11	0x00000000	0.0
12	0x00000000	0.0
13	0x00000000	0.0
14	0x00000000	0.0
15	0x00000000	0.0

running_var f4 [16]
0	0x3f800000	1.0
1	0x3f800000	1.0
2	0x3f800000	1.0
3	0x3f800000	1.0
4	0x3f800000	1.0
5	0x3f800000	1.0
6	0x3f800000	1.0
7	0x3f800000	1.0
8	0x3f800000	1.0
9	0x3f800000	1.0
10	0x3f800000	1.0
11	0x3f800000	1.0
12	0x3f800000	1.0
13	0x3f800000	1.0
14	0x3f800000	1.0
15	0x3f800000	1.0

weight f4 [32, 784]
0	0x3da1e311	0.079046376
1	0x3d8e5193	0.06949153
2	0x3c85221d	0.016251618
3	0x3c5bcfba	0.013416225
4	0x3d12f42c	0.03587739
5	0x3ca5cf9c	0.020240597
6	0x3d8739a4	0.06602791
7	0x3d31c5e7	0.043401625
8	0x3c0770f5	0.008266677
9	0xbcbd2417	-0.023088498
10	0xbc5faf79	-0.013652676
11	0xbbc5151a	-0.0060144784
12	0x3afec89a	0.0019438446
13	0x3ce6292e	0.028095808
14	0xbabc20ce	-0.0014353038
15	0xbc133b69	-0.008986332
16	0xbd5ce077	-0.053925004
17	0xbde71d44	-0.11284879
18	0xbd25bff6	-0.04046627
19	0xbd4aceb1	-0.049513523
20	0xbc8a942e	-0.01691636
21	0x3d3d5dd5	0.046232063
22	0xbd012ec0	-0.031538725
23	0xbd9b7fce	-0.07592736
24	0xbdae88a8	-0.08522159
25	0xbd93fba5	-0.07225732
26	0xbd3ed34e	-0.046588235
27	0xbcde7fbf	-0.027160523
28	0xbc811812	-0.015758548
29	0xbd179fc5	-0.037017602
30	0x3cf9ac06	0.030477535
31	0x3c9ed184	0.019387014
32	0x3d170c2f	0.036876854
33	0x3cc84541	0.024447085
34	0x3cce9b4e	0.02522054
35	0xbcb0b11a	-0.021568824
36	0x3cb00507	0.021486772
37	0x3d2bd411	0.04195029
38	0xbd1cde3c	-0.038297877
39	0xbd19edc5	-0.03758027
40	0x3d090ed6	0.033461414
41	0x3c7c2b80	0.015391231
42	0x3cefc4a9	0.02926858
43	0xbce84bcc	-0.028356455
44	0x3d3006eb	0.042975347
45	0xbd9a7033	-0.075409316
46	0xbdd6feff	-0.104978554
47	0x3d03b013	0.03215034
48	0x3a19b10c	0.0005862869
49	0x3d14c00b	0.03631596
50	0xbc53bbec	-0.012923222
51	0x3bf12135	0.007358695
52	0xbcf15905	-0.029461393
53	0xbd013781	-0.031547073
54	0x3d0ee89a	0.034889795
55	0xbd0410ca	-0.032242574
56	0x3b944b16	0.0045255525
57	0x3c9ef477	0.01940368
58	0x3c00be47	0.007857866
59	0xbbfb2a6c	-0.007664969
60	0x3d047fa6	0.032348298
61	0x3b8eb676	0.004355247
62	0x3bb1a69a	0.005421472
63	0xbcb98f4e	-0.02265134
64	0x3c95f2c3	0.018304234
65	0xbce8daa5	-0.02842457
66	0x3d0a79c0	0.033807516
67	0x3cdebf0e	0.027190711
68	0x3c603a58	0.013685785
69	0x3d4b2117	0.049592104
70	0x3ad96401	0.001658559
71	0xbd11da50	-0.03560859
72	0xbd40c073	-0.047058534
73	0xbce17aa9	-0.02752431
74	0x3c67adea	0.014140585
75	0xbd4666ee	-0.048438005
76	0xbc9fc7f6	-0.019504528
77	0xbb89979f	-0.004198983
78	0x3c0333e3	0.008007976
79	0x3d161585	0.036641616
80	0xbc474aea	-0.012163857
81	0xbc99954e	-0.018747952
82	0xbd14aa35	-0.036295135
83	0xbbb15144	-0.005411299
84	0x3d089c5a	0.033352233
85	0xbcacb45c	-0.021082096
86	0xbc62cae4	-0.013842318
87	0xbc0ee474	-0.00872146
88	0x399a272a	0.00029402348
89	0xbc67731d	-0.014126566
90	0x3cd9497f	0.026524303
91	0x3d10e452	0.035373993
92	0x3ce23572	0.027613375
93	0x3c8b2f30	0.016990274
94	0xbbd2cb87	-0.0064329538
95	0x3d73e7ad	0.059547115
96	0xbc2a4c3c	-0.010394152
97	0xbc32d38a	-0.010914693
98	0x3bdf553a	0.0068155797
99	0x3c65a2fe	0.014015911
100	0xbcac9c46	-0.02107061
101	0xbc4e0ee7	-0.012576795
102	0x3cb8eeca	0.022574801
103	0x3c89f885	0.016842136
104	0xbd15bc73	-0.036556672
105	0xbc91f740	-0.017818093
106	0x3b8fcf20	0.004388705
107	0x3e0f9787	0.14022647
108	0x3de20513	0.11036124
109	0xbdfc4cb1	-0.12319315
110	0xbe05d716	-0.1307033
111	0x3c162eba	0.009166414
112	0xbd876064	-0.06610182
113	0x3d468e23	0.048475396
114	0x3df34310	0.118780255
115	0x3b84db5a	0.004054469
116	0xbd46b81f	-0.048515435
117	0xbc21d413	-0.009877223
118	0xbd06dddc	-0.032926425
119	0xbbf88feb	-0.0075855157
120	0xbcc4de05	-0.024031648
121	0x3d858fa7	0.0652154
122	0x3d940464	0.072274
123	0x3d884b12	0.066549435
124	0x3c1ff3b0	0.0097626895
125	0xbc38e4de	-0.011285035
126	0xbc9815a4	-0.018565007
127	0xbd600abb	-0.054697733
128	0x3d09580e	0.03353124
129	0xbcdde6a8	-0.027087525
130	0xbc0786f3	-0.0082719205
131	0x3b2577b8	0.002524836
132	0xbcf73264	-0.030175395
133	0xbc997c05	-0.018735895
134	0xbd46e517	-0.04855832
135	0xbdf13933	-0.11778488
136	0x3d25152f	0.040303405
137	0xbda0c4ef	-0.07850062
138	0xbd41d2ef	-0.047320303
139	0xbc27548c	-0.010213029
140	0xbc094c7e	-0.008380054
141	0xbc47136d	-0.012150628
142	0x3c91f020	0.017814696
143	0x3a29cc15	0.0006477249
144	0xbc5f8f3a	-0.013644988
145	0xbbc8d24a	-0.006128584
146	0xbca4eaaf	-0.020131437
147	0x3cc019c1	0.02344978
148	0x3c2d0dee	0.010562403
149	0xbd278067	-0.04089394
150	0x3c99cc2a	0.01877411
151	0xbcfdef5f	-0.03099793
152	0x3ca02748	0.01954998
153	0x3cc8a729	0.02449377
154	0x3b10e756	0.0022110543
155	0xbd38649e	-0.04501783
156	0x3c36a458	0.011147581
157	0x3c659b94	0.0140141435
158	0x3ce97588	0.028498426
159	0x3c8c0846	0.017093789
160	0xbcef024e	-0.029175904
161	0xbd137f3f	-0.036010023
162	0xbad4a09e	-0.0016222184
163	0xbcc9f43b	-0.024652591
164	0x3d416956	0.047219597
165	0x3d6700c9	0.056397233
166	0x3d878e72	0.06618966
167	0x3c0869a1	0.008325965
168	0xbd280dcf	-0.041028794
169	0x3d97c207	0.07410055
170	0xbda01c3c	-0.07817885
171	0xbdf2149d	-0.11820338
172	0xbdc019f9	-0.09379954
173	0x3d919966	0.071093366
174	0x3d17970e	0.03700929
175	0x3c3f9dde	0.011695353
176	0xbcd58bb7	-0.026067598
177	0x3ce741fd	0.028229708
178	0xbd5fe6cf	-0.054663476
179	0xbdf5fda4	-0.12011269
180	0x3c1bc380	0.00950706
181	0x3cf600f1	0.030029746
182	0xbcae395b	-0.021267584
183	0x3a87d607	0.0010363468
184	0xbcfd056f	-0.03088638
185	0xbd3d3f4f	-0.046202954
186	0xbcfd2229	-0.030900078
187	0xbcbe5a25	-0.023236344
188	0xbc6b799f	-0.014372258
189	0x3b2536bf	0.0025209633
190	0x3d352d2a	0.044232525
191	0xbd38d042	-0.045120485
192	0xbdaed268	-0.085362256
193	0x3bc14ed0	0.0058992878
194	0x3d7e99ba	0.062158324
195	0xbaa087f6	-0.0012247551
196	0xbbf9b81c	-0.0076208245
197	0x3c8301f4	0.015992142
198	0x3da123c8	0.07868153
199	0x3c1c773b	0.009549911
200	0xbcc9dc19	-0.024641084
201	0x3d38fa21	0.045160417
202	0x3cf5c768	0.03000231
203	0xbd08209b	-0.03323422
204	0x3cca6d84	0.024710424
205	0x3cd18b16	0.025579017
206	0xbd0e1629	-0.034689102
207	0xbb790033	-0.0037994504
208	0x3c855558	0.016276047
209	0x3d397af7	0.045283284
210	0x3d2ff8bb	0.042961817
211	0x3d366074	0.04452558
212	0xbd56e7fa	-0.052467324
213	0xbb6cd1a8	-0.0036135707
214	0xbc2907dc	-0.010316815
215	0x3d133386	0.03593781
216	0x3cfbdd8b	0.030745288
217	0x3c9b2e82	0.018943075
218	0xbbc63640	-0.0060489476
219	0x3bad977c	0.0052975994
220	0xbc042025	-0.0080643045
221	0x3d05009c	0.032471284
222	0x3d3efc75	0.04662748
223	0x3bdf2d19	0.006810796
224	0xbca73d47	-0.020414962
225	0xbcef841f	-0.029237805
226	0xbdad8c7b	-0.0847406
227	0x3cff0ce4	0.031134076
228	0xbc4d2bc0	-0.012522638
229	0x3cb89a88	0.022534624
230	0xbc92fe05	-0.017943392
231	0x3c61f9be	0.013792453
232	0x3d02d19b	0.031938177
233	0x3c84bff3	0.01620481
234	0x3bfd9a6f	0.007739357
235	0x3d57fb4d	0.052729893
236	0x3cd8e624	0.026476927
237	0xbbf2bb76	-0.007407601
238	0xbba6153d	-0.00506845
239	0x3d175675	0.036947686
240	0x3d3fa8fa	0.046792008
241	0xbb9b8733	-0.0047463416
242	0x3ce06fe1	0.027397098
243	0x3cea2755	0.028583208
244	0x3d22ded0	0.03976327
245	0x3c5c393c	0.01344138
246	0x3d0f0647	0.034918096
247	0xbcd71267	-0.026253892
248	0xbcd3a5ad	-0.025835836
249	0x3bf6d1cc	0.007532334
250	0xbb10a97f	-0.0022073684
251	0x3cb62f4e	0.022239354
252	0x3afe8789	0.0019419055
253	0xbaf64c89	-0.001879112
254	0xbcf801f2	-0.030274365
255	0x3d1875b2	0.037221618

bias f4 [32]
0	0x3ca964d8	0.020677969
1	0x3d96f272	0.073704615
2	0xbcac0646	-0.020999085
3	0x3ca68bd1	0.020330342
4	0xbc8cd63e	-0.017192002
5	0xbd05b8c4	-0.03264691
6	0xbd4f694f	-0.05063754
7	0x38d5aee9	0.00010189211
8	0x3d22d712	0.03975589
9	0xbd4e5132	-0.050370403
10	0x3cf9024f	0.030396609
11	0x3bcb4d82	0.006204308
12	0x3c721b70	0.014777049
13	0xbc5a2dc5	-0.013316576
14	0xbc0d1e49	-0.008613178
15	0x3bf76bdc	0.0075506996
16	0x3d0be31e	0.034152143
17	0x3c5a4eb0	0.013324425
18	0xbc8cb3a9	-0.017175512
19	0xbca3d0d5	-0.01999704
20	0x37cba820	2.4277775e-05
21	0xbd5992b1	-0.05311841
22	0xbd0107e1	-0.031501655
23	0x3c4fc01f	0.012680083
24	0xbc834b1f	-0.016027031
25	0x3ce626a6	0.0280946
26	0xbd547964	-0.05187358
27	0x3c774931	0.015093134
28	0x3cc466bd	0.02397477
29	0x3aa0f2d9	0.0012279405
30	0xbcb9fe4f	-0.022704272
31	0xbbb780b8	-0.0056000613

weight f4 [26, 32]
0	0x3e82de0d	0.25560036
1	0xbe22ec11	-0.15910365
2	0xbddf3c04	-0.10900119
3	0x3c0a7679	0.008451098
4	0x3e920d74	0.2852589
5	0x3e311b69	0.17295612
6	0x3e6f5b7e	0.23374745
7	0xbd2d9506	-0.042378448
8	0xbeb6254b	-0.35575327
9	0xbd952f0f	-0.07284366
10	0xbca46493	-0.020067489
11	0x3e2d6253	0.16932039
12	0xbd45501a	-0.048172094
13	0xbe521578	-0.20516002
14	0xbe459253	-0.192941
15	0xbd73dac1	-0.05953479
16	0xbdd73b86	-0.105094
17	0x3e4598d4	0.1929658
18	0xbe089d6e	-0.13341305
19	0x3d9f2ae2	0.07771851
20	0xbd267d75	-0.04064699
21	0x3e54f5ba	0.20796862
22	0x3ed5c1a9	0.41749313
23	0xbe9e906d	-0.30969563
24	0x3df29e27	0.118465714
25	0xbda8024b	-0.08203562
26	0x3df05148	0.11734253
27	0x3e0a22ca	0.13489833
28	0xbe259a2b	-0.16172092
29	0x3db55958	0.088549316
30	0x3eacf1d5	0.33778253
31	0x3db4ae4c	0.08822307
32	0xbe4e5d71	-0.20152833
33	0xbe4172d0	-0.18891454
34	0xbe2dc172	-0.16968325
35	0xbe898948	-0.2686255
36	0x3d50c3dd	0.05096804
37	0x3dc7a880	0.09748936
38	0xbe967d74	-0.29392588
39	0x3d55711a	0.052109815
40	0x3dee8efc	0.11648366
41	0x3e8174d2	0.2528444
42	0xbeda66a0	-0.42656422
43	0xbddb79bc	-0.10716578
44	0x3e4e5144	0.20148188
45	0x3eae860a	0.3408664
46	0x3e497274	0.19672567
47	0xbc02b6f9	-0.007978194
48	0x3d9ec90b	0.0775319
49	0xbdedabc3	-0.116050266
50	0x3dd95ad8	0.1061303
51	0xbe5ca48b	-0.21547143
52	0x3d410903	0.047127735
53	0x3ea46d19	0.32114485
54	0x3e40cb97	0.18827663
55	0xbdaec81d	-0.08534262
56	0xbd41c50c	-0.04730706
57	0x3d857a9b	0.06517526
58	0x3d2fb701	0.042899136
59	0x3dcb5973	0.099291705
60	0x3e93dcb3	0.28879318
61	0xbdaedc67	-0.08538132
62	0xbd40d55a	-0.047078468
63	0x3e16577b	0.14681809
64	0x3e482b9f	0.1954789
65	0xbe8b683c	-0.27227962
66	0x3ed4a512	0.4153219
67	0xbe9c2276	-0.30495042
68	0x3decb2e3	0.115575574
69	0x3e1835a5	0.14864214
70	0xbd8d9c92	-0.06914629
71	0xbd0e25f9	-0.034704182
72	0xbd748cff	-0.059704777
73	0xbeccc009	-0.3999026
74	0x3d11dfcd	0.035613824
75	0x3d78b08a	0.060715236
76	0xbcfceb50	-0.030873924
77	0xbd9450d4	-0.07241979
78	0x3daeb2b8	0.08530182
79	0xbe14df69	-0.14538349
80	0xbe93951d	-0.28824702
81	0xbce3e887	-0.027820839
82	0x3c5848e6	0.013200974
83	0xbc4d0de1	-0.012515516
84	0xbd3b9db8	-0.04580471
85	0x3e34bbc2	0.17649749
86	0xbe600ad1	-0.21879126
87	0x3ca908ec	0.020634137
88	0xbd0c2c11	-0.034221712
89	0xbe50393a	-0.2033433
90	0x3dd970cd	0.10617218
91	0x3e5548d4	0.20828563
92	0xbe37307e	-0.17889592
93	0xbd99c7f7	-0.075088434
94	0xbe4f41c4	-0.20239931
95	0x3cfce1e7	0.030869437
96	0xbe40c38b	-0.18824594
97	0xbda12f8c	-0.07870397
98	0xbe97fb5e	-0.29683965
99	0x3e888882	0.26666647
100	0x3d9895c9	0.07450444
101	0xbd116fdc	-0.035507068
102	0xbec103d8	-0.37698245
103	0xbab0c491	-0.0013486316
104	0x3eb64dfc	0.35606372
105	0xbe612d06	-0.21989831
106	0xbe6f0593	-0.2334197
107	0xbbed7597	-0.007246684
108	0x3ceeae58	0.029135868
109	0xbe30889d	-0.17239614
110	0xbd8840a0	-0.06652951
111	0xbde51f5b	-0.11187621
112	0xbbe3e587	-0.006954852
113	0x3e7e4077	0.24829279
114	0xbc21cce1	-0.009875507
115	0xbd4d42b0	-0.050112426
116	0x3e4c1125	0.19928415
117	0xbe0eddf2	-0.13951853
118	0x3e831c5a	0.25607568
119	0xbe37aefc	-0.17937845
120	0x3d1cc955	0.038277943
121	0xbe8d03e7	-0.2754204
122	0x3d16d05b	0.036819797
123	0x3e9f68a3	0.3113452
124	0x3ecc2bfc	0.39877307
125	0xbe026c43	-0.12736611
126	0x3e1453ff	0.14485167
127	0x3e23cd58	0.15996301
128	0x3e6ffd3e	0.23436448
129	0xbf0d6cda	-0.5524422
130	0x3ebbde3d	0.36692992
131	0xbe9ce6e8	-0.30644917
132	0xbe713656	-0.23555884
133	0x3ed69c85	0.4191629
134	0x3df1e3a3	0.118109964
135	0xbe5eedf7	-0.21770464
136	0xbd9667d6	-0.07344024
137	0xbe09aa6c	-0.13443917
138	0x3df19088	0.11795145
139	0xbd86bbed	-0.06578813
140	0x3b50739b	0.0031807187
141	0xbdd38876	-0.10328762
142	0xbde67793	-0.11253276
143	0xbc3b3853	-0.011427003
144	0xbe10f28d	-0.14155026
145	0xbc7a88d0	-0.015291408
146	0x3d970868	0.0737465
147	0x3de8f19c	0.11374208
148	0xbd1e38ae	-0.038628273
149	0x3e9ee73d	0.31035796
150	0xbd85f9d4	-0.065417916
151	0x3de9cc0d	0.11415873
152	0x3e145c05	0.14488228
153	0xbe10822b	-0.14112155
154	0x3e81d465	0.25357357
155	0xbd77f8f1	-0.060540143
156	0x3df5ae09	0.11996085
157	0x3dcf1ef4	0.10113326
158	0x3d9412a9	0.07230122
159	0xbc73ef43	-0.014888587
160	0xbe134a29	-0.14383759
161	0x3d05c5ab	0.032659214
162	0x3d5b3748	0.053519517
163	0xbe1bd750	-0.15218854
164	0x3e26d755	0.1629308
165	0x3eebeabb	0.46077523
166	0xbd30d893	-0.04317529
167	0x3d8cd833	0.06877174
168	0xbe403922	-0.18771794
169	0xbe217a4e	-0.15769312
170	0x3e03f726	0.12887248
171	0xbdddd9ca	-0.108325556
172	0xbe68f34d	-0.22749062
173	0xbc885ddc	-0.016646318
174	0x3dcc9cc7	0.099908404
175	0x3e87a3e8	0.26492238
176	0x3e9e366e	0.30900902
177	0xbd9c3eb0	-0.07629144
178	0xbe46df58	-0.19421136
179	0x39ae465a	0.00033240282
180	0xbef5815d	-0.4795026
181	0xbf1abc76	-0.6044382
182	0xbe0ef16e	-0.13959286
183	0xbe029e9d	-0.12755819
184	0xbea4ec94	-0.32211745
185	0x3e9fc17d	0.31202307
186	0xbc057a92	-0.008146899
187	0xbe022dc2	-0.12712768
188	0xbe15a07e	-0.14612004
189	0xbda416c1	-0.080121525
190	0x3e4281ce	0.18994829
191	0x3e4acea8	0.19805396
192	0x3e04c4e5	0.12965734
193	0x3e22afde	0.158874
194	0xbd1a7204	-0.03770639
195	0xbe18a708	-0.14907467
196	0xbd5b2722	-0.053504117
197	0x3ebe1e90	0.37132692
198	0xbe20acbc	-0.15690893
199	0xbc14e510	-0.009087816
200	0x3ce98770	0.028506964
201	0xbb99e095	-0.0046959617
202	0x3e690ca5	0.2275873
203	0x3e073b5b	0.13206236
204	0x3e1babe8	0.15202296
205	0xbd9cba7d	-0.07652757
206	0x3e8c040a	0.27346832
207	0x3eaa8360	0.33303356
208	0xbd998f49	-0.074980326
209	0xbd960d73	-0.07326784
210	0xbdcfc2a8	-0.101445496
211	0xbd8f28bf	-0.069901936
212	0xbe86cd59	-0.26328543
213	0x3d924b15	0.07143227
214	0x3ec9e757	0.3943431
215	0x3bf6057c	0.007507978
216	0xbe35a57d	-0.1773891
217	0xbd286f46	-0.041121744
218	0xbcb08e24	-0.021552153
219	0xbdb0b407	-0.086280875
220	0xbe2378e4	-0.15964085
221	0x3da7b658	0.08189076
222	0x3dc9ffa1	0.098632105
223	0x3e89747e	0.2684669
224	0xbeb81851	-0.35956052
225	0xbd39240f	-0.045200404
226	0xbe25ea0e	-0.16202566
227	0x3e22a1c3	0.1588202
228	0x3e762bdc	0.24040169
229	0xbda7e9ad	-0.08198867
230	0xbe0fb073	-0.14032154
231	0x3ee5502a	0.44787723
232	0xbde8dde5	-0.11370448
233	0x3c5f324a	0.01362283
234	0xbe81b585	-0.253338
235	0x3dcd8c7b	0.1003656
236	0x3dd4049d	0.103524424
237	0xbdf9ba1d	-0.121937014
238	0xbdb93617	-0.0904352
239	0xbe841ef3	-0.25804862
240	0x3efd8016	0.49511784
241	0xbe9bee88	-0.30455422
242	0x3da1e794	0.07905498
243	0x3d8913ae	0.06693207
244	0xbdc83064	-0.09774855
245	0xbc84a17c	-0.016190283
246	0xbce533af	-0.027978746
247	0x3dbe4493	0.09290423
248	0x3ec2037a	0.37893277
249	0x3e32a565	0.17445906
250	0x3cf52de3	0.029929107
251	0x3e3b121e	0.1826863
252	0x3e9ad241	0.30238536
253	0xbc325065	-0.010883425
254	0x3e2cb749	0.16866793
255	0xbd501bea	-0.05080787

bias f4 [26]
0	0x3c9ecdfc	0.01938533
1	0x3d30ce58	0.043165535
2	0xbe3dc8cc	-0.18533629
3	0xbb5b1d83	-0.0033434338
4	0xbde04803	-0.10951235
5	0x3e4f31a7	0.20233785
6	0x3d9b49aa	0.0758241
7	0x3d96a01d	0.07354758
8	0x3d436488	0.047703296
9	0x3e23b8a1	0.15988399
10	0x3def994e	0.116991624
11	0x3dcd0a09	0.1001168
12	0xbe012d26	-0.12614879
13	0x3c7f3f86	0.01557911
14	0xbe15d98a	-0.14633766
15	0xbdb6c651	-0.089245446
16	0x3e0a82e4	0.13526493
17	0xbe550749	-0.2080356
18	0xbe2c4e11	-0.16826655
19	0x3e628455	0.22120793
20	0xbe05698d	-0.13028546
21	0x3d86465b	0.06556388
22	0x3d84613c	0.064638585
23	0xbe14addc	-0.14519447
24	0xbdb2816a	-0.0871609
25	0xbe195a15	-0.1497577
