models/Celeba-user20-agg8/server.pt (torch, 115994 bytes, 22 tensors)

weight f4 [16, 3, 3, 3]
0	0x3d37e2ec	0.044894144
1	0xbd2a2985	-0.041543502
2	0x3dad7fce	0.084716424
3	0x3c1c0e99	0.009524965
4	0x3d946e5b	0.07247611
5	0x3cdc6b84	0.026906736
6	0xbd20f71f	-0.039298173
7	0xbe290054	-0.16504031
8	0x3cb87189	0.022515075
9	0xbe296c11	-0.1654513
10	0x3ce34b3f	0.027745841
11	0x3d088cd5	0.033337433
12	0xbb178900	-0.002312243
13	0x3e2c0c49	0.16801561
14	0x39081555	0.00012977918
15	0x3dac2c74	0.08406916
16	0x3dc1f7e5	0.0947111
17	0xbdf590fc	-0.11990544
18	0xbda60091	-0.08105577
19	0x3e2cf1d7	0.1688913
20	0xbe3c017b	-0.1835994
21	0x3c961e39	0.018324958
22	0xbc9b06f0	-0.018924206
23	0x3defa156	0.11700694
24	0xbc8d8e9f	-0.017279921
25	0x3d789cb2	0.06069631
26	0xbc345716	-0.011007091
27	0xbdaac3c9	-0.08338124
28	0xbdc8f5f0	-0.09812534
29	0xbde25cc6	-0.110528514
30	0xbe401e54	-0.1876157
31	0xbe053c9c	-0.13011402
32	0x3d520744	0.05127646
33	0x3dd77c18	0.10521716
34	0xbb73584c	-0.0037131486
35	0xbda07e6a	-0.078366116
36	0x3de666fa	0.1125011
37	0xbd746c6f	-0.059673723
38	0xbd71ed45	-0.05906417
39	0xbde01926	-0.10942297
40	0xbd6e5122	-0.058182843
41	0xbe2beeb6	-0.1679028
42	0x3d8dd8e7	0.069261365
43	0x3d8f1f37	0.06988376
44	0x3d5192e4	0.051165476
45	0x3decd6fc	0.115644425
46	0x3dc6432b	0.0968078
47	0x3a77d24a	0.0009453638
48	0x3b880512	0.004150995
49	0x3c6e3109	0.014538058
50	0x3defdea7	0.117123894
51	0x3ddeae8a	0.108731344
52	0x3e02476c	0.12722558
53	0x3df5c73e	0.12000893
54	0xbd375b6a	-0.044764914
55	0xbc6a46ed	-0.014299137
56	0xbd2c8867	-0.04212227
57	0x3e0663de	0.13124034
58	0x3d175072	0.036941953
59	0x3e4fc224	0.20288903
60	0x3dbf7db3	0.09350147
61	0xbe1409ea	-0.14456907
62	0x3d7b1ed2	0.06130869
63	0x3e44ab3f	0.1920595
64	0x3e28aaa4	0.16471344
65	0xbc038d81	-0.008029343
66	0x3d8b20bd	0.06793354
67	0xbe419e30	-0.18908
68	0xbd6f47d3	-0.058418106
69	0x3d6ff7ce	0.058585934
70	0xbe4b1df7	-0.1983565
71	0x3e0be295	0.13660653
72	0xbdf2d249	-0.11856515
73	0x3d6aa534	0.057286456
74	0xbb910995	-0.004426191
75	0x3d41d959	0.04732642
76	0x3cd57340	0.026055932
77	0xbe1f4f1b	-0.1555752
78	0xbd979ce0	-0.074029684
79	0xbe0ab537	-0.1354569
80	0x3e16a410	0.14711022
81	0xbcce56cf	-0.025187878
82	0xbe3aebd0	-0.18254018
83	0x3cef7f08	0.029235378
84	0x3dd7bbf6	0.105338976
85	0xbd9b4f2a	-0.07583459
86	0xbc25264b	-0.010079931
87	0x3dcce31b	0.100042544
88	0xbe030dec	-0.1279828
89	0xbdc5a474	-0.096505076
90	0xbd105ace	-0.035242848
91	0xbe0d6aec	-0.13810319
92	0x3dbfafb1	0.09359682
93	0x3cdd86a9	0.02704175
94	0x3def5b60	0.1168735
95	0x3dcddfd0	0.100524545
96	0xbe1057df	-0.1409602
97	0xbe0e7963	-0.13913493
98	0xbe0ebabf	-0.13938425
99	0xbd945777	-0.07243245
100	0xbd836048	-0.064148486
101	0xbd295f0d	-0.041350413
102	0xbe2f7ff6	-0.17138657
103	0x3db0e5bc	0.08637568
104	0x3deab4de	0.11460279
105	0x3d97bd3f	0.07409143
106	0x3dd8d404	0.10587314
107	0x3e0fb7ac	0.14034909
108	0xbe3836f7	-0.17989717
109	0x3d0f2b6e	0.034953527
110	0x3e34a1d7	0.17639862
111	0xbdfb285c	-0.12263557
112	0xbd9b8c4b	-0.07595118
113	0xbcabb9af	-0.020962564
114	0xbdf10ce1	-0.117700346
115	0xbd264a74	-0.040598348
116	0xbcfa9795	-0.030589858
117	0x3e303a15	0.17209657
118	0xbc9884fb	-0.018618098
119	0x3db587ec	0.08863816
120	0x3e18b076	0.14911065
121	0x3dae83ee	0.08521257
122	0xbe434966	-0.19070968
123	0x3e14225f	0.14466237
124	0x3df73738	0.12071079
125	0xbe14a824	-0.14517266
126	0xbd80cc38	-0.06288952
127	0x3e0301b0	0.12793612
128	0xbe4d4ae4	-0.200481
129	0xbe1e68c0	-0.15469646
130	0xbe0540b6	-0.13012967
131	0x3d18d940	0.03731656
132	0xbd9d653a	-0.07685323
133	0xbe3b0dda	-0.18267003
134	0x3d820d00	0.06350136
135	0x3da7cc03	0.08193209
136	0x3d2f8caf	0.042858776
137	0xbe3c7a04	-0.1840592
138	0x3e2d965e	0.16951892
139	0xbbbf37f1	-0.005835526
140	0xbe0da1f4	-0.13831311
141	0xbd1e36d2	-0.0386265
142	0x3e1f1baf	0.15537904
143	0x3e052533	0.13002472
144	0xba6aeae4	-0.0008961393
145	0x3dd94504	0.10608867
146	0xbe57fd10	-0.2109263
147	0x3dfbc248	0.122929156
148	0x3e37a8d3	0.17935495
149	0xbde298fe	-0.11064337
150	0x3d289950	0.041161835
151	0xbc8593a0	-0.016305745
152	0xbe23e95b	-0.16006987
153	0xbafc55e0	-0.0019251667
154	0xbdc61423	-0.096718095
155	0xbe4e7f32	-0.20165709
156	0xbe185cd9	-0.14879169
157	0xba9fee1c	-0.00122017
158	0x3e421269	0.18952335
159	0x3d731c4a	0.05935315
160	0xbdef1f38	-0.116758764
161	0x3e0741e4	0.13208729
162	0x3d05b150	0.0326398
163	0xbe334939	-0.17508401
164	0x3caa4dd3	0.020789063
165	0x3e081fb7	0.13293348
166	0xbdce9edc	-0.10088894
167	0xbca18b99	-0.019719886
168	0xbda401b0	-0.08008134
169	0xbe06f0ae	-0.1317775
170	0xbdc22852	-0.09480347
171	0x3d0a7670	0.033804357
172	0x3e0c787e	0.13717839
173	0xbcb09991	-0.021557601
174	0xbe2754a5	-0.16340883
175	0x3c57c799	0.013170146
176	0xbe2f5088	-0.17120564
177	0x3c96dc0d	0.018415475
178	0x3e1e7f4b	0.15478246
179	0x3dc3bf57	0.095579796
180	0xbdf8504d	-0.12124691
181	0xbd4f643f	-0.05063271
182	0x3d92c25e	0.07165979
183	0x3d396d01	0.04526997
184	0xbe3f006f	-0.18652509
185	0xbe0c8add	-0.13724847
186	0xbd94956d	-0.07255063
187	0x3d88a150	0.06671393
188	0x3e27fa0c	0.16403979
189	0x3da95a8a	0.08269222
190	0x3d92176b	0.07133373
191	0xbe2ac232	-0.16675642
192	0x3df92e62	0.1216705
193	0x3d86d446	0.06583457
194	0xbd8e22d9	-0.069402404
195	0xbd9bf212	-0.076145306
196	0x3d8f1b62	0.06987645
197	0xbdd70bbf	-0.10500287
198	0x3d98293f	0.07429742
199	0x3e1616b6	0.14657101
200	0xbdfb7cd8	-0.122796714
201	0xbde9b0e8	-0.11410695
202	0xbd92d12d	-0.07168803
203	0xbe1be8ba	-0.15225497
204	0x3bb2cee9	0.0054567945
205	0x3e164887	0.14676104
206	0x3db3b039	0.08773846
207	0xbd8c5902	-0.068529144
208	0xbcd5bb00	-0.026090145
209	0xbdabdefe	-0.08392142
210	0xbe23b6c8	-0.15987694
211	0xbd5b62dc	-0.053561077
212	0x3c8174a2	0.015802685
213	0xbdb819f4	-0.08989325
214	0xbe08f2f6	-0.13373932
215	0x3d63ff46	0.05566337
216	0x3c21c872	0.00987445
217	0xbd9f538d	-0.07779608
218	0x3d12f936	0.035882197
219	0x3e29b2dd	0.16572137
220	0xbb709516	-0.0036709956
221	0xbe24963e	-0.16072938
222	0x3e356016	0.17712435
223	0x3e250e87	0.16118823
224	0x3a8c9139	0.0010724432
225	0xbdd49a49	-0.1038099
226	0xbdb7f9d8	-0.08983201
227	0x3e2e5964	0.17026287
228	0x3da4c649	0.080456324
229	0xbe014ee6	-0.12627754
230	0xbd16671c	-0.036719427
231	0x3cd11d08	0.025526538
232	0x3d3920c0	0.04519725
233	0xbd16b162	-0.03679026
234	0xbdc2f664	-0.095196515
235	0x3c7a5533	0.015279102
236	0xbc375918	-0.011190675
237	0xbd812a19	-0.063068576
238	0xbdbb01f6	-0.091312334
239	0xbdbd4574	-0.09241763
240	0xbdbb781c	-0.091537684
241	0x3dcbc2f1	0.099492915
242	0xbe12ebd5	-0.14347775
243	0xbe2e679a	-0.17031708
244	0x3e3f984e	0.18710443
245	0x3d956b01	0.072958
246	0x3da8aa80	0.08235645
247	0x3d9c4ce1	0.07631851
248	0xbdab298c	-0.08357534
249	0xbe0afd74	-0.13573247
250	0xbe0ca6ae	-0.13735458
251	0xbb7dd64f	-0.0038732474
252	0x3d1614b8	0.036640853
253	0xbe2f198f	-0.17099594
254	0xbe1598b5	-0.14609034
255	0x3d9b7f80	0.07592678

bias f4 [16]
0	0x3e04a42b	0.1295325
1	0xbcf28503	-0.02960444
2	0xbd754788	-0.05988267
3	0x3e1db798	0.15402067
4	0x3d9da2fe	0.07697104
5	0xbe2f03fa	-0.1709136
6	0xbe1843fe	-0.14869687
7	0xbe40d34d	-0.18830605
8	0xbda61b61	-0.08110691
9	0xbd036a2a	-0.032083668
10	0x3d9065c5	0.07050661
11	0x3de71ce0	0.11284804
12	0xbe2fbbd8	-0.171615
13	0x3dc918b4	0.09819165
14	0x3d892e45	0.06698278
15	0x3d815599	0.063151546

weight f4 [16]
0	0x3f8011b2	1.00054
1	0x3f80b2a3	1.0054516
2	0x3f7f8527	0.9981255
3	0x3f7db097	0.9909758
4	0x3f7f4424	0.9971335
5	0x3f7c82d5	0.98637134
6	0x3f807b06	1.0037544
7	0x3f7f2f27	0.99681324
8	0x3f811fee	1.0087869
9	0x3f815519	1.0104095
10	0x3f815788	1.0104837
11	0x3f7c0297	0.9844145
12	0x3f7d2e11	0.98898417
13	0x3f819652	1.0123999
14	0x3f8037a6	1.0016983
15	0x3f803d64	1.0018735

bias f4 [16]
0	0xbbee48fe	-0.007271885
1	0x39ac77cf	0.0003289566
2	0xbc0f85c8	-0.008759923
3	0x3c24fbe0	0.010069817
4	0xbbd062f2	-0.0063594515
5	0xbc838f51	-0.01605955
6	0x3c7079e0	0.014677495
7	0xbbdb957d	-0.00670117
8	0x3a9955d5	0.0011698554
9	0x3b1e2472	0.002413061
10	0x3d03d020	0.032180905
11	0xbc072e5c	-0.008250799
12	0x3b6361f6	0.003469584
13	0x391ba442	0.00014843143
14	0x3bed0afa	0.0072339745
15	0x3a88d2c6	0.0010438792

running_mean f4 [16]
0	0x00000000	0.0
1	0x00000000	0.0
2	0x00000000	0.0
3	0x00000000	0.0
4	0x00000000	0.0
5	0x00000000	0.0
6	0x00000000	0.0
7	0x00000000	0.0
8	0x00000000	0.0
9	0x00000000	0.0
10	0x00000000	0.0
11	0x00000000	0.0
12	0x00000000	0.0
13	0x00000000	0.0
14	0x00000000	0.0
15	0x00000000	0.0

running_var f4 [16]
0	0x3f800000	1.0
1	0x3f800000	1.0
2	0x3f800000	1.0
3	0x3f800000	1.0
4	0x3f800000	1.0
5	0x3f800000	1.0
6	0x3f800000	1.0
7	0x3f800000	1.0
8	0x3f800000	1.0
9	0x3f800000	1.0
10	0x3f800000	1.0
11	0x3f800000	1.0
12	0x3f800000	1.0
13	0x3f800000	1.0
14	0x3f800000	1.0
15	0x3f800000	1.0

weight f4 [32, 16, 3, 3]
0	0xbdb1fce3	-0.086908124
1	0xbd910947	-0.07081848
2	0xbc5a822a	-0.013336698
3	0x3d50440d	0.05084615
4	0xbc679bc7	-0.014136261
5	0xbcbc623e	-0.022996064
6	0x3c7d80e8	0.015472628
7	0x3c221e22	0.00989488
8	0x3a67478b	0.00088226114
9	0x3ba5ef0a	0.005063896
10	0xbd5aa288	-0.053377658
11	0x3d967d0a	0.07348068
12	0x3ca9ac9a	0.020712186
13	0x3d5ecd0c	0.054394767
14	0xbd4a3c4e	-0.049373917
15	0xbc05eb58	-0.008173786
16	0x3d4d4beb	0.05012123
17	0xbd3d9a48	-0.046289712
18	0x3b6b783a	0.0035929815
19	0xbd82666c	-0.06367192
20	0xbc8057c7	-0.015666855
21	0x3adcc7a6	0.0016844168
22	0xbda28fbf	-0.07937574
23	0x3d1ed0c9	0.03877333
24	0x3d2b9898	0.04189357
25	0xbda5ed84	-0.08101943
26	0x3cee1576	0.029062968
27	0xbce68da9	-0.02814372
28	0xbdb03daa	-0.086055115
29	0x3a80a02e	0.0009813362
30	0x3d77b3fe	0.06047439
31	0x3c2c3e78	0.010512941
32	0x3c3141c8	0.010818906
33	0x3daad273	0.08340921
34	0x3c66167d	0.014043448
35	0x3d48bc9a	0.04900799
36	0xbd9be7df	-0.07612585
37	0x3d2b57e3	0.041831862
38	0x3d84c663	0.06483152
39	0x3cb39906	0.021923553
40	0xbce8c742	-0.028415326
41	0x3d878233	0.066166304
42	0xbd487531	-0.048939887
43	0x3c52e256	0.0128713455
44	0xbdd64d8e	-0.10464011
45	0xbd691310	-0.056902945
46	0xbd8bff60	-0.06835818
47	0xbd7da0a4	-0.061920777
48	0xbca2b198	-0.019860074
49	0xbd82be24	-0.06383923
50	0xbd94524e	-0.07242261
51	0xbd23b116	-0.039963804
52	0x3cb3379f	0.021877108
53	0x3d8e6405	0.06952671
54	0x3d3008c8	0.042977124
55	0xbd37ae1d	-0.04484378
56	0xbd22ddce	-0.03976231
57	0x3cb57d63	0.022154516
58	0xbd64ef24	-0.055892125
59	0xbd762eca	-0.060103215
60	0xbd0cab32	-0.034342952
61	0x3d5dd087	0.054153945
62	0x3d5f466a	0.05451051
63	0xbd986a9f	-0.07442211
64	0x3db7e5c7	0.089793734
65	0xbd0ee60c	-0.03488736
66	0xbd2cdc84	-0.042202488
67	0xbd992738	-0.074781835
68	0x3d9ddb32	0.07707824
69	0x3d843cb3	0.0645689
70	0x3d48f9e0	0.049066424
71	0x39a31a36	0.0003110931
72	0xbb248393	-0.0025102838
73	0x3d159662	0.03652037
74	0xbb2ea4ae	-0.002664845
75	0xbda8146c	-0.0820702
76	0xbd000bf3	-0.031261396
77	0x3d23c316	0.03998097
78	0xbd9fd679	-0.07804579
79	0xbdb3acc3	-0.08773186
80	0x3d4ac66d	0.04950564
81	0xbd7ffb5a	-0.062495567
82	0x3bcca8e8	0.006245721
83	0x3db3e279	0.087834306
84	0x3ccb3109	0.024803655
85	0xbb84f82e	-0.0040579056
86	0x3cd8fa71	0.026486607
87	0x3daeb584	0.08530715
88	0xbd7762c7	-0.060396936
89	0x3d27d433	0.040973853
90	0xbce60e02	-0.028082851
91	0xbd6199a4	-0.055078164
92	0x3b163b94	0.0022923695
93	0x3d58224e	0.05276709
94	0xbd7f482f	-0.0623247
95	0xbc69e82d	-0.014276546
96	0xbbc5d436	-0.0060372604
97	0x3ce3a07f	0.027786491
98	0xb980a85c	-0.000245395
99	0x3d428009	0.047485385
100	0x3d5b827e	0.053591244
101	0x3cfad97c	0.030621283
102	0xbd00342c	-0.031299755
103	0xbbade746	-0.005307111
104	0x3d9683f5	0.073493876
105	0x3d600cd6	0.05469974
106	0xbda7966a	-0.08182986
107	0x3c9f1054	0.019416966
108	0x3d1e0c02	0.03858567
109	0x3c97b4ab	0.018518766
110	0x3c496cdb	0.01229402
111	0xbd534ceb	-0.051587027
112	0x3d225d9a	0.039640047
113	0xbd32fc82	-0.04369784
114	0x3d82a442	0.06378986
115	0xbdafc80a	-0.08583076
116	0xbdb3969f	-0.08768963
117	0xbc3f6461	-0.011681647
118	0x3bf33891	0.0074225147
119	0x3d069dcc	0.03286533
120	0xbd410ada	-0.04712949
121	0x3cf4c1d6	0.029877584
122	0xbda01113	-0.07815757
123	0x3d03007d	0.031982888
124	0x3d053e71	0.032530252
125	0xbd1635e1	-0.036672477
126	0x3b9e8412	0.0048375214
127	0x3d198406	0.037479423
128	0xbc878db8	-0.016547069
129	0x3c4f8a46	0.012667244
130	0xbd66f31c	-0.05638419
131	0xbb4ac77e	-0.003094166
132	0x3cc9b85f	0.024624048
133	0x3bc578c7	0.0060263607
134	0xbd438f85	-0.047744293
135	0xbbdc1f84	-0.006717624
136	0x3d569bb8	0.0523946
137	0xbd6c1a12	-0.05764205
138	0x3cfeaf0f	0.031089334
139	0xbce97bad	-0.028501356
140	0xbcdd85d8	-0.02704136
141	0xbd25198f	-0.040307578
142	0x3ccd3fc9	0.02505483
143	0x3d6aceca	0.057326116
144	0xbd8e678a	-0.06953342
145	0x3d9171e4	0.07101801
146	0x3d014d48	0.03156784
147	0xbba601b8	-0.005066123
148	0x3d6abfeb	0.057311933
149	0x3cb66fc3	0.022270089
150	0x3bf48bc6	0.0074629514
151	0x3cdf2db8	0.02724348
152	0xbc119384	-0.008885268
153	0x3d8044d2	0.062631264
154	0x3b496054	0.0030727582
155	0x3dac336f	0.08408248
156	0x3c036a44	0.008020941
157	0xbd19fb04	-0.037592903
158	0xbc38f4a6	-0.0112887975
159	0xbd89d734	-0.067305
160	0xbd0f93d1	-0.035053078
161	0x3c9b30b3	0.01894412
162	0xbd835eaf	-0.06414544
163	0xbda52c2a	-0.08065064
164	0x3c06f161	0.00823626
165	0x3bf5e726	0.0075043617
166	0xbd3c128d	-0.04591613
167	0x3db92913	0.090410374
168	0xbc9d1bb4	-0.019178249
169	0xbd36bc28	-0.044613034
170	0x3c1ee133	0.009697246
171	0x3d27e32f	0.040988144
172	0xbd41b2e7	-0.047289755
173	0x3ac992a6	0.0015378788
174	0x3ceb5c3a	0.0287305
175	0x3d320d36	0.04346963
176	0xbb9ee59c	-0.004849149
177	0xbdad1adb	-0.08452388
178	0xbd849115	-0.06472985
179	0x3d8c54e6	0.068521306
180	0x3d5be799	0.053687666
181	0x3da494fe	0.080362305
182	0x3cc80d29	0.024420338
183	0x3ccbf64f	0.024897723
184	0xbcb4adf2	-0.0220556
185	0x3c74c602	0.014939787
186	0x3d0ce3fc	0.03439711
187	0xbd4f1258	-0.050554603
188	0xba9a8eda	-0.0011791841
189	0xbda29a94	-0.0793964
190	0x3d381fc3	0.044952165
191	0xbc13ce9b	-0.009021427
192	0xbd5a77a5	-0.05333676
193	0x3d41173a	0.04714129
194	0xbcf55879	-0.029949414
195	0xbd6e77d1	-0.058219735
196	0x3c382460	0.011239141
197	0xbd7fde49	-0.062467847
198	0x3c9730e7	0.018455936
199	0x3d00a7b0	0.03140992
200	0xbbec9fd0	-0.0072211996
201	0x3ba861f9	0.0051386324
202	0xbc6e635a	-0.014550054
203	0x3d21cdb7	0.039502826
204	0x3d897667	0.067120366
205	0x3b209132	0.0024500606
206	0xbd940663	-0.07227781
207	0x3d3af22e	0.045641117
208	0x3d14af9f	0.036300298
209	0x3ce6647a	0.028124083
210	0xbd08186e	-0.033226423
211	0x3cef77f2	0.029232
212	0x3d6000b8	0.054688185
213	0x3d6a05a1	0.057134274
214	0xbd77a38c	-0.060458705
215	0x3b7cdb77	0.003858296
216	0xbd89d16c	-0.06729397
217	0xbd9719d0	-0.0737797
218	0xbd4dc331	-0.050234977
219	0x3d30ff2e	0.04321211
220	0x3d33fcbe	0.043942206
221	0xbd88cc08	-0.06679541
222	0xbc65c2d3	-0.0140235005
223	0x3d070fe3	0.032974135
224	0x3cd8bb93	0.02645663
225	0x3d337ebd	0.04382204
226	0x3d754f90	0.05989033
227	0x3d095d92	0.0335365
228	0xbd67103b	-0.056411963
229	0x3d09f41b	0.033680063
230	0x3c53f72b	0.012937347
231	0xbda1ceac	-0.07900748
232	0x3d30e63d	0.043188322
233	0x3d70f8f6	0.058831178
234	0xbd10a2d1	-0.035311524
235	0x3a688507	0.000886992
236	0x3d3b8f7a	0.045791127
237	0x3c2dee67	0.010615922
238	0x3d6d23d6	0.057895504
239	0xbd8d575c	-0.06901428
240	0xbc61f368	-0.013790943
241	0xbd95f69d	-0.073224284
242	0x3dab8608	0.08375174
243	0xbd09bc6a	-0.03362695
244	0x3d1f71a4	0.038926736
245	0x3cf9589c	0.03043776
246	0xbceab4a9	-0.028650599
247	0xbd92326d	-0.07138524
248	0x3da3db58	0.08000821
249	0x3d87d191	0.066317685
250	0xbca384f0	-0.01996085
251	0xbc935a15	-0.01798729
252	0x3d9f1fd2	0.07769741
253	0x3c304e8a	0.010760913
254	0xbda657ca	-0.08122213
255	0x3d2cbb5f	0.04217088

bias f4 [32]
0	0x3d89600f	0.06707775
1	0x3d014e86	0.031569026
2	0xbda5b1e1	-0.08090568
3	0xbbd4a376	-0.0064892126
4	0xbda42f60	-0.080168486
5	0x3d6fce0e	0.05854612
6	0x3ccfac40	0.02535069
7	0x3d7b2d47	0.061322477
8	0xbc5ef210	-0.013607517
9	0x3cae3874	0.021267153
10	0xbd7384c9	-0.059452806
11	0xbd89178a	-0.06693943
12	0x3da01f60	0.07818484
13	0x3ccccfad	0.025001371
14	0xbd3194c9	-0.043354783
15	0xbca0c0f6	-0.019623261
16	0xb9ae9539	-0.00033299046
17	0x38ecad8c	0.000112856826
18	0xbd36983d	-0.04457878
19	0xbca9d144	-0.020729668
20	0xbd112566	-0.035436057
21	0xbd33d0d0	-0.04390031
22	0xbd97719f	-0.073947184
23	0x3d713f87	0.058898475
24	0xbc7e8a68	-0.015535928
25	0x3d2eb58b	0.0426536
26	0x3c8a1f22	0.016860548
27	0x3d532af0	0.05155462
28	0x3da7663d	0.08173797
29	0xbb8cbeeb	-0.00429522
30	0xbd0c7856	-0.03429445
31	0x3cbdd74e	0.023173954

weight f4 [32]
0	0x3f8135c9	1.0094539
1	0x3f7f49be	0.99721897
2	0x3f8097c3	1.0046314
3	0x3f836364	1.0264707
4	0x3f806e4a	1.0033658
5	0x3f7e5c94	0.99360013
6	0x3f7c6cd6	0.9860357
7	0x3f81257a	1.0089562
8	0x3f7d6bc8	0.98992586
9	0x3f7e5f54	0.9936421
10	0x3f81d128	1.0141954
11	0x3f7ea022	0.99463093
12	0x3f7d21af	0.9887952
13	0x3f818b97	1.0120724
14	0x3f8043e5	1.002072
15	0x3f814f1b	1.0102266
16	0x3f828e79	1.0199729
17	0x3f7c1c3e	0.98480594
18	0x3f8089fa	1.0042107
19	0x3f7e0a64	0.99234605
20	0x3f80476a	1.0021794
21	0x3f8184eb	1.0118688
22	0x3f807906	1.0036933
23	0x3f7c52b4	0.98563695
24	0x3f80f8d5	1.0075938
25	0x3f7f0620	0.9961872
26	0x3f7cd7c4	0.9876673
27	0x3f7eb248	0.99490786
28	0x3f7dc601	0.99130255
29	0x3f7b94f2	0.9827415
30	0x3f7fdcdf	0.999464
31	0x3f7f8198	0.9980712

bias f4 [32]
0	0xb91a68b2	-0.00014725587
1	0xbbbbe4c7	-0.0057340595
2	0xbc3d2068	-0.011543371
3	0x386a06b0	5.5796176e-05
4	0xbc0c27de	-0.008554427
5	0xbb69a994	-0.0035654055
6	0xbbba3318	-0.0056823604
7	0xbbc332f7	-0.005957003
8	0xbc3fbe24	-0.011703048
9	0xbc6a0299	-0.014282846
10	0xbbd77990	-0.0065757707
11	0xbb699e17	-0.0035647207
12	0xb9b8b8bc	-0.00035232853
13	0xbbc58247	-0.006027493
14	0xbb448521	-0.0029986578
15	0xbba947aa	-0.0051660137
16	0xbbc4d6bb	-0.006007043
17	0xbb86bdbd	-0.004111974
18	0xbba2c21a	-0.0049669864
19	0x39c25a70	0.00037069945
20	0xbc5afbd9	-0.013365709
21	0x3b77fad8	0.0037838724
22	0xbbbcd6c8	-0.0057629086
23	0xbb40b178	-0.0029402655
24	0xbafe579b	-0.001940477
25	0x3963b560	0.00021715974
26	0xbbb851a0	-0.005624965
27	0xbb8a5f5a	-0.0042227926
28	0xbbbae8da	-0.0057040276
29	0xbb8d7def	-0.004317991
30	0xbbd2d3a4	-0.006433921
31	0xbb70488c	-0.0036664335

running_mean f4 [32]
0	0x00000000	0.0
1	0x00000000	0.0
2	0x00000000	0.0
3	0x00000000	0.0
4	0x00000000	0.0
5	0x00000000	0.0
6	0x00000000	0.0
7	0x00000000	0.0
8	0x00000000	0.0
9	0x00000000	0.0
10	0x00000000	0.0
11	0x00000000	0.0
12	0x00000000	0.0
13	0x00000000	0.0
14	0x00000000	0.0
15	0x00000000	0.0
16	0x00000000	0.0
17	0x00000000	0.0
18	0x00000000	0.0
19	0x00000000	0.0
20	0x00000000	0.0
21	0x00000000	0.0
22	0x00000000	0.0
23	0x00000000	0.0
24	0x00000000	0.0
25	0x00000000	0.0
26	0x00000000	0.0
27	0x00000000	0.0
28	0x00000000	0.0
29	0x00000000	0.0
30	0x00000000	0.0
31	0x00000000	0.0

running_var f4 [32]
0	0x3f800000	1.0
1	0x3f800000	1.0
2	0x3f800000	1.0
3	0x3f800000	1.0
4	0x3f800000	1.0
5	0x3f800000	1.0
6	0x3f800000	1.0
7	0x3f800000	1.0
8	0x3f800000	1.0
9	0x3f800000	1.0
10	0x3f800000	1.0
11	0x3f800000	1.0
12	0x3f800000	1.0
13	0x3f800000	1.0
14	0x3f800000	1.0
15	0x3f800000	1.0
16	0x3f800000	1.0
17	0x3f800000	1.0
18	0x3f800000	1.0
19	0x3f800000	1.0
20	0x3f800000	1.0
21	0x3f800000	1.0
22	0x3f800000	1.0
23	0x3f800000	1.0
24	0x3f800000	1.0
25	0x3f800000	1.0
26	0x3f800000	1.0
27	0x3f800000	1.0
28	0x3f800000	1.0
29	0x3f800000	1.0
30	0x3f800000	1.0
31	0x3f800000	1.0

weight f4 [64, 32, 3, 3]
0	0xbd182613	-0.037145685
1	0xbcf5d896	-0.030010503
2	0xbc4cb824	-0.012495074
3	0xbd583001	-0.052780155
4	0xbd1086cc	-0.035284802
5	0x3c8b0df4	0.016974427
6	0xbbc3e21e	-0.005977883
7	0x3bb64f1c	0.00556363
8	0xbd4206c4	-0.047369733
9	0x3ce25eaa	0.02763303
10	0xbcecf92d	-0.02892741
11	0x3c7472d1	0.0149199525
12	0x3caec0c4	0.021332152
13	0x3d330d7c	0.04371403
14	0x3d194eca	0.037428655
15	0x3d40a69f	0.047033902
16	0x3c772c24	0.015086208
17	0x3c80583b	0.015667072
18	0xbd53ad36	-0.05167886
19	0x3c7234c4	0.014783088
20	0xbd7c2ad0	-0.061564267
21	0x3cb451cf	0.022011666
22	0x39a4a04a	0.00031399942
23	0xbd093022	-0.03349317
24	0x3c4d49a0	0.012529761
25	0xbcf2fab8	-0.029660568
26	0x3d310582	0.043218143
27	0xbd31e0e6	-0.04342737
28	0xbcfd04c7	-0.030886067
29	0x3c471a06	0.012152201
30	0xbcded6c2	-0.027202014
31	0x3cd7c9cf	0.026341347
32	0x3c2df230	0.010616824
33	0x3cfe0c0b	0.031011602
34	0x3bb4d22b	0.005518218
35	0xbd4fc56a	-0.050725378
36	0xbd09637a	-0.033542134
37	0xbd3fbc5b	-0.04681049
38	0x3d5549c4	0.0520723
39	0xbc06b570	-0.008221969
40	0x3aa7416a	0.0012760584
41	0xbd3bf79f	-0.045890447
42	0xbca3b06f	-0.019981591
43	0x3d26dd77	0.04073855
44	0xbb825915	-0.0039779046
45	0x3cae22ff	0.021256922
46	0x3d563bed	0.052303243
47	0x3c66ea13	0.014093894
48	0xbcaf08e7	-0.02136655
49	0x3d44cb8b	0.048045676
50	0x3bc8cd36	0.0061279787
51	0x3d3e13e2	0.04640568
52	0xbca799d2	-0.02045909
53	0xbcb8f02c	-0.02257546
54	0x3cce5e37	0.02519141
55	0xbd0a1174	-0.03370805
56	0x3cc1f659	0.023677038
57	0xbcfc6c66	-0.030813407
58	0xbc9b5e31	-0.018965812
59	0x3ba7b93e	0.005118518
60	0xbbf5a739	-0.007496741
61	0x3d3cda9b	0.046106916
62	0xbd382832	-0.04496021
63	0x3cfb851c	0.03070312
64	0xbbaf750c	-0.0053545292
65	0x3cc2068a	0.023684759
66	0xbba3d666	-0.0049999235
67	0x3d55f624	0.05223669
68	0xbd28e8dc	-0.041237697
69	0xbc7a35a8	-0.015271582
70	0x3cb02189	0.021500366
71	0x3d101be2	0.03518284
72	0xbd5dc187	-0.05413964
73	0x3bdd8b33	0.0067609786
74	0x3cb39207	0.021920217
75	0xbca09573	-0.019602513
76	0xbb642ede	-0.0034817974
77	0x3d19cec0	0.037550688
78	0x3c453784	0.012037162
79	0xbc378afc	-0.01120257
80	0x3c2c4011	0.0105133215
81	0xbd4366f9	-0.047705624
82	0x3d0f0011	0.034912173
83	0xbd35c31c	-0.044375524
84	0x3ccfab9c	0.025350384
85	0xbc8461bd	-0.016159886
86	0xbd1fb8c1	-0.038994554
87	0x3d1dffac	0.038573906
88	0x3c6869fe	0.014185427
89	0x3c0bcd1d	0.00853279
90	0xbbd9337b	-0.0066284514
91	0xbd2c7ece	-0.042113118
92	0x3cbec6c0	0.02328813
93	0xbcfee28d	-0.031113887
94	0xbcef97f3	-0.02924726
95	0x3c96fa05	0.018429765
96	0x3ccccf78	0.025001273
97	0xbd13a64e	-0.036047272
98	0xbce96a41	-0.028493049
99	0x3d0d1827	0.03444686
100	0xbd0ed2b7	-0.034868922
101	0xbd0c1532	-0.0341999
102	0x3c6c7820	0.014432937
103	0x3c18db35	0.009329607
104	0xbce5bd64	-0.02804441
105	0xbd0b8b9a	-0.03406868
106	0xbce2ad30	-0.027670473
107	0x3c77cbb5	0.015124251
108	0x3d2deda6	0.042462967
109	0xbd2ae5a6	-0.041722916
110	0xbcb17845	-0.021663794
111	0xbd780609	-0.06055263
112	0x3d402036	0.04690572
113	0xbc7212f8	-0.01477503
114	0x3d55ce29	0.052198563
115	0xb9f64ec7	-0.0004697947
116	0xbc93983e	-0.01801693
117	0xbd686376	-0.05673548
118	0xbcfe8dce	-0.031073477
119	0xbd55fb42	-0.05224157
120	0xbd489ed5	-0.0489796
121	0xbd308ad6	-0.043101154
122	0x3c710876	0.01471149
123	0x3c3f1e81	0.011664988
124	0x3ab2d44a	0.0013643589
125	0x3c6b05e5	0.014344667
126	0x3ce1be2d	0.027556503
127	0x3cdd8a19	0.02704339
128	0x3d3c49d7	0.045968857
129	0xbc965a16	-0.018353503
130	0x3d8424a8	0.06452304
131	0x3c70ac18	0.014689468
132	0xbb876411	-0.004131802
133	0xbd4bfe53	-0.04980309
134	0xbca206b7	-0.019778593
135	0xbc045bac	-0.008078497
136	0x3d1a55fd	0.03767966
137	0xbb23e525	-0.0025008407
138	0xbd58c6fc	-0.05292414
139	0x3ce53e74	0.027983882
140	0xbd64dfdf	-0.055877563
141	0xbd49834e	-0.049197488
142	0x3d22b50f	0.039723452
143	0x3cc6ac63	0.024252122
144	0x3cf20885	0.029545078
145	0x3d48373e	0.048880808
146	0xbd7695e6	-0.060201548
147	0xbc18a1aa	-0.0093158875
148	0x3cfb691c	0.030689768
149	0x3cd4c273	0.025971627
150	0xbd4c7c8d	-0.04992347
151	0x3d4170c8	0.047226697
152	0x3c702278	0.0146566555
153	0x3c83c329	0.01608427
154	0xbc8fb77f	-0.017543552
155	0xbcb25f85	-0.021774063
156	0x397e5992	0.00024256695
157	0xbd44e28b	-0.04806761
158	0xbcefe23d	-0.029282684
159	0xbbe1dd20	-0.006892815
160	0xbb9a569f	-0.004710033
161	0xbd5a046a	-0.053226866
162	0x3ce11429	0.027475433
163	0xbc677227	-0.014126337
164	0xbd237ab7	-0.039911952
165	0x3d164db8	0.036695212
166	0x3d3f11a4	0.046647683
167	0xbcdca34d	-0.026933337
168	0xbd4bfba7	-0.04980054
169	0xbd052c06	-0.032512687
170	0x3d6983a7	0.05701032
171	0xbc0a8a0d	-0.008455765
172	0x3d4e9ff9	0.05044553
173	0xbd190288	-0.03735593
174	0xbd44e73e	-0.048072092
175	0xbc53d35e	-0.012928812
176	0xbd33a25a	-0.043856002
177	0xbd0da756	-0.034583412
178	0xba0fda0c	-0.00054875086
179	0xbab7f507	-0.0014034816
180	0xbce8e963	-0.0284316
181	0x3d77fa02	0.06054116
182	0x3c849a73	0.016186928
183	0x3cb51731	0.022105785
184	0xbc9cb556	-0.019129436
185	0xbcbd2360	-0.023088157
186	0x3d6ffd01	0.058590893
187	0x3c9e1090	0.019295007
188	0xbcd7942a	-0.026315767
189	0x3d05dd8d	0.03268199
190	0x3d293875	0.041313607
191	0x3d2ef3a8	0.042712837
192	0xbba997b1	-0.0051755537
193	0xbd3df2b7	-0.04637405
194	0x3d79226c	0.060823843
195	0x3d46f3b6	0.048572265
196	0xbc9380d2	-0.018005762
197	0xbd414427	-0.047184136
198	0xbcf78154	-0.030213036
199	0x3d389377	0.04506251
200	0x3c97ce35	0.018530944
201	0x3cebf3ee	0.028802838
202	0x3be179b0	0.0068809614
203	0x3c9c84c5	0.019106278
204	0xbd6c6f30	-0.057723224
205	0xbce273a2	-0.027643029
206	0xbcd8f72f	-0.026485054
207	0x3c84b761	0.016200723
208	0xbd4d43b9	-0.050113413
209	0x3d15d070	0.036575735
210	0xbcfdc2bb	-0.030976644
211	0xbc2c952d	-0.010533613
212	0xbd26e3ac	-0.04074447
213	0xbcd0973a	-0.025462735
214	0xbc970570	-0.01843521
215	0x3d27bc81	0.040951256
216	0x3cc4b0bf	0.02401006
217	0x3d02810c	0.03186135
218	0xbc890a74	-0.016728617
219	0xbc46df3c	-0.012138184
220	0xbcda43f3	-0.026643729
221	0xbcaf52e2	-0.021401826
222	0xbd3fc5d8	-0.046819538
223	0xbd3490d2	-0.044083424
224	0x3d271147	0.04078796
225	0xbcff26c6	-0.031146418
226	0xbd70ab15	-0.058756907
227	0xbcbc2e19	-0.0229712
228	0x3ce24cd8	0.027624533
229	0xbc8d8ebc	-0.017279975
230	0xbd17602e	-0.03695696
231	0xbbfa081a	-0.0076303603
232	0x3c989774	0.018626906
233	0x3cdfb49f	0.027307807
234	0x3d525b66	0.051356696
235	0x3bf77314	0.00755156
236	0x3d283591	0.04106671
237	0x3cfbb00d	0.030723596
238	0xbd210d51	-0.03931934
239	0x3c1c8d1d	0.009555128
240	0xbd5a060e	-0.05322843
241	0xbca7f716	-0.020503562
242	0x3b514670	0.0031932853
243	0x3d1470f8	0.036240548
244	0xbd65da6b	-0.056116503
245	0x3d6f85a3	0.058477055
246	0xbbd0ec2f	-0.0063758115
247	0xbc6caba7	-0.014445222
248	0x3bfb1f63	0.0076636537
249	0x3d02b214	0.03190811
250	0xbbb1f72a	-0.0054310756
251	0x3d0f196a	0.034936346
252	0xbc972275	-0.018449048
253	0xbd44abae	-0.04801529
254	0x3c29d927	0.010366715
255	0xbd2f7b98	-0.042842478

bias f4 [64]
0	0x3c04ee9f	0.008113532
1	0x3d21f80e	0.039543204
2	0xbd18a164	-0.03726329
3	0xbce31b6b	-0.027723035
4	0x3d463b98	0.048396677
5	0xbd082132	-0.033234783
6	0xbd05e0a2	-0.03268493
7	0x3d4d9564	0.050191298
8	0xbc8ec132	-0.017426107
9	0xbc8d1d68	-0.017225936
10	0x3cd225eb	0.025652846
11	0x3cbc5d46	0.022993695
12	0x3d5ca307	0.053866412
13	0xbd37da71	-0.044886056
14	0xbcc45f02	-0.023971085
15	0x3d3ef518	0.04662046
16	0x3d2e75c2	0.04259277
17	0x3c8f7aed	0.01751467
18	0x3bf30ab5	0.007417048
19	0x3d469b2f	0.04848784
20	0xbd56c158	-0.05243048
21	0x3d0e4900	0.034737587
22	0xbd68a974	-0.056802228
23	0x3d242030	0.04006976
24	0xbd621ade	-0.055201404
25	0xbcc3fe79	-0.023925053
26	0xbce6fea4	-0.028197594
27	0xbc3e72e4	-0.011624072
28	0x3d4dd156	0.050248466
29	0x3be2171a	0.0068997266
30	0xbd35b17a	-0.044358708
31	0x3c151a9e	0.009100584
32	0xbd648d88	-0.055799037
33	0xbbb388a1	-0.005478934
34	0xbd43a79a	-0.04776726
35	0x3d2fd70c	0.042929694
36	0xbd577914	-0.052605703
37	0xbb430585	-0.0029757929
38	0x3d2e9649	0.04262379
39	0x3bb0529d	0.005380942
40	0xbbfdf1c0	-0.007749766
41	0xbcb4a059	-0.022049116
42	0x3c88c304	0.016694553
43	0xbd36b5a9	-0.04460684
44	0x3d5d2335	0.053988654
45	0x3d2bf2c0	0.04197955
46	0x3cc7aecf	0.024375347
47	0x3d0b689e	0.034035318
48	0xbd2db5e8	-0.042409807
49	0x3c808bba	0.015691627
50	0xbbd35ad5	-0.006450037
51	0x3bb06504	0.0053831358
52	0x3d04c8b4	0.032417968
53	0x3d5980ad	0.05310123
54	0xbcf14a9a	-0.029454518
55	0xbbce7058	-0.0063000135
56	0xbd6477b8	-0.055778235
57	0x3c164db5	0.0091738
58	0x3d077fda	0.033080913
59	0x3cbb1fb1	0.02284226
60	0xbc0f38f8	-0.00874161
61	0x3ca4e24b	0.020127436
62	0x3d19e4a7	0.037571575
63	0x3b8306cc	0.003998613

weight f4 [64]
0	0x3f80d72c	1.0065665
1	0x3f7ffe00	0.9999695
2	0x3f8057c3	1.0026783
3	0x3f80927b	1.0044702
4	0x3f821c72	1.0164931
5	0x3f8043a1	1.0020639
6	0x3f8812c8	1.0630732
7	0x3f8019a8	1.000783
8	0x3f83bcdd	1.0292011
9	0x3f7fde8b	0.9994895
10	0x3f849c6f	1.036024
11	0x3f972b84	1.1810155
12	0x3f85f7a0	1.0466194
13	0x3f7fc43e	0.99908817
14	0x3f857fee	1.0429666
15	0x3f803fc0	1.0019455
16	0x3f80dd96	1.0067623
17	0x3f80f1e4	1.0073819
18	0x3f8057f2	1.0026839
19	0x3f800a5e	1.0003164
20	0x3f806617	1.0031155
21	0x3f81fe28	1.0155687
22	0x3f8200c3	1.0156482
23	0x3f806445	1.00306
24	0x3f80838e	1.0040147
25	0x3f827b9a	1.019397
26	0x3f7ff761	0.99986845
27	0x3f7fc63e	0.9991187
28	0x3f7fd79e	0.9993838
29	0x3f7fdd98	0.999475
30	0x3f86dd48	1.053628
31	0x3f808132	1.0039427
32	0x3f80630a	1.0030224
33	0x3f8007cb	1.0002378
34	0x3f952cc4	1.1654286
35	0x3f7fca2e	0.99917877
36	0x3f80d6f4	1.0065598
37	0x3f81d3d3	1.0142769
38	0x3f833f2a	1.0253651
39	0x3f7fa561	0.99861723
40	0x3f804918	1.0022306
41	0x3f80218e	1.001024
42	0x3f8b9ee1	1.0907861
43	0x3f821841	1.0163652
44	0x3f80c424	1.0059857
45	0x3f806a44	1.003243
46	0x3f800f26	1.0004623
47	0x3f800356	1.0001018
48	0x3f84f89b	1.0388368
49	0x3f801153	1.0005287
50	0x3f80384b	1.0017179
51	0x3f80efd9	1.0073196
52	0x3f830136	1.0234745
53	0x3f83fcbe	1.0311506
54	0x3f819270	1.0122814
55	0x3f7fea57	0.9996695
56	0x3f8050cf	1.0024661
57	0x3f800127	1.0000352
58	0x3f80fb78	1.0076742
59	0x3f80d7f8	1.0065908
60	0x3f81604d	1.0107514
61	0x3f7ffc2d	0.99994165
62	0x3f7fe83e	0.9996375
63	0x3f806b08	1.0032663

bias f4 [64]
0	0x3a2d4ba8	0.00066107
1	0xba299251	-0.0006468641
2	0xba37ce98	-0.0007011681
3	0x385679b4	5.113492e-05
4	0xb9698fa0	-0.00022274116
5	0x3a6cd87e	0.00090349454
6	0x3b4b9f36	0.003107024
7	0xba91d648	-0.0011126483
8	0x3af10086	0.0018386997
9	0xb9416d2c	-0.00018446584
10	0x3b0b5129	0.0021258092
11	0x3c02604d	0.00795753
12	0x3b5b9565	0.0033505794
13	0xba921c8e	-0.0011147426
14	0xb94119ad	-0.0001841548
15	0xba6f9d39	-0.00091405545
16	0xb9c9987a	-0.0003845131
17	0xba0fbf48	-0.000548352
18	0x3a16aa6a	0.00057474396
19	0xb807726e	-3.229308e-05
20	0x39fbbc87	0.00048014915
21	0x3af96ae6	0.0019029051
22	0x3acd63b6	0.0015669975
23	0x3992a131	0.00027967387
24	0xb9a57cbd	-0.0003156419
25	0x3b13deca	0.0022563213
26	0xb9cc4539	-0.00038961487
27	0xba303f6c	-0.0006723318
28	0xba48454e	-0.0007639722
29	0xba1a9cd0	-0.00058980007
30	0x3ba93efe	0.00516498
31	0x38fe9e6d	0.00012141173
32	0x38021ccf	3.1021245e-05
33	0xb7d8efac	-2.5860812e-05
34	0x3c50b473	0.012738335
35	0xba373bf0	-0.00069898274
36	0x3a5e62da	0.0008483358
37	0x381fa1b2	3.8059145e-05
38	0x3b2d9ef7	0.0026492456
39	0xb9e46777	-0.00043564636
40	0xbaaaf93b	-0.0013044247
41	0xb9a466f3	-0.0003135722
42	0x3beced0c	0.0072304066
43	0x3aeda41d	0.0018130575
44	0x3a0ef602	0.0005453528
45	0x39453de7	0.00018810444
46	0xb82a76aa	-4.0641673e-05
47	0xba185cfa	-0.00058121944
48	0xba225dea	-0.0006193804
49	0xba8163f2	-0.0009871705
50	0x39004156	0.00012231371
51	0xbab39896	-0.001370209
52	0x3b273262	0.0025512208
53	0x3badd4bc	0.005304901
54	0x3a191c26	0.0005840681
55	0xba262822	-0.0006338378
56	0x35b5108b	1.3490366e-06
57	0x36c2e839	5.808685e-06
58	0x3ae5de76	0.0017537612
59	0x3998bff8	0.00029134727
60	0xb9f9deba	-0.00047658925
61	0xba1b303d	-0.0005919969
62	0xb9c78ca0	-0.00038061012
63	0xb9c1eeb8	-0.00036989688

running_mean f4 [64]
0	0x00000000	0.0
1	0x00000000	0.0
2	0x00000000	0.0
3	0x00000000	0.0
4	0x00000000	0.0
5	0x00000000	0.0
6	0x00000000	0.0
7	0x00000000	0.0
8	0x00000000	0.0
9	0x00000000	0.0
10	0x00000000	0.0
11	0x00000000	0.0
12	0x00000000	0.0
13	0x00000000	0.0
14	0x00000000	0.0
15	0x00000000	0.0
16	0x00000000	0.0
17	0x00000000	0.0
18	0x00000000	0.0
19	0x00000000	0.0
20	0x00000000	0.0
21	0x00000000	0.0
22	0x00000000	0.0
23	0x00000000	0.0
24	0x00000000	0.0
25	0x00000000	0.0
26	0x00000000	0.0
27	0x00000000	0.0
28	0x00000000	0.0
29	0x00000000	0.0
30	0x00000000	0.0
31	0x00000000	0.0
32	0x00000000	0.0
33	0x00000000	0.0
34	0x00000000	0.0
35	0x00000000	0.0
36	0x00000000	0.0
37	0x00000000	0.0
38	0x00000000	0.0
39	0x00000000	0.0
40	0x00000000	0.0
41	0x00000000	0.0
42	0x00000000	0.0
43	0x00000000	0.0
44	0x00000000	0.0
45	0x00000000	0.0
46	0x00000000	0.0
47	0x00000000	0.0
48	0x00000000	0.0
49	0x00000000	0.0
50	0x00000000	0.0
51	0x00000000	0.0
52	0x00000000	0.0
53	0x00000000	0.0
54	0x00000000	0.0
55	0x00000000	0.0
56	0x00000000	0.0
57	0x00000000	0.0
58	0x00000000	0.0
59	0x00000000	0.0
60	0x00000000	0.0
61	0x00000000	0.0
62	0x00000000	0.0
63	0x00000000	0.0

running_var f4 [64]
0	0x3f800000	1.0
1	0x3f800000	1.0
2	0x3f800000	1.0
3	0x3f800000	1.0
4	0x3f800000	1.0
5	0x3f800000	1.0
6	0x3f800000	1.0
7	0x3f800000	1.0
8	0x3f800000	1.0
9	0x3f800000	1.0
10	0x3f800000	1.0
11	0x3f800000	1.0
12	0x3f800000	1.0
13	0x3f800000	1.0
14	0x3f800000	1.0
15	0x3f800000	1.0
16	0x3f800000	1.0
17	0x3f800000	1.0
18	0x3f800000	1.0
19	0x3f800000	1.0
20	0x3f800000	1.0
21	0x3f800000	1.0
22	0x3f800000	1.0
23	0x3f800000	1.0
24	0x3f800000	1.0
25	0x3f800000	1.0
26	0x3f800000	1.0
27	0x3f800000	1.0
28	0x3f800000	1.0
29	0x3f800000	1.0
30	0x3f800000	1.0
31	0x3f800000	1.0
32	0x3f800000	1.0
33	0x3f800000	1.0
34	0x3f800000	1.0
35	0x3f800000	1.0
36	0x3f800000	1.0
37	0x3f800000	1.0
38	0x3f800000	1.0
39	0x3f800000	1.0
40	0x3f800000	1.0
41	0x3f800000	1.0
42	0x3f800000	1.0
43	0x3f800000	1.0
44	0x3f800000	1.0
45	0x3f800000	1.0
46	0x3f800000	1.0
47	0x3f800000	1.0
48	0x3f800000	1.0
49	0x3f800000	1.0
50	0x3f800000	1.0
51	0x3f800000	1.0
52	0x3f800000	1.0
53	0x3f800000	1.0
54	0x3f800000	1.0
55	0x3f800000	1.0
56	0x3f800000	1.0
57	0x3f800000	1.0
58	0x3f800000	1.0
59	0x3f800000	1.0
60	0x3f800000	1.0
61	0x3f800000	1.0
62	0x3f800000	1.0
63	0x3f800000	1.0

weight f4 [32, 64]
0	0xbd4a66ee	-0.049414568
1	0xbda6b74f	-0.08140432
2	0x3d0982b3	0.03357191
3	0x3db79440	0.08963823
4	0xbd7a7d11	-0.06115443
5	0x3db45ea9	0.088071175
6	0xbdc91934	-0.0981926
7	0x3bf9d9b9	0.0076248315
8	0x3dd900ad	0.10595832
9	0xbd9ba404	-0.07599643
10	0xbb74ad53	-0.0037334755
11	0x3bf5ed02	0.00750506
12	0xbdb0143e	-0.08597611
13	0xbc9b04dd	-0.018923217
14	0x3d56ecf1	0.05247206
15	0xbcd6532f	-0.026162712
16	0xbdf66d39	-0.12032551
17	0x3d51a416	0.051181875
18	0x3c186895	0.009302278
19	0xbdc329ae	-0.09529434
20	0x3cb16753	0.021655714
21	0x3d64d3b8	0.055865973
22	0xbdc32650	-0.09528792
23	0x3db38bd8	0.087669075
24	0xbdaf3d0d	-0.085565664
25	0x3c2075aa	0.009793678
26	0xbd5343e0	-0.051578403
27	0x3bac7ff0	0.005264275
28	0x3d487a09	0.048944507
29	0xbdd83608	-0.10557181
30	0xbc9cbe29	-0.019133644
31	0x3dbe1471	0.09281243
32	0x3cb1c72b	0.021701416
33	0xbdf8f665	-0.12156371
34	0xbd9e4835	-0.07728616
35	0x3d377cf3	0.044796895
36	0x3bca85ea	0.0061805146
37	0xbe019340	-0.12653828
38	0xbdb065f4	-0.08613196
39	0xbd84e846	-0.06489615
40	0xbd85cfd0	-0.06533778
41	0x3da8ba62	0.08238675
42	0xbdda9af7	-0.106740884
43	0x3b153607	0.0022767799
44	0x3d557391	0.052112166
45	0x3da1cdd7	0.07900589
46	0xbcfa84cc	-0.0305809
47	0x3dd3d717	0.103437595
48	0xbc924976	-0.017857295
49	0xbd89a28c	-0.067204565
50	0x3dfd4d1d	0.12368224
51	0xbbc52487	-0.0060163173
52	0xbd8ee546	-0.06977324
53	0x3d7678ec	0.060173914
54	0x3da44c4e	0.080223665
55	0x3d95abf0	0.07308185
56	0x3cd97b26	0.02654798
57	0x3dae244e	0.08503018
58	0xbdc6a4bc	-0.09699389
59	0x3dd15509	0.10221297
60	0xbd569add	-0.052393783
61	0x3d9fa718	0.077955425
62	0xbda92f5e	-0.08260988
63	0xbda30be4	-0.07961252
64	0x3cf44ca7	0.029821707
65	0x3ca839a9	0.020535307
66	0xbd361863	-0.04445685
67	0xbd52d364	-0.05147113
68	0x3db07ffe	0.086181626
69	0x3d8d3573	0.0689496
70	0xbdebd9aa	-0.115161255
71	0x3d9d2bf2	0.076743975
72	0x3d041130	0.032242954
73	0xbd8432fd	-0.06455038
74	0xbdf01e57	-0.11724537
75	0xbdf1b8ee	-0.11802851
76	0x3e035b47	0.12827788
77	0x3d234a7e	0.039865963
78	0x3dca1029	0.098663636
79	0xbbc9a242	-0.006153376
80	0xbd7a0805	-0.061042804
81	0x3d1ef031	0.038803283
82	0x3d7b3d3c	0.061337695
83	0x3dba580e	0.09098826
84	0xbd162dfe	-0.036664955
85	0x3dc1fab7	0.09471648
86	0xbd8302e0	-0.06397033
87	0xbcee8980	-0.0291183
88	0xbddbb6dd	-0.10728238
89	0xbdea4b58	-0.11440152
90	0xbc999a66	-0.01875038
91	0x3d87e1cd	0.06634865
92	0xbd8b7b6a	-0.06810649
93	0xbcefa31f	-0.029252587
94	0xbad53310	-0.0016265828
95	0xbd3963bf	-0.04526114
96	0xbdc63800	-0.0967865
97	0xbcf57bda	-0.029966284
98	0xbd784364	-0.060611144
99	0x3d6d0a94	0.057871416
100	0x3da2b060	0.07943797
101	0xbddb450a	-0.107065275
102	0xbd00940b	-0.031391185
103	0x3ded0219	0.11572666
104	0xbda8ff50	-0.08251822
105	0x3d875914	0.06608787
106	0xbc74f395	-0.014950653
107	0xbd29efe3	-0.04148854
108	0xbd7b66ed	-0.061377455
109	0x3d02caa0	0.03193152
110	0x3d762e51	0.060102765
111	0x3d060070	0.03271526
112	0x3d4cc540	0.0499928
113	0x3c83ddb1	0.016096922
114	0xbd95fac8	-0.07323223
115	0xbdeff6c6	-0.1171699
116	0xbdc7a1f2	-0.097476855
117	0xbd9619f4	-0.07329169
118	0x3b6b2de5	0.003588551
119	0xbdc2d2bc	-0.09512851
120	0x3dd350e2	0.103181615
121	0xbc0f66b7	-0.0087525165
122	0x3d615644	0.05501391
123	0x3cfe909b	0.031074813
124	0xbb874a3b	-0.004128722
125	0x3d9b5b69	0.075857945
126	0x3dbfea02	0.09370805
127	0x3dde7ce8	0.10863668
128	0x3b084c06	0.0020797267
129	0xbcf4421d	-0.029816682
130	0xbdc9e204	-0.09857562
131	0xbb97b19b	-0.0046293265
132	0xbd47364d	-0.04863577
133	0xbda7d318	-0.0819456
134	0xbc7ee966	-0.015558576
135	0xbd91e23a	-0.071232274
136	0xbaf13acd	-0.0018404365
137	0x3de7cbe0	0.11318183
138	0x3e08ce7e	0.1336002
139	0xbe223105	-0.15839012
140	0xbd54bb09	-0.051936183
141	0x3c844a16	0.016148608
142	0xbd96e822	-0.073684946
143	0x3d8c0e4f	0.06838667
144	0xbd5d42b6	-0.0540187
145	0x3d5712c7	0.05250814
146	0xbd78a3a0	-0.06070292
147	0x3c94550e	0.018106963
148	0xbcc90743	-0.024539595
149	0xbdc3df0f	-0.095640294
150	0xbdd28f37	-0.10281222
151	0x3d697365	0.056994814
152	0xbd6b0444	-0.057377115
153	0x3df623a5	0.120185174
154	0x3dedbc20	0.116081476
155	0x3df4d405	0.11954502
156	0xbcdacb7e	-0.02670836
157	0xbdfde035	-0.1239628
158	0x3d00aab5	0.0314128
159	0x3d85ff0c	0.06542787
160	0xbd4f9fcc	-0.050689504
161	0x3d5ac98f	0.053414878
162	0x3e413e95	0.1887153
163	0xbd5f471c	-0.054511175
164	0x3cedef98	0.029044911
165	0xbdd9b670	-0.106305
166	0xbdbcb3bf	-0.09213971
167	0x3d6f3c89	0.05840734
168	0xbdc47fc3	-0.09594681
169	0x3db20a56	0.08693378
170	0x3d952d3a	0.07284017
171	0xbcccd0e7	-0.025001956
172	0x3decc762	0.11561467
173	0xbd0c9ab9	-0.034327243
174	0x3d67ec9c	0.056622133
175	0xbdefaa9e	-0.117024645
176	0x3b70e2fc	0.0036756387
177	0xb9fa0c01	-0.0004769266
178	0x3d99444e	0.07483731
179	0xbd8e21c2	-0.069400325
180	0x3e1246af	0.14284776
181	0x3d08157a	0.033223607
182	0x3c5d0c06	0.013491636
183	0xbc873fdd	-0.016509945
184	0xbd3fdcf5	-0.04684158
185	0x3ced9ae8	0.02900453
186	0xbd774564	-0.06036891
187	0xbd42cc18	-0.04755792
188	0xbd8c722e	-0.068577155
189	0x3cb307b9	0.021854268
190	0x3d85bd7e	0.065302834
191	0xbd217c06	-0.03942492
192	0x3dba3e39	0.09093899
193	0xbd862336	-0.06549685
194	0xbd6e4544	-0.058171526
195	0x3cec29f9	0.028828608
196	0xbd9b46cc	-0.07581863
197	0x3d90a9d7	0.070636444
198	0x3dc85f94	0.09783855
199	0xbd1f192e	-0.038842373
200	0x3b81077a	0.003937659
201	0xbd846e85	-0.064663924
202	0x3c9f8af9	0.019475447
203	0xbdcea7d1	-0.10090602
204	0x3d48d64a	0.049032487
205	0xbdac63ba	-0.08417459
206	0xbd6f8ee1	-0.05848587
207	0x3dd1d63b	0.10245939
208	0x3dcf871b	0.10133191
209	0x3d55f4c2	0.052235372
210	0xbccba68d	-0.024859691
211	0xbc6a8a95	-0.014315267
212	0xbde5534b	-0.111975275
213	0x3d3965ea	0.04526321
214	0x3c9ae184	0.018906362
215	0xbd84c865	-0.06483535
216	0x3ae904de	0.001777794
217	0xbdf78143	-0.120852016
218	0xbdeb3e10	-0.11486447
219	0xbd71b4d5	-0.059010345
220	0xbc1bdf56	-0.009513697
221	0xbd9fda6a	-0.07805331
222	0xbd79617b	-0.06088398
223	0x3d1eac3d	0.038738478
224	0xbc6ae72b	-0.014337341
225	0x3db10b80	0.086447716
226	0xbcd876c2	-0.026423816
227	0x3d8035f1	0.062602885
228	0x3dea560d	0.11442194
229	0x3c8dafc8	0.017295733
230	0x3d88def5	0.06683151
231	0xbdc59d14	-0.09649101
232	0x3d97a5bf	0.074046604
233	0x3cdb93ef	0.026803939
234	0x3d65b4b7	0.056080546
235	0xbdc0a8a0	-0.09407163
236	0x3d065d77	0.03280398
237	0x3cebb785	0.028774032
238	0xbce21090	-0.027595788
239	0xbd8edc94	-0.06975666
240	0x3dcc816a	0.09985621
241	0x3d80a526	0.062814996
242	0x3dd1b9d9	0.10240526
243	0xbd8a690b	-0.067583166
244	0xbd4fe9c6	-0.050760053
245	0x3c982391	0.018571647
246	0x3cc114ac	0.023569427
247	0x3dfa249f	0.12214016
248	0xbdeda867	-0.11604386
249	0xbd62756b	-0.05528776
250	0x3cdabcc2	0.026701335
251	0x3d96b759	0.073591895
252	0xba5a6800	-0.0008331537
253	0x3c753d8e	0.014968289
254	0xbdca80c0	-0.09887838
255	0x3cbe35b9	0.023218976

bias f4 [32]
0	0x3d4bf644	0.049795404
1	0x3df4d0f2	0.11953916
2	0x3c4caa8c	0.012491833
3	0xbd711b21	-0.058863763
4	0x3d4be1db	0.04977594
5	0xbbb0d110	-0.005396016
6	0xbd5d85bf	-0.05408263
7	0x3c97deb6	0.018538814
8	0x3d8867f9	0.06660456
9	0xbd178723	-0.03699411
10	0xbd95aea6	-0.07308702
11	0xbdc72e40	-0.09725618
12	0x3b17c413	0.002315764
13	0xbdaabc6f	-0.08336722
14	0x3ca21a6f	0.019787995
15	0xbdc57774	-0.096419245
16	0x3da52fc6	0.08065753
17	0x3d8741cc	0.06604347
18	0xbd7e1a97	-0.062037077
19	0x3dcf4be0	0.10121894
20	0x3dda5224	0.10660198
21	0xbd3ffbfd	-0.046871174
22	0x3d7a7d12	0.061154433
23	0x3c174d57	0.009234748
24	0xbd5c468b	-0.053778213
25	0x3db86508	0.09003645
26	0xbbeac2df	-0.0071643437
27	0xbbc41b03	-0.0059846654
28	0xbb6f01bc	-0.003646954
29	0xbc4321b0	-0.011909887
30	0xbd99739e	-0.07492755
31	0x3c59e17f	0.013298391

weight f4 [2, 32]
0	0x3cbd869c	0.023135476
1	0x3e13af07	0.14422236
2	0x3e6ff0e5	0.23431738
3	0x3d4d5998	0.05013427
4	0xbe313b30	-0.17307734
5	0xbe929d40	-0.28635597
6	0xbe8a9e4e	-0.27073902
7	0xbec1919f	-0.37806413
8	0x3e29c5a0	0.16579294
9	0x3d3427f9	0.043983433
10	0xbc470b05	-0.012148623
11	0x3d506153	0.050874066
12	0xbe90f02c	-0.28308237
13	0x3e874d2d	0.26426068
14	0xbe501e14	-0.20323974
15	0x3d23c36a	0.039981283
16	0xbe8c61d1	-0.27418378
17	0x3e209fcd	0.15685959
18	0x3e100b86	0.14066896
19	0x3e146035	0.14489825
20	0x3f05f71c	0.52330184
21	0x3da6c749	0.081434794
22	0xbe9d4085	-0.30713287
23	0xbe1511e9	-0.14557613
24	0xbe557d8e	-0.20848677
25	0xbe8cd584	-0.2750665
26	0x3dbd1f2d	0.09234462
27	0x3da42408	0.08014685
28	0x3de9a04c	0.11407527
29	0xbdea3704	-0.11436275
30	0xbdd1a44c	-0.10236415
31	0xbe97b22f	-0.2962813
32	0xbd6b87c2	-0.057502516
33	0x3dcd8ce0	0.100366354
34	0xbe0fd2d7	-0.14045273
35	0x3def1016	0.1167299
36	0x3eaa5d82	0.33274466
37	0x3df2acd2	0.11849369
38	0x3eb981cb	0.36231837
39	0x3e80514d	0.25062028
40	0xbd39eb0b	-0.04539017
41	0x3d8e57e7	0.0695036
42	0xbe45d1f8	-0.19318378
43	0x3d54221e	0.05179035
44	0x3eca5b4d	0.39522782
45	0x3d41d5a0	0.04732287
46	0x3e754638	0.23952568
47	0xbdebd96c	-0.11516079
48	0x3e4fcdb6	0.20293316
49	0xbe9e99b0	-0.3097663
50	0x3dcbe8ad	0.09956489
51	0x3d01a012	0.031646796
52	0xbf073369	-0.5281282
53	0x3d2804ac	0.04102008
54	0x3e428d9b	0.1899933
55	0x3e2c6e92	0.16839054
56	0x3c9b3189	0.018944519
57	0x3df3e8f7	0.11909669
58	0xbd47bc49	-0.048763547
59	0xbe217bbb	-0.15769856
60	0x3e13be2a	0.1442801
61	0x3e7470c6	0.23871145
62	0xbe5af72d	-0.21383353
63	0x3e9922c8	0.29909348

bias f4 [2]
0	0x3dd15b27	0.10222464
1	0x3e0724bb	0.13197605
