models/Celeba-user20-agg15/server.pt (torch, 115994 bytes, 22 tensors)

weight f4 [16, 3, 3, 3]
00000000: e114 a33d 3bf3 c8bc 7878 a63d 9bcc cc3c
00000010: 78da 933d 2d56 dd3c fd73 24bd a4fd 28be
00000020: f974 063a b639 0fbe 0317 253d b3db ee3c
00000030: be86 893b 86a8 263e 5363 d53b a438 743d
00000040: ccc6 a83d 4436 17be 25ec 65bd bc7e 3f3e
00000050: bb9e 34be da63 db3c af23 61bc c4ef 093e
00000060: db6e 01bd 45b9 7d3d a211 a8bc 4cc7 bbbd
00000070: 24fb e2bd c4cf e0bd 70dc 3cbe d6be 00be
00000080: de39 0b3d 8303 cc3d e451 2abc 158e b5bd
00000090: 5bba d63d afa3 94bd 5832 59bd 108c c9bd
000000a0: 9b0d 56bd df40 3fbe cbe4 8c3d d83f 803d
000000b0: 048b 1d3d 09c9 f53d e3a8 bd3d 595c 173c
000000c0: 67af c73c 95b4 d93c 4dfd cc3d b2b2 ef3d
000000d0: 4595 033e 3fa0 e63d 6bfd 53bd 99a1 9fbc
000000e0: 86b0 03bd 5b70 0e3e 5b6d 003d 49d5 443e
000000f0: 5e71 d73d 8c1e 23be cc34 1c3d 366d 383e
00000100: 5c60 293e e674 643c 0538 803d 3e39 49be
00000110: f0f9 72bd 7a7a 853d 4eff 53be 861e 013e
00000120: 6917 f2bd c3f1 893d 6976 b53c 62c6 6a3d
00000130: 16bd 043d 2aec 16be ab4e 3ebd f77a f1bd
00000140: e438 293e cb3a 20bd fbbf 47be fb20 753d
00000150: e84c bd3d 86bb b7bd 7d54 06bc 6038 ab3d
00000160: 1e16 e6bd d9a1 c0bd 0cf0 fabc 287c 0dbe
00000170: 1805 033e 16ee d13c 2c74 de3d 0050 d33d
00000180: 6037 1abe 6594 f4bd 0e17 0bbe a465 98bd
00000190: e089 9ebd a861 e0bc 070b 37be b2a5 8c3d
000001a0: 1d3c d03d ec03 6b3d 7627 f23d b1ee 093e
000001b0: d025 40be 58c4 5f3d 8aa3 3c3e fd35 02be
000001c0: b5cc 7bbd 18f0 603b 8c3d a6bd aa13 36bc
000001d0: aaee 70bc 2d0c 243e bfa5 bd39 4781 ad3d
000001e0: a9a5 0b3e 8730 b93d 66cd 39be 5d7d 273e
000001f0: 4284 093e 1d6b 15be a647 95bd 047c 133e
00000200: 5f05 58be 0cdd 2abe c469 fdbd 0bc0 383d
00000210: df1d 83bd 6761 2fbe 0a10 833d 40a5 9b3d
00000220: c7d0 1eba 629b 4cbe 7ebc 173e 5985 a9bc
00000230: a3b3 00be 5d60 5bbd 8a6e 243e ea1c 1a3e
00000240: 6a8c 6a3c 4058 933d adab 5fbe a236 013e
00000250: 16d0 3a3e ff90 b4bd 2e8c 4e3d d933 863c
00000260: 6eed fbbd 0ff7 8f3c 9506 e3bd 8c91 42be
00000270: 6263 17be 81a0 d53b bcad 5e3e b6b8 a23d
00000280: 57be aabd cc0b 2b3e 0a26 cf3c 15d2 52be
00000290: b124 5abb f59c 063e 420f e8bd a7dd 84bc
000002a0: 093f 98bd 7cf3 f3bd cb47 a0bd 6f84 fd3c
000002b0: f335 e13d 82ff 41bd afef 2dbe 3205 89bb
000002c0: 0711 36be 8abf 5c3c 7685 1d3e b442 be3d
000002d0: d6f9 c8bd c191 55bd b9aa 903d 84d9 6f3d
000002e0: 9003 39be a212 fbbd 56b8 85bd c484 a83d
000002f0: a5e7 353e bf18 e43d 7ae1 983d 9228 23be
00000300: 82f5 f63d 852e 443d 1023 71bd d746 cdbd
00000310: c671 413d ea56 aabd 4aa7 ba3d 91d3 083e
00000320: 763a 0ebe 8afe edbd 7e06 babd 608f 19be
00000330: 8a21 88bc 30d3 053e 14e9 e33d 863f 10bd
00000340: 43e0 abbc 083f a9bd 49ac 14be b755 69bd
00000350: 6a95 e83c ea07 b3bd b4e2 04be 5f66 ba3d
00000360: 2c2a 693c 2d55 84bd 2c6c 323d 0c45 2b3e
00000370: bf8b b2bb 6a6c 2abe 778d 2d3e 5d58 293e
00000380: 16e1 fb3c e281 d4bd 44b3 a9bd fb0c 273e
00000390: 2a41 b03d 8722 00be e7b8 4fbd c30b 513c
000003a0: 3d36 353d f45f d8bc 3e68 b1bd 670c f63c
000003b0: 0b4a 91bc 9bfd 4bbd e5a7 bcbd 2ab0 e7bd
000003c0: f757 d0bd 034e c23d 05c1 06be 9146 1bbe
000003d0: d2c2 523e 91eb 853d d1c0 d13d 00d3 783d
000003e0: ce9a a6bd 5a51 c7bd fdcb 0ebe 4ce2 08bb
000003f0: 3c89 513d 7991 22be 062d 38be 4dfd a43d
0.07962967 -0.024530044 0.08128446 0.024999907 0.07219404 0.02701863 -0.040149678 -0.16503006
0.00051291246 -0.13986859 0.04030515 0.029157495 0.0041969707 0.16275224 0.0065120845 0.05962433
0.082410425 -0.14766794 -0.056133408 0.18700689 -0.17638676 0.026781011 -0.013741418 0.1347037
-0.03159986 0.061944265 -0.02051622 -0.09168872 -0.110830575 -0.10977128 -0.18443465 -0.12572798
0.033990733 0.09961607 -0.010395501 -0.088649906 0.10484763 -0.07257783 -0.053026527 -0.09841168
-0.05225907 -0.1867709 0.06879576 0.06262177 0.038462654 0.12001235 0.09260728 0.009238326
0.02437563 0.026575366 0.10009251 0.11704005 0.1284991 0.11261033 -0.05175535 -0.019486235
-0.032150768 0.13910048 0.03135429 0.19221987 0.1051967 -0.15929621 0.03813629 0.1801041
0.16540664 0.013943886 0.06260685 -0.19650742 -0.05932039 0.06517501 -0.2070286 0.126093
-0.118208714 0.067355655 0.022151189 0.0573181 0.03240689 -0.14738527 -0.046461742 -0.11791032
0.16525608 -0.03911857 -0.19506828 0.059845906 0.09243184 -0.08971314 -0.0081988545 0.08360362
-0.11234687 -0.0940587 -0.030632041 -0.13816893 0.12794912 0.025626224 0.10862002 0.10317993
-0.15060186 -0.119423665 -0.13583013 -0.074412614 -0.07741141 -0.027390316 -0.178753 0.068675414
0.10167716 0.057376787 0.11823933 0.1346996 -0.18764424 0.054630607 0.1842176 -0.12715907
-0.06147452 0.0034322795 -0.08117208 -0.011113087 -0.014705339 0.1602027 0.0003617238 0.08471923
0.13637413 0.09042459 -0.1814476 0.16356416 0.13429359 -0.14591642 -0.072890565 0.14402777
-0.21095799 -0.16685885 -0.12373689 0.04510502 -0.06402182 -0.17127 0.063995436 0.07599878
-0.0006058332 -0.19981149 0.14817998 -0.020693468 -0.12568526 -0.053558696 0.16057792 0.15050092
0.014315704 0.07194567 -0.21842833 0.12618497 0.18243441 -0.08816718 0.050426655 0.016382145
-0.123011455 0.017573861 -0.1108524 -0.19000834 -0.14784005 0.0065193777 0.21745962 0.07945387
-0.08337086 0.16703719 0.025286693 -0.20587952 -0.003328603 0.13145812 -0.11331035 -0.016218973
-0.07433898 -0.11911675 -0.078261934 0.030946938 0.10996618 -0.047362812 -0.16985963 -0.0041815275
-0.17779933 0.013473401 0.15382943 0.09290066 -0.098132774 -0.052140955 0.07063813 0.05855705
-0.18067765 -0.12259413 -0.065293 0.08228448 0.17764147 0.111375324 0.07464881 -0.15933445
0.12058546 0.047895927 -0.05887133 -0.10023277 0.047227643 -0.08317359 0.09113939 0.13361956
-0.13889489 -0.11620815 -0.090832695 -0.149961 -0.016617555 0.13068843 0.111284405 -0.03521683
-0.02098096 -0.082639754 -0.14518847 -0.05696651 0.028391559 -0.08741744 -0.12977105 0.09101557
0.014231246 -0.064615585 0.043560192 0.16725558 -0.005448788 -0.16642919 0.16948496 0.16537614
0.030746978 -0.10376336 -0.08286145 0.16313545 0.08606179 -0.12513171 -0.050713446 0.012759152
0.04424118 -0.026412942 -0.08662461 0.03003521 -0.017735502 -0.049802404 -0.09211711 -0.113128975
-0.10173028 0.09487536 -0.13159569 -0.15163638 0.2058213 0.06539071 0.10241855 0.0607481
-0.081349954 -0.097323135 -0.13945003 -0.0020886837 0.051156268 -0.15875806 -0.17985925 0.08056126

bias f4 [16]
00000000: 2da4 043e 1f85 f2bc 8c47 75bd 94b7 1d3e
00000010: 01a3 9d3d f603 2fbe 0044 18be 4cd3 40be
00000020: 551b a6bd 296a 03bd bb65 903d ea1c e73d
00000030: d4bb 2fbe c418 c93d 452e 893d 9c55 813d
0.12953253 -0.029604493 -0.059882686 0.15402061 0.07697106 -0.17091355 -0.1486969 -0.18830603
-0.08110682 -0.032083664 0.070506535 0.11284812 -0.17161494 0.09819177 0.06698278 0.06315157

weight f4 [16]
00000000: a2e2 803f 3595 7c3f 0f5f 7f3f c6e9 7c3f
00000010: ab86 7d3f 5e24 813f 8163 803f 7ce9 803f
00000020: a16c 7f3f aad6 7f3f 51da 823f eced 7c3f
00000030: 977f 7c3f ec95 803f 1e3c 813f 411c 803f
1.0069163 0.9866517 0.9975442 0.9879421 0.9903361 1.0089223 1.0030366 1.0071254
0.9977513 0.99936926 1.0222875 0.9880054 0.98632187 1.0045753 1.0096471 1.0008622

bias f4 [16]
00000000: 7630 7ebb 70aa b7bb 309c 98bc 5a68 613c
00000010: 4367 c0bc 2225 efba e5d3 3d3c d90c 6abb
00000020: 2a7c 17bb 2ab4 50bb 1d56 853c 368c 14bc
00000030: 6e60 2f3d 2c33 96b9 45d7 843c f976 a13b
-0.003878621 -0.0056050345 -0.018629164 0.0137577895 -0.023486739 -0.0018245319 0.011586164 -0.0035713224
-0.002311478 -0.0031845667 0.016276414 -0.009066632 0.042816572 -0.00028648356 0.01621593 0.0049275127

running_mean f4 [16]
00000000: 0000 0000 0000 0000 0000 0000 0000 0000
00000010: 0000 0000 0000 0000 0000 0000 0000 0000
00000020: 0000 0000 0000 0000 0000 0000 0000 0000
00000030: 0000 0000 0000 0000 0000 0000 0000 0000
0.0 0.0 0.0 0.0 0.0 0.0 0.0 0.0
0.0 0.0 0.0 0.0 0.0 0.0 0.0 0.0

running_var f4 [16]
00000000: 0000 803f 0000 803f 0000 803f 0000 803f
00000010: 0000 803f 0000 803f 0000 803f 0000 803f
00000020: 0000 803f 0000 803f 0000 803f 0000 803f
00000030: 0000 803f 0000 803f 0000 803f 0000 803f
1.0 1.0 1.0 1.0 1.0 1.0 1.0 1.0
1.0 1.0 1.0 1.0 1.0 1.0 1.0 1.0

weight f4 [32, 16, 3, 3]
00000000: 88ab 89bd 513f 80bd 43ed 49ba aa38 fb3c
00000010: 4812 c4bc 2f87 5abc 6b5b a6bc 4464 8ebc
00000020: c560 89bc ffe3 773c e8b4 30bd 9fac ad3d
00000030: 3cc9 823c bb6a 1a3d 281d 8ebd ec5a aebc
00000040: 1358 163d 50d5 9bbd 2193 c3bb 7959 7bbd
00000050: 749d aabb 019f 4f3c 240f 89bd 962a 4c3d
00000060: b3e5 333d 144e 4dbd 02ad 843b 8e57 8ebc
00000070: f932 afbd 432f edbb 04d5 7f3d 9987 6cbc
00000080: 5150 4e3c 383b 8f3d e11c 633c a6d1 933d
00000090: 0c68 6abd 56ee 273d 0ba2 623d e4c5 ef3c
000000a0: ca3b 10bd 9ea8 6f3d 4165 52bd 3cf1 d43c
000000b0: a865 c2bd a1f7 77bd b265 9bbd b048 3dbd
000000c0: 698d 4abd dfd5 a3bd b9f8 97bd 2a38 bdbc
000000d0: 12d4 f53b 86ad 863d 9f58 513d 1b22 22bd
000000e0: 9428 16bd dc85 dc3c c909 87bd e55d 56bd
000000f0: feea f2bc 7896 953d 00d6 923d e8ea 9abd
00000100: 88ed a33d a83b 2abd 2163 3fbd 2f41 b0bd
00000110: dd07 963d f4ca a43d 3cdf 923d 3f22 b63b
00000120: b0b9 e1bc a61a 2e3d f652 0ebd 4fdc 81bd
00000130: b2c5 86bd 52c4 2c3d dc80 97bd 62f9 d3bd
00000140: 49b8 983d ce59 71bd c876 9339 1a1f a53d
00000150: da2a a53c 4d3b 08bd 0bde 3b3c 3a11 a03d
00000160: c3f8 8fbd b4a6 373d 308f f1bc 86ae 3abd
00000170: 2b94 8f3c 78cb 423d ee41 7ebd 710f 1d3b
00000180: 364f 673b fb8f 6c3d 9e22 df3b 2961 223d
00000190: af1a 953d 4c6d 523d b33e d1bc aa3a bb3c
000001a0: 9519 8a3d fdd5 3e3d b527 7cbd 86e5 9d3c
000001b0: 73b2 363d fdb0 013d e948 bd3b 5a83 cdbc
000001c0: 6693 893c 4244 87bd 85e6 4a3d 4207 8abd
000001d0: 756d 9dbd c49f f8bb 5372 cdb9 9201 de3c
000001e0: 6b06 04bd d52f c03c e33c 92bd 9ddb 203d
000001f0: 4c2d f13c 3839 44bd 923c db3c 03f9 383d
00000200: cbc2 653c dada d03c dd31 1abd 14f6 1a3d
00000210: 09f5 f63c 257f f03b 3479 8ebd 819a a73b
00000220: a189 2d3d 1dd9 20bd 0bfc 223d 0618 25bd
00000230: d189 c0bc 7dee 31bd cc02 fd3c ac82 493d
00000240: bc1f 7bbd c6f0 8d3d 466a 0d3d 8eb4 f03b
00000250: b07c 903d 7f90 843c b775 be3c 7056 4c3d
00000260: 8503 28bc b59e 6b3d c138 3ebc 4154 7f3d
00000270: d4e1 133c 06b1 9bbc 09e3 adbb 492a 97bd
00000280: 2657 26bd e613 c43c 82b2 9bbd 5c3f 81bd
00000290: 1b11 e93c 96dc 053c 2e8a 2dbd fb90 8b3d
000002a0: 4074 b7bc dccc 23bd 7c3c 983c a550 ca3c
000002b0: e93c 8abd 9e95 853b 762c 9a3c 1b95 1a3d
000002c0: 0fd3 dc3b 1dc8 b3bd 4442 b1bd 81cd a13d
000002d0: 1c67 1b3d 9b91 873d 919f c53c f8f6 993b
000002e0: e472 3fbc 8f5d 093d 9102 b43c 7d24 68bd
000002f0: 201f 723c 4826 9abd a64e 093d 4f8d a0bc
00000300: b13e 85bd a267 7a3d 6fcd 49bd 6685 92bd
00000310: 7e52 733c 75ff 5abd 1b28 01bc a991 793c
00000320: ec6f e9bb 988f ab3b 7a79 77bc 5e9d 693d
00000330: 5c8a 493d eb4f 6dbc 605f 86bd 28f4 f73c
00000340: 2989 ef3c 3703 c93c d2b7 1ebd 3d63 ad3c
00000350: 0669 723d c452 e73c 1598 95bd 7e67 b03c
00000360: 7ddf 85bd fa95 94bd 8825 4fbd 5ae9 263d
00000370: 7abc 633d 3c6f 9bbd 2ef9 e3ba 8a8c 403d
00000380: a82c c83c 789d 053d 85c6 333d 546b d03c
00000390: 17ab 5fbd 2734 1a3d 49bf 813c a9e2 bdbd
000003a0: d60b 093d aa9c 633d b4f1 26bd d84d 0cbc
000003b0: 6650 1a3d c65a d83c 8a0d 963d e92c 6ebd
000003c0: 5a5c bebc 2655 96bd 42ff e33d a308 f2bc
000003d0: 6677 5a3d 8b56 ed3c 839d cbbc 1999 5cbd
000003e0: ddd7 833d d15b 9c3d 4a08 79ba 685f 33bc
000003f0: ad49 953d 6a39 17bd 0890 a8bd 5905 223d
-0.0672217 -0.06262077 -0.0007702896 0.030666668 -0.023934498 -0.013337894 -0.020307263 -0.017381795
-0.016769776 0.015130042 -0.043141276 0.084801905 0.015965097 0.037699442 -0.06939155 -0.02128359
0.036705088 -0.076090455 -0.005968467 -0.061364625 -0.005206758 0.012672187 -0.06692341 0.0498453
0.04392023 -0.05012329 0.0040489445 -0.017375734 -0.08554644 -0.0072383 0.062459007 -0.014436626
0.012592391 0.06993717 0.013861866 0.07217722 -0.057228133 0.04099878 0.055330317 0.029269166
-0.03521327 0.058510415 -0.051366094 0.025993936 -0.09492046 -0.06053889 -0.07587756 -0.0462119
-0.049451265 -0.07999777 -0.07420487 -0.02309807 0.0075020874 0.06576066 0.051109906 -0.039583307
-0.036659792 0.026919298 -0.06593663 -0.05233564 -0.029653069 0.0730409 0.071697235 -0.07564336
0.0800429 -0.0415608 -0.046725396 -0.08606183 0.073257186 0.08046523 0.07171485 0.0055582817
-0.027554363 0.042505883 -0.034747086 -0.06340849 -0.06580676 0.042179413 -0.07397625 -0.103503
0.074570246 -0.058923535 0.00028126524 0.08062573 0.020162035 -0.03325968 0.011466513 0.07815786
-0.070298694 0.044836715 -0.029487222 -0.045576595 0.017526707 0.047557324 -0.062074594 0.0023965503
0.0035295016 0.057754498 0.0068095466 0.03964344 0.0728048 0.051373765 -0.025542593 0.022855122
0.06743161 0.046590794 -0.061561305 0.019274484 0.044603776 0.03166293 0.005776514 -0.025087047
0.016793918 -0.06604816 0.049536247 -0.067396656 -0.07686893 -0.007587405 -0.00039185825 0.027100358
-0.032232683 0.023460308 -0.071405195 0.03927194 0.029440545 -0.04790613 0.02676228 0.04515935
0.014023493 0.025494982 -0.03764521 0.037832335 0.030146139 0.0073393756 -0.069567114 0.005114854
0.04236758 -0.039269555 0.03979115 -0.040306114 -0.023503216 -0.04344033 0.030885123 0.049196884
-0.06130956 0.069306895 0.03452518 0.0073457425 0.07055032 0.016182182 0.02324949 0.04988712
-0.010254745 0.0575244 -0.011610211 0.06233621 0.00902601 -0.01900531 -0.0053066057 -0.07381112
-0.040610455 0.02393527 -0.07602407 -0.06310913 0.02845054 0.008170268 -0.042368107 0.06814762
-0.0223943 -0.03999029 0.018583529 0.024696657 -0.06749899 0.0040766736 0.018820029 0.037739854
0.0067390273 -0.08778403 -0.08655217 0.07900525 0.03794013 0.06619569 0.024123939 0.0046986304
-0.011685107 0.03353649 0.02197388 -0.056675423 0.014777929 -0.07526833 0.03352227 -0.019598631
-0.06506098 0.06113399 -0.049268182 -0.0715435 0.014851211 -0.05346628 -0.007883097 0.015232482
-0.007123938 0.0052356236 -0.015104646 0.057034843 0.049204215 -0.014484386 -0.0656116 0.03026779
0.029240208 0.024537666 -0.038749523 0.021165485 0.05918219 0.028237708 -0.07304398 0.021533724
-0.06536768 -0.07255168 -0.050572902 0.040749885 0.055599667 -0.07589576 -0.0017392987 0.04700903
0.024435356 0.032620877 0.043890495 0.025441803 -0.054606523 0.037647393 0.015838282 -0.092717476
0.033458553 0.05556933 -0.04075785 -0.008563481 0.03767433 0.026410472 0.07326801 -0.0581483
-0.023237396 -0.073404595 0.11132671 -0.029545134 0.053336523 0.028971931 -0.02485538 -0.053856943
0.06437657 0.076347 -0.00094998314 -0.01094804 0.07289443 -0.03691999 -0.08230597 0.03955588

bias f4 [32]
00000000: 1060 893d 804e 013d f5b1 a5bd 8fa3 d4bb
00000010: 6c2f a4bd 08ce 6f3d 4bac cf3c 582d 7b3d
00000020: 0cf2 5ebc 7c38 ae3c ca84 73bd 8917 89bd
00000030: 5c1f a03d b8cf cc3c c694 31bd f9c0 a0bc
00000040: 5694 aeb9 ffa8 ec38 2e98 36bd 4cd1 a9bc
00000050: 6025 11bd ded0 33bd 9a71 97bd 873f 713d
00000060: 5e8a 7ebc 84b5 2e3d 261f 8a3c 062b 533d
00000070: 5666 a73d f2be 8cbb 5578 0cbd 60d7 bd3c
0.067077756 0.031569004 -0.08090583 -0.0064892243 -0.080168575 0.058546096 0.02535071 0.06132254
-0.013607513 0.021267168 -0.05945281 -0.06693942 0.07818481 0.025001392 -0.043354772 -0.019623267
-0.00033298385 0.00011284835 -0.044578724 -0.020729683 -0.035436034 -0.043900363 -0.07394715 0.058898475
-0.015535919 0.042653576 0.016860556 0.051554702 0.08173816 -0.0042952234 -0.034294445 0.023173988

weight f4 [32]
00000000: 011e 803f a08f 7f3f 53d1 7f3f dd1c 823f
00000010: fb61 7f3f 641e 7d3f 0bd6 7b3f 5fd8 803f
00000020: ccdc 803f 3ac0 7f3f ece7 813f be84 7e3f
00000030: 456f 7f3f e223 813f 8596 803f fc44 803f
00000040: 58ac 813f 6dc8 7f3f 0ca6 803f db05 803f
00000050: 748b 7f3f 2344 813f b075 803f b4fc 7b3f
00000060: 00fa 803f 1c27 7e3f 33c2 7e3f 1787 7b3f
00000070: e1a1 7f3f ec2d 7d3f 6354 803f 322b 7f3f
1.0009156 0.9982853 0.9992878 1.0165058 0.9975888 0.988745 0.9837348 1.0066031
1.0067382 0.9990269 1.0148902 0.994213 0.9977916 1.0089076 1.0045935 1.0021052
1.013072 0.999152 1.0050673 1.0001787 0.99822164 1.0098919 1.0035915 0.9843247
1.0076294 0.99278426 0.99515074 0.98253006 0.9985638 0.98898196 1.0025753 0.99675286

bias f4 [32]
00000000: 530f 89bb 98e5 1fbb b109 5dbc 8f1b 14bb
00000010: 86ed 53bb 817f b5bb a64f 3dbc 3eca 29bc
00000020: 3b76 943a 65be 20bc 25b1 d7ba cd7c 35bb
00000030: f606 7aba ac43 f4bb 19a5 3ebc f58d 76bb
00000040: 664c 02bc b714 8cbc 1bbe 0bbc 1e17 bfbb
00000050: 5407 75bc b490 29bb a6d7 f3bb f825 dfbb
00000060: 9420 30bc 55a0 dcbb ebba b5bb 25bf 0ebc
00000070: a839 9bbc 9321 1fbb d4f1 d6ba 4e9a 80bb
-0.004182735 -0.0024398323 -0.01349108 -0.0022599434 -0.003233762 -0.0055388813 -0.011554634 -0.01036316
0.0011326739 -0.009811019 -0.0016455991 -0.0027692795 -0.00095377804 -0.007454356 -0.011636042 -0.0037621234
-0.007952785 -0.017099721 -0.008529211 -0.005831613 -0.01495536 -0.0025873603 -0.007441479 -0.006809946
-0.010749955 -0.0067329803 -0.005545964 -0.008712565 -0.018948391 -0.0024281486 -0.0016398975 -0.0039246446

running_mean f4 [32]
00000000: 0000 0000 0000 0000 0000 0000 0000 0000
00000010: 0000 0000 0000 0000 0000 0000 0000 0000
00000020: 0000 0000 0000 0000 0000 0000 0000 0000
00000030: 0000 0000 0000 0000 0000 0000 0000 0000
00000040: 0000 0000 0000 0000 0000 0000 0000 0000
00000050: 0000 0000 0000 0000 0000 0000 0000 0000
00000060: 0000 0000 0000 0000 0000 0000 0000 0000
00000070: 0000 0000 0000 0000 0000 0000 0000 0000
0.0 0.0 0.0 0.0 0.0 0.0 0.0 0.0
0.0 0.0 0.0 0.0 0.0 0.0 0.0 0.0
0.0 0.0 0.0 0.0 0.0 0.0 0.0 0.0
0.0 0.0 0.0 0.0 0.0 0.0 0.0 0.0

running_var f4 [32]
00000000: 0000 803f 0000 803f 0000 803f 0000 803f
00000010: 0000 803f 0000 803f 0000 803f 0000 803f
00000020: 0000 803f 0000 803f 0000 803f 0000 803f
00000030: 0000 803f 0000 803f 0000 803f 0000 803f
00000040: 0000 803f 0000 803f 0000 803f 0000 803f
00000050: 0000 803f 0000 803f 0000 803f 0000 803f
00000060: 0000 803f 0000 803f 0000 803f 0000 803f
00000070: 0000 803f 0000 803f 0000 803f 0000 803f
1.0 1.0 1.0 1.0 1.0 1.0 1.0 1.0
1.0 1.0 1.0 1.0 1.0 1.0 1.0 1.0
1.0 1.0 1.0 1.0 1.0 1.0 1.0 1.0
1.0 1.0 1.0 1.0 1.0 1.0 1.0 1.0

weight f4 [64, 32, 3, 3]
00000000: 3810 2fbd d872 d8bc 37ee 28bc e231 73bd
00000010: 2947 2bbd ed2e a53c e084 6fbb 7e66 693c
00000020: 675d 42bd 66f2 d43c 566c 23bd 9a75 813c
00000030: 28db 8d3c f280 503d 5f6c 213d e7e4 683d
00000040: 37a9 b53c 714b 613a fa0c 3ebd 30d2 8b3c
00000050: 49cb 3cbd 7ff5 4d3c 5412 393c 9760 06bd
00000060: 2878 9b3c c4d1 1bbd 8852 003d a8c9 22bd
00000070: 6512 ddbc e340 183c 45e9 74bc 9af9 063d
00000080: 2c2b 973c 1a59 223d 5b06 683c 1b89 61bd
00000090: cae8 12bd 1e0b 45bd f49e 273d 37b8 92bc
000000a0: c4a9 143b 34f8 21bd f433 b9bc 0b20 203d
000000b0: e9e3 f3ba 974f dd3c 2bad 073d 11bb b73b
000000c0: 20d0 6bbc d1b9 5b3d f005 d9b9 67c0 5a3d
000000d0: b8bd 98bc af39 b3bc e4c0 9c3c c420 03bd
000000e0: d61a f33c 585e b0bc 849a 06bd cf3b b0bb
000000f0: c7b2 89bb 07bd 3c3d e8bb 0cbd d0a6 c23c
00000100: accc 91bb b428 d93c de2e b7bb 7b9d 493d
00000110: adaa 12bd b5a0 a9bc 1a76 683c 59da 193d
00000120: 9667 67bd 90f1 ea3a 3434 883c 78f1 6cbc
00000130: ba6d 62bb bbe5 0c3d 57d5 633c e86b c2bc
00000140: 5045 403b c411 5ebd 25f6 143d 8dd7 4ebd
00000150: deeb b53c 12b1 2fbc 0eef bdbc 2766 473d
00000160: 783c a93c 1037 ef3b da79 ddbb ea8f 1ebd
00000170: c507 8d3c 7724 07bd 6855 f7bc 225d 043c
00000180: 5a90 d63c 18bd 0bbd 5454 00bd d267 143d
00000190: 9bf2 10bd f78f 0abd b37e af3c d784 733c
000001a0: 7e02 cfbc 4fe7 aabc 35e0 d6bc ced6 693c
000001b0: 0cf5 3f3d 6a9e 48bd baef b7bc 1981 4fbd
000001c0: b8fc 403d 29f2 10bc 1f08 8c3d 50df 4d3b
000001d0: 94b6 b1bc 34c3 6cbd 0d2f dfbc e45f 64bd
000001e0: 7f72 26bd 49be e5bc d141 a63c dbde 193c
000001f0: 7fa5 a23a 6dde c43b 0d4c 0f3d 423c d83c
00000200: e014 3f3d c036 8fbc 341b 983d 83cc 3f3c
00000210: 9eb5 e2bb 0290 5abd 886a b7bc 3dca 35bb
00000220: 205f ec3c 3ad2 0d3c 9e11 69bd a2e9 e03c
00000230: 2a1e 2bbd 2ed2 49bd f82e 403d 3d29 b53c
00000240: 1894 ff3c 6482 363d faa4 73bd 9796 8dbc
00000250: aa69 1e3d 9d56 d73c 673f 56bd 0e35 443d
00000260: 02a5 d73c 2741 833c 057f 85bc 39fb 1abd
00000270: fe6a 003b c9d9 2cbd 62b7 f0bc e499 cabb
00000280: 8379 9abb 13c3 47bd 72d0 c93c f37e 6ebc
00000290: f228 48bd c4e1 1e3d 0654 443d 2459 c2bc
000002a0: 1c09 48bd 66c2 30bd ad67 603d 8897 4ebc
000002b0: b47e 273d 5925 0dbd a0a7 2ebd 1569 97bc
000002c0: bafd 12bd ffd6 0dbd 3830 babb 2050 183c
000002d0: dd1b edbc 0a74 8f3d 013c c13c 6f91 ab3c
000002e0: c9ce 97bc d29d 75bc c506 6e3d 7c53 533c
000002f0: b2e9 44bc 1f6c 063d 935c 1e3d 2c08 153d
00000300: e456 ddb8 49e0 37bd cac2 433d 4304 773d
00000310: ec8b eabc 8424 6ebd 9814 dabc 9a88 243d
00000320: bae7 ed3b f752 fa3c d598 583b 3f3c ea3c
00000330: 3622 31bd 8a86 02bd 722f 0ebd 9289 a83b
00000340: e5e6 4dbd 663a e53c 0b84 dcbc 7f70 63bc
00000350: d79c 15bd cd20 b2bc 5550 76bc 112d 563d
00000360: 8e09 bf3c 0dfb 263d b96c 8abc b1d3 98bc
00000370: cdc6 b8bc ba9d 41bc fec6 3abd f692 75bd
00000380: 31c2 353d 206c c4bc 48a2 86bd d1e7 bfbc
00000390: a533 ea3c 3baf 94bc 8619 0fbd 2249 3f39
000003a0: 2a8a 993c bfaa be3c bb47 603d 6e05 dc3b
000003b0: c700 ee3c fb91 0e3d aa73 0cbd a9ea e53a
000003c0: ab0e 49bd 5a73 cebc de2b 6c3b fd4a b93c
000003d0: 0579 60bd ae3f 7d3d 0928 28bc dbf3 3abc
000003e0: c625 19bb fecd 043d 2c4d d43a 9ad1 f13c
000003f0: cbf2 95bc 42e7 53bd 790c e93a ebd7 48bd
-0.042740077 -0.02642195 -0.010310701 -0.059373744 -0.04181591 0.020163978 -0.0036547706 0.014245627
-0.047452357 0.02599449 -0.03989824 0.015803147 0.017316416 0.05090422 0.03940999 0.056858923
0.022175414 0.00085943105 -0.046399094 0.017067999 -0.046092305 0.012570738 0.011295874 -0.03280696
0.018978193 -0.038041845 0.031328708 -0.039743096 -0.02698631 0.009292814 -0.014948194 0.032952882
0.018453203 0.039635755 0.0141616715 -0.055062395 -0.035866536 -0.048106305 0.040923074 -0.017910106
0.0022684196 -0.039543346 -0.022607781 0.03909306 -0.0018607351 0.02701549 0.03312413 0.005607017
-0.014392883 0.053644005 -0.0004139389 0.053406145 -0.018645152 -0.021878092 0.019134946 -0.03201367
0.029675882 -0.021529362 -0.0328622 -0.0053782235 -0.00420222 0.046078708 -0.03435889 0.023761183
-0.0044494476 0.026508667 -0.005590304 0.04922245 -0.0358073 -0.020706514 0.014188314 0.03756175
-0.05649527 0.0017924774 0.016626455 -0.0144618675 -0.0034550265 0.034398776 0.013905845 -0.023733094
0.0029338188 -0.05421616 0.036367554 -0.050498534 0.022207197 -0.010723369 -0.02318528 0.048681404
0.020658717 0.007300265 -0.0067589106 -0.038711466 0.017215619 -0.03299376 -0.030192092 0.008078845
0.026191879 -0.03411588 -0.03133042 0.036231823 -0.035387617 -0.0338287 0.02142272 0.014863214
-0.025269743 -0.02086225 -0.026229957 0.014272405 0.046864554 -0.0489792 -0.022453178 -0.050660226
0.04711601 -0.008846798 0.068374865 0.0031413622 -0.021693505 -0.057803348 -0.027244115 -0.05575551
-0.040636536 -0.028044837 0.020295056 0.009391512 0.0012408941 0.0060079605 0.034984637 0.02639592
0.046650767 -0.017482162 0.074270636 0.011706474 -0.006918623 -0.053359993 -0.022389665 -0.0027738952
0.028853953 0.008656079 -0.056901567 0.027455155 -0.041776814 -0.04927271 0.046919793 0.02211439
0.031198546 0.044557944 -0.059483506 -0.01728372 0.038674988 0.026286418 -0.05230656 0.04790216
0.026323799 0.016022278 -0.01629592 -0.03783724 0.0019595022 -0.042199884 -0.029384319 -0.006182896
-0.0047141924 -0.04877002 0.024635527 -0.014556634 -0.048867173 0.038789526 0.047931693 -0.023724146
-0.048836812 -0.043154143 0.054786373 -0.01260937 0.040892318 -0.034459446 -0.04264033 -0.018482724
-0.035886504 -0.034628864 -0.0056820177 0.009296447 -0.02894395 0.070045546 0.023588182 0.020943372
-0.01853122 -0.014991241 0.058111925 0.012898322 -0.012018608 0.032817956 0.038662504 0.036384746
-0.00010554286 -0.04489163 0.047793187 0.0603068 -0.028631173 -0.058140293 -0.026621148 0.040169336
0.00726029 0.030557139 0.003305008 0.02859318 -0.043245517 -0.031866588 -0.034713216 0.005143353
-0.050269026 0.027981948 -0.026918432 -0.013881802 -0.036526527 -0.021744156 -0.015033801 0.052289072
0.023319986 0.040766764 -0.016897546 -0.01865563 -0.022555733 -0.01181739 -0.04559993 -0.059954606
0.04437465 -0.02397734 -0.065739214 -0.023425968 0.02858908 -0.018149963 -0.03493645 0.00018242424
0.01874264 0.023274777 0.054755908 0.0067145145 0.029053105 0.034807187 -0.034289993 0.0017541248
-0.049086254 -0.025201488 0.003603689 0.022618765 -0.054802913 0.061828308 -0.010263451 -0.011410679
-0.0023368462 0.032423012 0.0016197315 0.029518891 -0.01830425 -0.051734217 0.0017780206 -0.04903404

bias f4 [64]
00000000: 96ee 043c 19f8 213d 65a1 18bd 6a1b e3bc
00000010: ba3b 463d 2421 08bd ace0 05bd 6695 4d3d
00000020: 44c1 8ebc 681d 8dbc e025 d23c 445d bc3c
00000030: 07a3 5c3d 6dda 37bd 045f c4bc 10f5 3e3d
00000040: d275 2e3d db7a 8f3c b30a f33b 209b 463d
00000050: 52c1 56bd 0049 0e3d 59a9 68bd 3b20 243d
00000060: dc1a 62bd 73fe c3bc 98fe e6bc ec72 3ebc
00000070: 60d1 4d3d 1f17 e23b 91b1 35bd a41a 153c
00000080: 8b8d 64bd b088 b3bb 94a7 43bd 0fd7 2f3d
00000090: 1b79 57bd 7505 43bb 4c96 2e3d a652 b03b
000000a0: 9cf1 fdbb 5ea0 b4bc 00c3 883c 9bb5 36bd
000000b0: 3223 5d3d d0f2 2b3d d4ae c73c ab68 0b3d
000000c0: eeb5 2dbd b88b 803c da5a d3bb 0665 b03b
000000d0: bfc8 043d ab80 593d a94a f1bc 5370 cebb
000000e0: a977 64bd cf4d 163c dc7f 073d a11f bb3c
000000f0: 0839 0fbc 41e2 a43c a9e4 193d dd06 833b
0.008113524 0.039543245 -0.037263293 -0.027723033 0.048396803 -0.03323473 -0.032684967 0.050191306
-0.01742614 -0.017225936 0.025652826 0.022993691 0.053866412 -0.04488604 -0.023971088 0.04662043
0.04259283 0.017514637 0.007417047 0.048487782 -0.05243046 0.034737587 -0.056802128 0.0400698
-0.055201396 -0.023925042 -0.028197572 -0.011624079 0.050248504 0.006899729 -0.044358794 0.00910059
-0.05579905 -0.005478941 -0.047767237 0.042929705 -0.05260573 -0.0029757891 0.042623803 0.005380946
-0.0077497493 -0.022049125 0.016694546 -0.044606786 0.053988643 0.04197961 0.024375357 0.034035366
-0.04240983 0.015691623 -0.0064500393 0.0053831367 0.03241801 0.053101223 -0.029454546 -0.006300011
-0.05577818 0.009173824 0.03308092 0.02284223 -0.008741625 0.020127418 0.037571583 0.003998621

weight f4 [64]
00000000: 110f 823f cee8 803f fa7a 803f 9cea 803f
00000010: 45ce 823f dc8c 803f 1765 8d3f 1697 7f3f
00000020: 558c 833f d6cc 7f3f b39d 843f bc1d 953f
00000030: 3da9 843f cec3 7f3f ebd9 823f bbf5 803f
00000040: 3b7e 803f 29fa 803f 5539 813f d80d 803f
00000050: 4633 803f fa90 813f ed3c 803f 4fa9 803f
00000060: 02ba 7f3f 0fce 833f 2e10 803f 839f 7f3f
00000070: a6b7 7f3f 11ca 7f3f db79 843f bd76 803f
00000080: 263e 803f 0612 803f 0e54 8f3f b1da 7f3f
00000090: 147e 813f 24af 823f 3614 813f 61db 7f3f
000000a0: cdb4 803f 88f0 7f3f 36ee 893f 5589 813f
000000b0: 356b 803f d3e5 7f3f 53cd 7f3f 16d8 7f3f
000000c0: 4ed5 873f 06be 7f3f 5f55 813f 87a0 803f
000000d0: 58e3 823f 048b 853f af39 823f 02ea 7f3f
000000e0: 0e10 803f 7cff 7f3f be6b 813f 9a03 803f
000000f0: ad2c 813f 8905 803f 939b 7f3f 525b 803f
1.0160848 1.0071046 1.003753 1.0071597 1.0219198 1.0042987 1.1046475 0.99839914
1.0277201 0.9992193 1.0360626 1.1649699 1.0364147 0.9990815 1.0222753 1.0074991
1.0038522 1.0076343 1.0095621 1.0004225 1.0015647 1.0122368 1.0018593 1.0051669
0.998932 1.0297259 1.0004938 0.9985277 0.998896 0.99917704 1.0349687 1.0036236
1.0018966 1.00055 1.1197526 0.9994307 1.0116601 1.0209699 1.0084293 0.9994412
1.0055176 0.99976397 1.0775821 1.0120035 1.0032717 0.9996006 0.99922675 0.99939096
1.061197 0.9989933 1.0104178 1.0048989 1.022563 1.0433049 1.0173854 0.9996644
1.00049 0.99999213 1.0111005 1.0001099 1.0091759 1.0001689 0.9984676 1.0027869

bias f4 [64]
00000000: 1c32 853a 1288 a8b8 f2c5 3cba 4c20 d7b8
00000010: d80d 403a a1e7 d739 708a f63b 1049 a9ba
00000020: 6092 0c3b a1ca d0b9 2ac5 073a 3a40 543c
00000030: 9740 413b bedd 9dba 67c2 40ba 1098 4fba
00000040: a11a 52b8 668d 4a3a 286e 053b 0722 1d38
00000050: b69c 9539 bf4f 033a 3606 05ba cccc 333a
00000060: a375 86ba 159f 193b 3b1b 84ba 3c34 8fba
00000070: 339c 98ba e916 5dba 6a4b 8bb8 1204 dcb9
00000080: dfee 413a 9cb1 7a38 7390 d33b ec3a 7eba
00000090: 34de cf3a db14 3eba 078c a43a 04fb deb9
000000a0: f6ec c5ba 9643 47b9 f378 303c 2c22 b03a
000000b0: de1a 8dba d444 8cb9 cf26 40b8 e4c3 52ba
000000c0: b946 2e3b 2af1 60ba cfd7 c03a bd67 7bba
000000d0: 5123 993a ce25 663b 1845 d639 cc17 90ba
000000e0: f10c b4b9 e007 e4b6 b6fa 38ba a8a4 8cba
000000f0: 7fa0 003a 86e8 cdb9 eb53 9bba 64ea c7ba
0.0010162028 -8.036209e-05 -0.0007201127 -0.00010258015 0.00073262816 0.00041180573 0.0075238273 -0.0012915451
0.002144955 -0.00039823822 0.0005179221 0.012954766 0.0029487961 -0.0012044234 -0.0007353187 -0.00079190824
-5.00927e-05 0.00077267585 0.0020359848 3.7463407e-05 0.00028536253 0.00050091365 -0.0005074473 0.0006858825
-0.0010258447 0.0023440768 -0.0010078916 -0.0010925601 -0.0011643231 -0.0008433895 -6.6420835e-05 -0.00041964703
0.000739796 5.9770056e-05 0.0064564287 -0.0009698111 0.0015859068 -0.00072510325 0.0012553938 -0.0004253016
-0.0015100527 -0.00019003297 0.010771024 0.0013437918 -0.0010765453 -0.00026754162 -4.581251e-05 -0.0008040054
0.0026592447 -0.0008580858 0.0014712753 -0.00095903483 0.0011683499 0.0035117748 0.0004086874 -0.001099342
-0.00034341917 -6.7958463e-06 -0.0007056402 -0.0010730224 0.0004906728 -0.0003927389 -0.0011850571 -0.0015252349

running_mean f4 [64]
00000000: 0000 0000 0000 0000 0000 0000 0000 0000
00000010: 0000 0000 0000 0000 0000 0000 0000 0000
00000020: 0000 0000 0000 0000 0000 0000 0000 0000
00000030: 0000 0000 0000 0000 0000 0000 0000 0000
00000040: 0000 0000 0000 0000 0000 0000 0000 0000
00000050: 0000 0000 0000 0000 0000 0000 0000 0000
00000060: 0000 0000 0000 0000 0000 0000 0000 0000
00000070: 0000 0000 0000 0000 0000 0000 0000 0000
00000080: 0000 0000 0000 0000 0000 0000 0000 0000
00000090: 0000 0000 0000 0000 0000 0000 0000 0000
000000a0: 0000 0000 0000 0000 0000 0000 0000 0000
000000b0: 0000 0000 0000 0000 0000 0000 0000 0000
000000c0: 0000 0000 0000 0000 0000 0000 0000 0000
000000d0: 0000 0000 0000 0000 0000 0000 0000 0000
000000e0: 0000 0000 0000 0000 0000 0000 0000 0000
000000f0: 0000 0000 0000 0000 0000 0000 0000 0000
0.0 0.0 0.0 0.0 0.0 0.0 0.0 0.0
0.0 0.0 0.0 0.0 0.0 0.0 0.0 0.0
0.0 0.0 0.0 0.0 0.0 0.0 0.0 0.0
0.0 0.0 0.0 0.0 0.0 0.0 0.0 0.0
0.0 0.0 0.0 0.0 0.0 0.0 0.0 0.0
0.0 0.0 0.0 0.0 0.0 0.0 0.0 0.0
0.0 0.0 0.0 0.0 0.0 0.0 0.0 0.0
0.0 0.0 0.0 0.0 0.0 0.0 0.0 0.0

running_var f4 [64]
00000000: 0000 803f 0000 803f 0000 803f 0000 803f
00000010: 0000 803f 0000 803f 0000 803f 0000 803f
00000020: 0000 803f 0000 803f 0000 803f 0000 803f
00000030: 0000 803f 0000 803f 0000 803f 0000 803f
00000040: 0000 803f 0000 803f 0000 803f 0000 803f
00000050: 0000 803f 0000 803f 0000 803f 0000 803f
00000060: 0000 803f 0000 803f 0000 803f 0000 803f
00000070: 0000 803f 0000 803f 0000 803f 0000 803f
00000080: 0000 803f 0000 803f 0000 803f 0000 803f
00000090: 0000 803f 0000 803f 0000 803f 0000 803f
000000a0: 0000 803f 0000 803f 0000 803f 0000 803f
000000b0: 0000 803f 0000 803f 0000 803f 0000 803f
000000c0: 0000 803f 0000 803f 0000 803f 0000 803f
000000d0: 0000 803f 0000 803f 0000 803f 0000 803f
000000e0: 0000 803f 0000 803f 0000 803f 0000 803f
000000f0: 0000 803f 0000 803f 0000 803f 0000 803f
1.0 1.0 1.0 1.0 1.0 1.0 1.0 1.0
1.0 1.0 1.0 1.0 1.0 1.0 1.0 1.0
1.0 1.0 1.0 1.0 1.0 1.0 1.0 1.0
1.0 1.0 1.0 1.0 1.0 1.0 1.0 1.0
1.0 1.0 1.0 1.0 1.0 1.0 1.0 1.0
1.0 1.0 1.0 1.0 1.0 1.0 1.0 1.0
1.0 1.0 1.0 1.0 1.0 1.0 1.0 1.0
1.0 1.0 1.0 1.0 1.0 1.0 1.0 1.0

weight f4 [32, 64]
00000000: 4870 5fbd 347d aebd 90a8 023d 222d bc3d
00000010: 72d2 83bd 2e82 b83d b1ab dcbd 50e5 243c
00000020: 7402 e13d 1cf7 9abd 6e78 b43a cf91 e1b9
00000030: e7ea a6bd 25eb 9bbc 8ed8 4d3d 3969 efbc
00000040: b29d f6bd 28c3 493d 9e64 a83b fcd1 c0bd
00000050: 23a4 bf3c 11f5 6d3d 571d c2bd b3c5 b83d
00000060: 457d b1bd f667 6d3c d636 4abd 721d bc3b
00000070: 8f41 4c3d a719 d8bd ad5d 80bc 92b3 c33d
00000080: 8d3e aa3c 2594 f7bd 906f 91bd 7fe1 3b3d
00000090: ed50 203c 1fb2 05be 995a b0bd 0a6e 87bd
000000a0: 6f98 7fbd e460 a63d b415 e4bd 1ac0 853b
000000b0: 8514 583d deba 9f3d 89dc febc bd1c d43d
000000c0: b00e cbbc bef7 8cbd c6d2 023e 0ae1 f1bb
000000d0: cc15 88bd 3396 873d b8c3 ab3d 1bb9 933d
000000e0: 526e db3c 32b6 ae3d a566 bfbd ff8a d43d
000000f0: c690 60bd 6a2e 9e3d 7e6f a8bd 94ed 9ebd
00000100: 8b1f ee3c 2598 a03c b19f 36bd 32f6 51bd
00000110: 8cf1 b03d 06d9 8d3d bcc2 eebd 94fa a03d
00000120: de4e 013d 57ef 83bd 2273 f1bd e0ef ecbd
00000130: d43c 023e b3ab 233d ecad ce3d 21a0 eabb
00000140: d26d 77bd b39d 203d c8e4 773d f8e6 ba3d
00000150: e0cc 17bd 1acb bf3d 09db 7bbd 176f ecbc
00000160: 9d1f debd acf7 e8bd 47f6 94bc 420c 883d
00000170: 654d 8abd 16e0 eebc db39 63bb c692 3abd
00000180: 8263 c5bd cafd f2bc a6bf 82bd 4e7a 6d3d
00000190: 7a26 a43d c08e dbbd fafb edbc ddd7 eb3d
000001a0: 57f1 a7bd b22c 853d e408 58bc 7453 2dbd
000001b0: 87b2 7ebd 9102 f83c 5da5 723d ee9c 073d
000001c0: c37b 483d 19ea 703c a63f 93bd 6615 efbd
000001d0: 9763 c8bd e326 96bd acfd 803b 3727 c3bd
000001e0: 9c5b d53d 957c 0dbc e80d 613d f30f 063d
000001f0: 22e0 5bbb 360f 9b3d 3862 bf3d a4c2 dd3d
00000200: b5ec b7bb a801 1fbd cd91 cdbd 71af 37bb
00000210: 4c72 4dbd 7920 a3bd 329c e0bc da24 75bd
00000220: 027d afbb e801 e93d 1004 063e 447c 17be
00000230: 86a1 71bd 514a 843c 3cad 7bbd 8ba7 783d
00000240: 76ac 4dbd 8829 5b3d 1a0e 8cbd d63a 9c3c
00000250: 8ab9 d8bc 646b cfbd 5a61 b7bd 9e1f 703d
00000260: 86b9 87bd 5bad 003e bf2e f53d cc26 f53d
00000270: abc2 c0bc aac4 fcbd 55c4 aa3c b2ea 833d
00000280: bd03 4abd 2388 613d 34a3 2e3e be60 5bbd
00000290: be94 083d f4e4 dfbd daac 9fbd ae0d 603d
000002a0: 9225 bdbd 4da7 a23d a9f2 a63d 32f8 f6bc
000002b0: 6dc5 e13d 5320 3abd 6916 503d 30b6 ecbd
000002c0: 38a8 90bb af10 29bc 8a1f ae3d 1d07 8bbd
000002d0: 1e48 0f3e 57ee 0f3d 1f4f 853c af83 9abc
000002e0: c6b6 28bd 4aa2 f73c 2d47 70bd eece 13bd
000002f0: c843 87bd 105e a13c 739d 823d 5963 28bd
00000300: 33c5 c13d 777f 80bd 44ad 66bd ff34 de3c
00000310: 7ecf 94bd ee86 8d3d debc dc3d dfd9 2bbd
00000320: ca17 133b 5eb3 83bd c9c6 893c ee0e c2bd
00000330: 91e8 423d c1ad adbd 1db7 76bd db4c d93d
00000340: 365c d13d e2d6 5a3d df52 a8bc 6068 7ebc
00000350: 1f60 e5bd 4299 393d 0be6 823c f036 88bd
00000360: 99bb 733b 4e41 01be 4b00 efbd aa73 71bd
00000370: 9e45 36bc f664 a0bd 1ced 7abd 9bf6 1d3d
00000380: 3e2b 67bc 488e af3d ae00 e4bc d11e 7c3d
00000390: 966f e13d 2583 aa3c c4e2 833d ac6b c0bd
000003a0: ac51 933d 79df eb3c ed14 733d 0aa5 c0bd
000003b0: 2295 073d e5d4 023d 6689 cfbc 103f 8ebd
000003c0: cfcc dc3d e48a 873d 3023 c93d 82d7 88bd
000003d0: 818a 58bd 327d 603c 3b2a a83c 7ac1 fb3d
000003e0: 616d f0bd a006 63bd 9fbc cf3c 38e8 913d
000003f0: 80fd 93ba bae5 813c a13d c9bd 94ce bb3c
-0.05455044 -0.08519974 0.031899035 0.09188296 -0.06436624 0.09009205 -0.10774935 0.010064438
0.10986796 -0.075666636 0.0013768801 -0.0004302398 -0.08150273 -0.019033024 0.05025535 -0.029224979
-0.12041797 0.04925838 0.0051389476 -0.09415051 0.023393696 0.05809504 -0.094782524 0.09022083
-0.086664714 0.014490118 -0.049368702 0.005740815 0.04986721 -0.10551768 -0.015669668 0.09555735
0.02078178 -0.12088803 -0.07101357 0.045869347 0.009784919 -0.13056229 -0.0861103 -0.06612785
-0.06240123 0.08123949 -0.11136952 0.004081738 0.052753944 0.07799314 -0.031111019 0.10357044
-0.024787277 -0.068831906 0.12775716 -0.007381563 -0.066447824 0.06620445 0.0838694 0.072130404
0.026786003 0.08530845 -0.0934575 0.10378074 -0.054825567 0.077236965 -0.082243904 -0.07760158
0.029067775 0.019603798 -0.044585887 -0.05126018 0.086398214 0.069261596 -0.116582364 0.07860294
0.031569354 -0.06442135 -0.11789538 -0.1156919 0.12718517 0.039958667 0.10091767 -0.007160202
-0.060407467 0.039212894 0.060520917 0.09126085 -0.03706062 0.093649104 -0.061488185 -0.028861566
-0.108458735 -0.11375365 -0.01818384 0.06642963 -0.06753043 -0.029159587 -0.0034671936 -0.04555013
-0.0963812 -0.029662032 -0.0638421 0.057977967 0.08015151 -0.10720587 -0.029050816 0.11515782
-0.08200329 0.065026656 -0.013185713 -0.042315915 -0.062181976 0.030274661 0.059239734 0.033108644
0.048946153 0.014704251 -0.07189874 -0.11674003 -0.0978462 -0.07331636 0.00393649 -0.09528964
0.10417864 -0.00863566 0.054944903 0.032730054 -0.0033550342 0.07571261 0.093449056 0.108281404
-0.0056129345 -0.03881994 -0.10037575 -0.0028028155 -0.05015783 -0.07965178 -0.02741823 -0.059849598
-0.0053554783 0.11377317 0.13087487 -0.14793497 -0.05899193 0.016148718 -0.061444506 0.060706656
-0.0502133 0.053506404 -0.06838627 0.019071024 -0.02645566 -0.10127905 -0.08954115 0.058623902
-0.06627183 0.1256613 0.11971807 0.119702905 -0.023530325 -0.12342198 0.020845572 0.06441249
-0.04931997 0.05506147 0.17054445 -0.053559057 0.033344977 -0.10932341 -0.07796641 0.054700546
-0.092356816 0.07942066 0.081517525 -0.030147646 0.11023984 -0.045440983 0.050802622 -0.11558187
-0.0044145845 -0.010318919 0.08502109 -0.06788466 0.13992354 0.035139408 0.01627308 -0.01886162
-0.04118993 0.030228753 -0.05866163 -0.036086015 -0.06604725 0.019698173 0.06377687 -0.04111037
0.09461441 -0.06274312 -0.056317583 0.02712488 -0.072661385 0.069105014 0.10778211 -0.041955825
0.00224446 -0.06430696 0.016818421 -0.09475504 0.047585074 -0.084804066 -0.060233224 0.10610362
0.10222666 0.053427584 -0.020547329 -0.015527815 -0.11199974 0.045312174 0.015978834 -0.066511035
0.0037190674 -0.12622568 -0.11669978 -0.058948196 -0.0111249965 -0.07831757 -0.06126128 0.03856526
-0.014109431 0.0857206 -0.027832355 0.061552826 0.110076115 0.020814488 0.064397365 -0.09395537
0.07193312 0.028793084 0.05934613 -0.09406479 0.03310121 0.031941313 -0.025334071 -0.06945622
0.10781252 0.06618288 0.098211646 -0.0668173 -0.052866463 0.013701724 0.02052795 0.12292762
-0.11739612 -0.05542624 0.025358496 0.0712437 -0.0011290759 0.015856612 -0.09826208 0.022925653

bias f4 [32]
00000000: 9b10 4c3d fbb5 f43d f979 3f3c 8b4f 70bd
00000010: 7f2d 4f3d f447 8cbb bc4b 57bd 6e12 a43c
00000020: 2861 873d 19f2 16bd 62f6 96bd 5923 c6bd
00000030: 4664 823b 0cad abbd cc98 aa3c 6281 c5bd
00000040: ac31 a73d d2e4 843d 7ffd 7dbd 00c3 ce3d
00000050: 1ea9 d53d e498 40bd 9692 803d 6727 273c
00000060: 03ae 59bd 6040 ba3d fc8f fdbb 44ef bfbb
00000070: ed36 39bb 2725 31bc ee2f 99bd 6d76 6c3c
0.049820524 0.119487725 0.011686795 -0.058669608 0.050580498 -0.0042810384 -0.05256246 0.02002832
0.06610328 -0.036851976 -0.073712125 -0.09674711 0.0039792387 -0.083826154 0.020824812 -0.096438184
0.08163771 0.064889565 -0.06200933 0.10095787 0.10432647 -0.047020808 0.06277959 0.010202265
-0.053144466 0.0909431 -0.0077381115 -0.00585738 -0.0028261498 -0.01081208 -0.07479845 0.014432532

weight f4 [2, 32]
00000000: ce82 693d 20ee 0c3e 18e3 583e 7d80 0c3d
00000010: e194 13be 90f0 8dbe bbcd 8ebe f0fc b4be
00000020: ce0b 033e f8f2 0c3d e7c1 cc3c 0830 1bbc
00000030: d108 92be cb0f 7f3e df32 5cbe 62ab 913c
00000040: 7267 99be 06d9 0c3e dec2 0d3e 2a14 503e
00000050: d0d6 033f a793 b83d 7261 98be 60ce 25be
00000060: ece9 6abe 5a45 95be c475 a53d ec75 643d
00000070: 18e4 563d 7cdb abbd 1310 0bbe dc57 7fbe
00000080: ad23 bbbd b10e db3d 1b8a f1bd 53be 073e
00000090: 6d8a 9b3e 02fa df3d 2cb1 bd3e 4f79 673e
000000a0: 251d f8bb 76f2 a13d eeda 6bbe cba7 e53d
000000b0: ee73 cb3e dfff 7f3d 8bad 803e 9462 bebd
000000c0: e1d8 693e 45b6 94be e479 d03d 175f dabc
000000d0: 0a13 05bf ff6b 043d 80cf 383e fb2a 3d3e
000000e0: 094a 233d 14d4 0a3e 5769 18bd 4887 08be
000000f0: 51d5 523e ee42 553e 3eb9 38be 911c 813e
0.05700951 0.13762712 0.2118038 0.034302223 -0.14412262 -0.27722597 -0.27891335 -0.35349226
0.12797472 0.0344114 0.024994804 -0.009471901 -0.2852235 0.24908368 -0.21503781 0.017781917
-0.29961735 0.13754663 0.13843867 0.20320192 0.5149965 0.090125374 -0.29761845 -0.16192007
-0.22940797 -0.29154474 0.08079103 0.05577652 0.05246362 -0.08391473 -0.1358035 -0.2493586
-0.09137664 0.106961615 -0.1179392 0.13256197 0.30379048 0.10936357 0.37049234 0.2260487
-0.0075718337 0.07907574 -0.23032734 0.112136446 0.39736885 0.062499877 0.25132403 -0.09296146
0.22836639 -0.2904531 0.10179499 -0.02665667 -0.51982176 0.032329556 0.18047905 0.18473427
0.039865527 0.13557464 -0.037209835 -0.13332856 0.20589186 0.20826313 -0.18039414 0.25217107

bias f4 [2]
00000000: 70c1 cc3d 8471 093e
0.09997833 0.13422209
